results/saved_models/df_CNYExch_seed_2210_model_CNN.pkl (torch, 182871 bytes, 18 tensors)

weight_mu f4 [256, 7, 1]
0	0x3e223a01	0.15842439
1	0x3d5e2ac2	0.054239996
2	0x3e2d9bd8	0.16953981
3	0x3da4214f	0.080141656
4	0xbd18761e	-0.03722202
5	0x3eaa476d	0.3325762
6	0x3df1b405	0.11801914
7	0xbddb31a9	-0.10702831
8	0xbe2ed8b7	-0.17074858
9	0xbda599ce	-0.080859765
10	0xbdd4fa54	-0.10399309
11	0xbcea0be3	-0.028570121
12	0xbe73ddeb	-0.23815124
13	0xbe69c5b7	-0.22829328
14	0x3d1f0131	0.038819496
15	0x3e091c87	0.13389789
16	0xbd919ae2	-0.0710962
17	0xbd3a2311	-0.0454436
18	0x3e4f6ef9	0.20257176
19	0x3ca958e2	0.020672265
20	0x3e0d183d	0.13778777
21	0xbc388d96	-0.0112642255
22	0x3e3f0764	0.18655163
23	0x3dbccdec	0.09218964
24	0x3e4a9b5b	0.19785826
25	0x3d1409fd	0.036142338
26	0x3e18817c	0.14893144
27	0x3daf537a	0.08560844
28	0x3d2145ad	0.03937309
29	0xbe02c1de	-0.12769267
30	0xbdbca01d	-0.09210227
31	0xbd0764a4	-0.033054963
32	0x3c34b98d	0.011030567
33	0x3d96b7d3	0.073592804
34	0xbdbffa47	-0.093739085
35	0x3ddec99f	0.108783
36	0xbe1b02f5	-0.15137847
37	0xbe0a7c79	-0.13524045
38	0xbd29fe68	-0.041502386
39	0xbdfd7275	-0.123753466
40	0x3d81c435	0.06336252
41	0x3db74160	0.08948016
42	0x3d2875e6	0.04112806
43	0x3e4d3a0d	0.20041676
44	0x3d78584a	0.060631074
45	0x3c39d487	0.011342174
46	0x3d2bf520	0.041981816
47	0x3dd95433	0.10611763
48	0x3ca8fe66	0.02062912
49	0x3ddb9f52	0.10723747
50	0x3df6fe49	0.1206022
51	0x3e00ede4	0.12590748
52	0x3e062fcc	0.1310417
53	0x3c26b403	0.010174754
54	0x3e9e8138	0.3095796
55	0x3e3485e4	0.176292
56	0xbd4d56b7	-0.050131526
57	0x3d411ffa	0.047149636
58	0xbbb69275	-0.0055716583
59	0xbd78d35d	-0.060748447
60	0xbd1780c7	-0.036988046
61	0x3d4ac8d3	0.049507927
62	0xbdd4fac2	-0.10399391
63	0xbdc8786e	-0.09788595
64	0xbc52f99b	-0.012876893
65	0x3cf9e390	0.030504018
66	0xbe8b0789	-0.27154186
67	0xbdc15d9f	-0.09441685
68	0xbdc0363a	-0.09385343
69	0xbd0ddfa3	-0.034637105
70	0xbd889213	-0.066684864
71	0x3d49e2ff	0.049288746
72	0x3dba6001	0.091003425
73	0x3d23055a	0.039800026
74	0xbd12d957	-0.035851803
75	0xbe328a31	-0.17435528
76	0xbdbbcf6f	-0.09170424
77	0xbcd57a4b	-0.02605929
78	0xbd5a6de2	-0.05332745
79	0x3c9a140b	0.018808385
80	0x3e2211cb	0.158271
81	0xbd951158	-0.07278699
82	0x3e030b68	0.1279732
83	0xbd08c29d	-0.033388723
84	0xbe6cfdd0	-0.23143697
85	0x3db224e5	0.08698443
86	0x3de259bd	0.110522725
87	0xbe3f29ef	-0.1866834
88	0xbd6d8140	-0.05798459
89	0xbcde894b	-0.027165076
90	0xbe377d7e	-0.17918965
91	0x3d1bfd50	0.038083375
92	0x3e90aad4	0.28255332
93	0x3d87fd28	0.066400826
94	0x3e16f478	0.14741695
95	0x3ca2aa19	0.0198565
96	0x3b8e13bf	0.00433585
97	0x3e007350	0.12543988
98	0x3d00357b	0.031301003
99	0xbb98b09f	-0.0046597268
100	0x3d0d722f	0.034532722
101	0x3e0f1dee	0.13976261
102	0x3ea75140	0.32679176
103	0x3d61ce65	0.055128474
104	0x3e5386f7	0.20656954
105	0xbd97a14e	-0.07403813
106	0x3dad1c30	0.08452642
107	0x3c9b7a5b	0.018979242
108	0x3c268b6f	0.0101650795
109	0x3e199bb1	0.15000798
110	0xbd41e638	-0.047338694
111	0x3db1497d	0.08656595
112	0x3e8f60f9	0.28003672
113	0x3dc22f91	0.09481729
114	0x3df48b7e	0.119406685
115	0x3d85feea	0.065427616
116	0x3e20f34b	0.15717809
117	0xbd6a8eb5	-0.057265002
118	0x3da059e3	0.078296445
119	0x3e2863e7	0.1644436
120	0xbc4264b2	-0.011864828
121	0xbc75ac89	-0.014994749
122	0xbe213184	-0.15741545
123	0xbe0c49ca	-0.13700023
124	0x3dd74d23	0.105127595
125	0xbdba4b40	-0.09096384
126	0x3d171987	0.03688958
127	0xbd935eed	-0.0719584
128	0x3d787e7b	0.060667496
129	0x3db65edb	0.08904811
130	0x3d1f5005	0.038894672
131	0x3cfd12a4	0.030892678
132	0x3cb04b2d	0.021520222
133	0xbd6aaaea	-0.057291903
134	0x3dd227c7	0.10261493
135	0x3de01d94	0.109431416
136	0x3a0a2f7a	0.0005271357
137	0x3e173c8e	0.14769194
138	0x3de14307	0.109991126
139	0x3d96268c	0.07331571
140	0x3e86c316	0.26320714
141	0x3d14367d	0.036184777
142	0x3e03e121	0.12878849
143	0x3e12ec40	0.14347935
144	0x3d9c91de	0.076450095
145	0x3dfe9f3a	0.12432714
146	0x3dd3eea8	0.103482544
147	0xbd4bf4b1	-0.049793903
148	0xbddd497a	-0.1080503
149	0xbd6c39af	-0.0576722
150	0xbd58ef8a	-0.052962817
151	0xbe776922	-0.24161199
152	0xbd4b477c	-0.04962872
153	0xbbf5aa83	-0.007497133
154	0x3e5cc649	0.21560015
155	0x3e01af0c	0.12664431
156	0x3e24a932	0.16080168
157	0x3e2ea26a	0.17054144
158	0xbe879dfb	-0.26487717
159	0x3d823fd3	0.0635983
160	0xbc945a8f	-0.018109588
161	0x3daba0fa	0.08380313
162	0xbd493102	-0.049119003
163	0x3df503ae	0.119635925
164	0xbd80a6c9	-0.06281812
165	0xbd32b123	-0.043625962
166	0x3e9d1b44	0.30684865
167	0x3ded9574	0.116007715
168	0x3d7b8e1c	0.061414823
169	0xbb004357	-0.0019571388
170	0x3d8df232	0.06930961
171	0x3d890c91	0.0669185
172	0xbd36120b	-0.0444508
173	0x3cec3f8d	0.028838897
174	0x3d1c69c6	0.03818681
175	0xbdab3f10	-0.083616376
176	0xbe547e3e	-0.20751283
177	0xbd68ad50	-0.05680591
178	0xbe8a79c7	-0.27046034
179	0x3db63f8a	0.08898838
180	0x3c8d1c21	0.017225327
181	0xbd6e769c	-0.058218583
182	0x3d9ffc09	0.07811744
183	0xbd3b6959	-0.045754764
184	0xbdab6526	-0.08368902
185	0xbe298af6	-0.16556916
186	0xbe3bbe6f	-0.18334363
187	0xbe354312	-0.17701367
188	0x3da047bb	0.078261815
189	0xb8479cb6	-4.7591246e-05
190	0x3d4f260a	0.050573386
191	0x3d3981e6	0.045289896
192	0x3d23be65	0.039976496
193	0x3da9d269	0.08292086
194	0x3dd108ea	0.10206778
195	0x3e3c715a	0.18402615
196	0x3de9000e	0.113769636
197	0x3d8dc902	0.06923105
198	0xbc7385d2	-0.014863448
199	0x3e38e4b2	0.1805599
200	0x3e7717c3	0.24130158
201	0x3d596652	0.053076096
202	0xbb7dc18c	-0.00387201
203	0x3c0d1db3	0.008613038
204	0xbde448ff	-0.111467354
205	0xbd8a054a	-0.0673929
206	0xbd3c8013	-0.04602058
207	0xbb5b82dc	-0.0033494746
208	0xbe54ca60	-0.20780325
209	0xbde6237a	-0.11237235
210	0x3da71307	0.08157926
211	0xbc30beb6	-0.0107876565
212	0xbe84a4a1	-0.25906852
213	0xbd2f847f	-0.042850967
214	0xbe36290e	-0.17789099
215	0x3de14beb	0.11000808
216	0x3e0c1d1a	0.13682976
217	0xbda48385	-0.08032898
218	0x3dcb1295	0.099156536
219	0x3cd5be40	0.026091695
220	0xbe4a2485	-0.19740494
221	0x3c365233	0.011127996
222	0xbe019558	-0.12654626
223	0xbd7a9078	-0.061172932
224	0xbd0cbce7	-0.03435984
225	0x3e05e239	0.13074578
226	0x3e5472b6	0.20746884
227	0x3e456568	0.19276965
228	0x3e0da522	0.13832524
229	0x3e05d6d3	0.1307023
230	0x3e64c910	0.22342324
231	0x3c91a49f	0.017778693
232	0xbd9fd5e0	-0.07804465
233	0x3de24ca1	0.11049772
234	0xbd4925bf	-0.049108263
235	0xbdd87d80	-0.10570812
236	0xbe2c85a7	-0.1684786
237	0x3e74531b	0.23859827
238	0xbd0b4d60	-0.034009337
239	0x3cd6a1c8	0.02620019
240	0x3c711ea3	0.014716777
241	0x3e8549ac	0.2603277
242	0x3e169ca6	0.14708194
243	0x3dc9f3bd	0.098609425
244	0x3e6483b4	0.22315866
245	0xbdb7e506	-0.0897923
246	0x3d607cdf	0.054806586
247	0x3cfca5fb	0.030840864
248	0xbe4da453	-0.20082216
249	0xbe6a80ad	-0.22900648
250	0xbecc46ba	-0.3989771
251	0x3b24e95a	0.0025163502
252	0x3d184132	0.03717155
253	0xbca16255	-0.019700209
254	0x3e0599dd	0.13046975
255	0x3dd6dcad	0.10491309

weight_rho f4 [256, 7, 1]
0	0xc0de23c5	-6.9418664
1	0xc0e266d7	-7.0750537
2	0xc0e9f4a9	-7.3111157
3	0xc0e872c5	-7.26401
4	0xc0defc14	-6.9682713
5	0xc0e6b5c9	-7.2096906
6	0xc0e05b0a	-7.011113
7	0xc0dd9f2c	-6.92568
8	0xc0d9fd54	-6.812174
9	0xc0dc40fc	-6.8829327
10	0xc0ddf1a2	-6.935746
11	0xc0df9f7c	-6.9882183
12	0xc0e452d8	-7.135113
13	0xc0e5735c	-7.170332
14	0xc0e113a6	-7.0336485
15	0xc0df80aa	-6.984456
16	0xc0e1bcd8	-7.054302
17	0xc0e10155	-7.0314126
18	0xc0e0abdb	-7.0209785
19	0xc0dfc763	-6.993089
20	0xc0df2eec	-6.974478
21	0xc0db3ae1	-6.8509374
22	0xc0e10083	-7.0313125
23	0xc0e2bd0b	-7.0855765
24	0xc0e28897	-7.0791736
25	0xc0e283e6	-7.078601
26	0xc0e3602b	-7.1054893
27	0xc0de95a3	-6.955766
28	0xc0dad063	-6.837938
29	0xc0e0c9d2	-7.0246363
30	0xc0e0ce38	-7.025173
31	0xc0dcb4f7	-6.8970904
32	0xc0e091cb	-7.017797
33	0xc0d88d28	-6.767231
34	0xc0e7fff9	-7.2499967
35	0xc0df5c63	-6.9800277
36	0xc0d9099f	-6.7824244
37	0xc0df2c40	-6.9741516
38	0xc0de696a	-6.950368
39	0xc0dfdc1a	-6.995618
40	0xc0db13d8	-6.8461723
41	0xc0dae82b	-6.840841
42	0xc0de19d8	-6.9406548
43	0xc0df7821	-6.983414
44	0xc0dbec58	-6.8726006
45	0xc0e1f110	-7.0606766
46	0xc0e2c51b	-7.0865607
47	0xc0dd91c5	-6.924044
48	0xc0e2e8c4	-7.090914
49	0xc0e1a724	-7.051653
50	0xc0df06c8	-6.969578
51	0xc0dd607a	-6.918027
52	0xc0e0fdb1	-7.030968
53	0xc0e09267	-7.0178714
54	0xc0e0cf7c	-7.0253277
55	0xc0dffb10	-6.9993973
56	0xc0deea4d	-6.966101
57	0xc0d94d3d	-6.7906785
58	0xc0d7fc3e	-6.7495413
59	0xc0d8d267	-6.775684
60	0xc0e229b5	-7.067591
61	0xc0e015ee	-7.002677
62	0xc0df381f	-6.9756007
63	0xc0e1cec3	-7.0564895
64	0xc0e0af71	-7.021416
65	0xc0e1b698	-7.0535393
66	0xc0dfb05f	-6.9902797
67	0xc0df3e6e	-6.976371
68	0xc0e27259	-7.0764585
69	0xc0dc7c0f	-6.890144
70	0xc0dddbce	-6.9330816
71	0xc0e0d8aa	-7.0264482
72	0xc0e4d590	-7.1510696
73	0xc0e20ab9	-7.063809
74	0xc0df3d18	-6.9762077
75	0xc0e0d57c	-7.02606
76	0xc0dea760	-6.9579315
77	0xc0e021bd	-7.0041184
78	0xc0e7d0c8	-7.244236
79	0xc0e1fb2e	-7.0619116
80	0xc0e0b078	-7.0215416
81	0xc0e37bd9	-7.108868
82	0xc0e1ba8b	-7.0540214
83	0xc0dc2b07	-6.8802524
84	0xc0e234b7	-7.068935
85	0xc0dcbe28	-6.8982124
86	0xc0e1cc6d	-7.0562043
87	0xc0dca335	-6.8949227
88	0xc0dd00e6	-6.9063597
89	0xc0de092d	-6.93862
90	0xc0e34e91	-7.1033406
91	0xc0df469a	-6.9773684
92	0xc0e3c366	-7.1176023
93	0xc0e45b6f	-7.1361613
94	0xc0e35223	-7.1037765
95	0xc0e06058	-7.0117607
96	0xc0de3e2d	-6.94509
97	0xc0dd6ad9	-6.919293
98	0xc0e21968	-7.0656013
99	0xc0dc657c	-6.887388
100	0xc0e3b92b	-7.1163535
101	0xc0e116fc	-7.0340557
102	0xc0d9f368	-6.8109627
103	0xc0da99bb	-6.831266
104	0xc0e3ca27	-7.118427
105	0xc0e3d011	-7.1191487
106	0xc0e19555	-7.049479
107	0xc0e1bb01	-7.0540776
108	0xc0db6cd5	-6.857035
109	0xc0df6a3d	-6.9817185
110	0xc0e2943f	-7.0805964
111	0xc0e369b2	-7.1066523
112	0xc0dafb38	-6.8431664
113	0xc0e2b406	-7.0844755
114	0xc0e14eb8	-7.040859
115	0xc0e197c4	-7.049776
116	0xc0e28c6e	-7.0796423
117	0xc0dfd644	-6.9949055
118	0xc0d71b19	-6.722058
119	0xc0dcd390	-6.9008255
120	0xc0dc009e	-6.8750753
121	0xc0dc532e	-6.885154
122	0xc0e5d4a4	-7.182207
123	0xc0e0ed4a	-7.028966
124	0xc0e103bd	-7.0317063
125	0xc0dda178	-6.9259605
126	0xc0de6884	-6.9502583
127	0xc0dfe8f1	-6.997185
128	0xc0e0692d	-7.012839
129	0xc0e5bdc4	-7.1794147
130	0xc0de65c8	-6.9499245
131	0xc0db2504	-6.8482685
132	0xc0e0379f	-7.0067897
133	0xc0dc9f83	-6.8944716
134	0xc0df6958	-6.9816093
135	0xc0e44c45	-7.1343102
136	0xc0e24c2d	-7.071799
137	0xc0dc4140	-6.882965
138	0xc0e02057	-7.0039477
139	0xc0ded0a5	-6.9629693
140	0xc0e477a7	-7.139606
141	0xc0e07a5a	-7.0149355
142	0xc0e7e7aa	-7.2470293
143	0xc0dd5501	-6.9166265
144	0xc0dcb12f	-6.896629
145	0xc0ddf4d3	-6.936136
146	0xc0e45534	-7.135401
147	0xc0e0de2c	-7.0271206
148	0xc0e11512	-7.033822
149	0xc0de99c6	-6.956271
150	0xc0de3fc6	-6.945285
151	0xc0de468e	-6.9461126
152	0xc0e0e775	-7.028254
153	0xc0df14bb	-6.9712806
154	0xc0e17d84	-7.0465717
155	0xc0e35199	-7.1037107
156	0xc0db9fa4	-6.8632374
157	0xc0da19ad	-6.8156343
158	0xc0e3002e	-7.093772
159	0xc0e35e07	-7.105228
160	0xc0e1c4f4	-7.055292
161	0xc0ddbd48	-6.9293556
162	0xc0e2c598	-7.0866203
163	0xc0dd4314	-6.9144382
164	0xc0dfe442	-6.9966135
165	0xc0def52b	-6.9674277
166	0xc0dbd05f	-6.869186
167	0xc0dfd957	-6.9952807
168	0xc0e2ec0e	-7.0913153
169	0xc0ddb869	-6.928761
170	0xc0daecd5	-6.84141
171	0xc0e03917	-7.006969
172	0xc0dc261c	-6.879652
173	0xc0de94d8	-6.9556694
174	0xc0dfa36e	-6.9887
175	0xc0dab8cf	-6.8350596
176	0xc0e005c3	-7.0007033
177	0xc0e54d67	-7.1656985
178	0xc0df3b75	-6.976008
179	0xc0dc4e08	-6.8845253
180	0xc0e18c6e	-7.0483923
181	0xc0df2adc	-6.973982
182	0xc0e1c805	-7.0556664
183	0xc0e19985	-7.04999
184	0xc0dcae65	-6.8962884
185	0xc0e58395	-7.1723123
186	0xc0df5094	-6.978586
187	0xc0dc6b6a	-6.888112
188	0xc0e3ae5d	-7.1150346
189	0xc0e13055	-7.03715
190	0xc0dd9470	-6.92437
191	0xc0d95e9f	-6.7928004
192	0xc0dfd151	-6.9943013
193	0xc0df356f	-6.9752727
194	0xc0e0d5fe	-7.026122
195	0xc0e1e0a3	-7.0586715
196	0xc0e0bd3d	-7.0231004
197	0xc0dfdc8a	-6.9956713
198	0xc0ddbf0b	-6.9295707
199	0xc0df502f	-6.978538
200	0xc0df7b7b	-6.9838233
201	0xc0df1265	-6.9709954
202	0xc0dcceb7	-6.9002337
203	0xc0e23d01	-7.069947
204	0xc0dd93c5	-6.9242883
205	0xc0e3433c	-7.1019573
206	0xc0dc587a	-6.8858004
207	0xc0de30aa	-6.9434404
208	0xc0e02c76	-7.0054274
209	0xc0db581e	-6.8545065
210	0xc0dfd593	-6.994821
211	0xc0e0ca71	-7.024712
212	0xc0df7668	-6.983204
213	0xc0dccdf8	-6.9001427
214	0xc0e3a39c	-7.113722
215	0xc0e112be	-7.033538
216	0xc0e33f26	-7.1014585
217	0xc0dcf260	-6.904587
218	0xc0dbdf65	-6.87102
219	0xc0db9e47	-6.863071
220	0xc0e4f7e1	-7.1552587
221	0xc0dd4597	-6.914745
222	0xc0dcb881	-6.8975224
223	0xc0d9ab76	-6.8021803
224	0xc0dd0c3e	-6.9077444
225	0xc0e26cb9	-7.075772
226	0xc0e1b407	-7.053226
227	0xc0e4113d	-7.1271043
228	0xc0e92fc3	-7.2870803
229	0xc0dcccee	-6.900016
230	0xc0e28526	-7.0787535
231	0xc0e4b207	-7.146732
232	0xc0de6c08	-6.9506874
233	0xc0df4a87	-6.9778476
234	0xc0dadf9c	-6.839796
235	0xc0dcc70c	-6.8992977
236	0xc0e12321	-7.035538
237	0xc0dbcd81	-6.868836
238	0xc0e83a86	-7.257144
239	0xc0da9db2	-6.83175
240	0xc0e374b1	-7.1079946
241	0xc0deb122	-6.9591227
242	0xc0e7119a	-7.2208986
243	0xc0dfb4f7	-6.9908404
244	0xc0e2e8b2	-7.090905
245	0xc0dec557	-6.9615893
246	0xc0d8e6e3	-6.7781844
247	0xc0e2a6ca	-7.08286
248	0xc0e6c23f	-7.2112117
249	0xc0db89c5	-6.8605676
250	0xc0dff83a	-6.999051
251	0xc0dde880	-6.9346313
252	0xc0dfff1b	-6.999891
253	0xc0e3e7d0	-7.1220474
254	0xc0d6e857	-6.715862
255	0xc0e00b25	-7.0013604

bias_mu f4 [256]
0	0x3d6f7276	0.058458768
1	0x3c93c82e	0.018039789
2	0x3dfdfd75	0.12401859
3	0xbc4f9273	-0.012669194
4	0xbda5272d	-0.08064113
5	0xbcc2aa42	-0.023762826
6	0xbd10a1cd	-0.035310555
7	0x3da75d56	0.08172099
8	0xbd8b9aaa	-0.06816609
9	0xbdc29077	-0.09500211
10	0xbda80f55	-0.08206049
11	0x3dc6de33	0.0971035
12	0xbe40db95	-0.18833764
13	0x3d3055eb	0.043050688
14	0xbc80dee7	-0.015731288
15	0xbe80c583	-0.2515069
16	0x3d392705	0.045203228
17	0xbe188607	-0.14894877
18	0x3e0eb34f	0.13935588
19	0x3d55730d	0.052111674
20	0x3de53604	0.11191943
21	0xbcab9429	-0.020944672
22	0x3cf99a71	0.030469151
23	0x3e12c30d	0.14332218
24	0xbd057430	-0.03258151
25	0xbc34c82d	-0.011034054
26	0x3e1413e8	0.14460719
27	0x3e2b8e61	0.16753532
28	0x3d962b1c	0.07332441
29	0xbccc6552	-0.024950657
30	0xbd59cca3	-0.053173672
31	0xbdd3c07b	-0.10339447
32	0x3d9b9621	0.07596994
33	0xbdf66635	-0.12031213
34	0x3e5b9932	0.21445158
35	0xbb5c8a50	-0.0033651777
36	0xbc4a2316	-0.012337467
37	0x3e43237b	0.19056503
38	0xbcdeabda	-0.027181555
39	0xbd97a663	-0.074047826
40	0x3d7b906b	0.061417025
41	0x3e8e29ff	0.27766415
42	0xbe7a9a34	-0.24472886
43	0x3da20c99	0.07912559
44	0xbcca6cd0	-0.024710089
45	0xbe722b8b	-0.23649423
46	0x3e0e21f8	0.13880146
47	0x3e818109	0.2529376
48	0x3d3af9b0	0.045648277
49	0xbcfabbf0	-0.030607194
50	0x3e420405	0.18946846
51	0xbe0e4872	-0.13894823
52	0xbdee4953	-0.11635079
53	0x3da44479	0.080208726
54	0x3d9ad2ee	0.07559763
55	0xbca772ef	-0.020440547
56	0x3e1516a2	0.14559415
57	0x3c3d287e	0.011545299
58	0xbe4294e7	-0.19002114
59	0x3d136506	0.035985015
60	0x3e34f64c	0.1767208
61	0x3ccbaed3	0.024863636
62	0xbdc9ce7b	-0.09853836
63	0x3e9f7fcb	0.31152186
64	0xbe346aaf	-0.17618822
65	0xbcfdcd81	-0.030981781
66	0x3b07ceaf	0.0020722558
67	0xbcdb790a	-0.026791114
68	0xbd322a45	-0.043497343
69	0xbcd1b585	-0.02559925
70	0xbba3b511	-0.00499595
71	0xbe1e7e7a	-0.15477934
72	0x3ecb5892	0.3971601
73	0x3d971453	0.073769234
74	0xbd27aa3b	-0.04093383
75	0xbe667333	-0.22504883
76	0x3e317285	0.17328842
77	0xbcc895c8	-0.024485484
78	0xbdaa8e27	-0.08327895
79	0xbc09668e	-0.008386267
80	0x3cd89f26	0.026443075
81	0xbe11a67b	-0.14223664
82	0xbb0fb256	-0.0021926365
83	0xbca3f27d	-0.020013088
84	0xbde7e23a	-0.11322446
85	0x3dc4d2d9	0.096105285
86	0x3a89eb04	0.0010522311
87	0xbd7e3b3d	-0.062068213
88	0x3dda547b	0.106606446
89	0x3e746afe	0.2386894
90	0xbcab0ac2	-0.020879153
91	0xbbe3ced7	-0.0069521475
92	0x3d6ad909	0.057335887
93	0xbce722a7	-0.028214766
94	0x3d932652	0.071850434
95	0x3eee6b7c	0.4656638
96	0x3ce66aa0	0.028127015
97	0xb9ff8b91	-0.00048741375
98	0xbca579fe	-0.020199772
99	0xbd0152ca	-0.031573094
100	0xb999ed93	-0.0002935944
101	0xbdf7ca20	-0.12099099
102	0x3caf72c1	0.021417024
103	0xbdaf0f3a	-0.08547826
104	0xbe13fabf	-0.14451121
105	0xbdf4f6a4	-0.119611055
106	0xbdd57ba7	-0.104239754
107	0xbe38bd5b	-0.18040983
108	0xbe4ce7a3	-0.20010237
109	0xbbf8ef68	-0.007596899
110	0x3aca69de	0.0015442928
111	0x3ddf550b	0.109048925
112	0x39839f85	0.00025105118
113	0xbcae8d9e	-0.021307763
114	0x3d0c10bb	0.034195643
115	0x3dbe7c35	0.09301034
116	0xb9e5a2aa	-0.00043799478
117	0x3c7341fd	0.014847276
118	0xbc195b82	-0.009360196
119	0x3dfd1cf1	0.12359036
120	0xbdf471c0	-0.119357586
121	0xbc8efe75	-0.017455319
122	0xbb9d8249	-0.004806791
123	0xbe451c53	-0.19249086
124	0x3e1dde89	0.15416922
125	0x3dfbf7a0	0.1230309
126	0xbe0827bf	-0.13296412
127	0xbde4a6d0	-0.111646295
128	0xbcb7c0c0	-0.022430778
129	0x3de9b5ac	0.11411604
130	0xbe398a54	-0.18119174
131	0xbba059c4	-0.0048935134
132	0xbbbbe143	-0.0057336404
133	0xbd2d1736	-0.042258464
134	0x3e306a5f	0.17228077
135	0xbd9ccf8c	-0.07656774
136	0x3b98fce7	0.00466882
137	0x3df05cbf	0.1173644
138	0x3de05d33	0.10955276
139	0x3db037cc	0.086043924
140	0x3e6a96f2	0.22909144
141	0xbdcab216	-0.098972484
142	0xbe854353	-0.26027927
143	0xbc68e38c	-0.014214408
144	0xbd9a595b	-0.075365745
145	0xbc402f70	-0.01173006
146	0x3b4eff94	0.0031585442
147	0xbce011ea	-0.027352292
148	0x3dde66b5	0.108594336
149	0x3c3ce11a	0.011528278
150	0xbd5ffcaf	-0.054684337
151	0xba37b508	-0.0007007872
152	0x3e075ee0	0.13219786
153	0xbcad8042	-0.021179322
154	0xbcaf417b	-0.021393528
155	0xbcab2e19	-0.020896005
156	0x3d0f3a39	0.034967635
157	0x3d964ed1	0.07339252
158	0xbe542ff0	-0.20721412
159	0xbc153fb5	-0.009109427
160	0xbcc345e8	-0.023837045
161	0xbcc09305	-0.023507604
162	0x3e064aaf	0.13114427
163	0xbdccdbd2	-0.10002865
164	0xbd1406e6	-0.03613939
165	0xbd156dee	-0.03648179
166	0xbe53f61b	-0.2069935
167	0x3cbaac2c	0.022787176
168	0x3dc1ced6	0.09463279
169	0xbd9cd053	-0.07656922
170	0xbe5178a8	-0.20456183
171	0xbdafec10	-0.08589947
172	0xbe1cd9b4	-0.15317422
173	0xbe3e3924	-0.18576485
174	0x3e809069	0.25110176
175	0x3db03d17	0.08605402
176	0xbc0b8c39	-0.008517318
177	0x3dae74e5	0.085183896
178	0x3c0d7862	0.0086346585
179	0xbc18ad33	-0.009318638
180	0x3a247327	0.00062732626
181	0xbc450de1	-0.012027235
182	0xbe1be166	-0.15222701
183	0xbcb01af2	-0.021497224
184	0x3e17cd63	0.14824443
185	0x3ba51755	0.005038182
186	0x3d6df3be	0.05809378
187	0xbe704a8f	-0.23465942
188	0xbe3c11ae	-0.1836612
189	0xbc1ca17e	-0.009559987
190	0x3e298579	0.16554822
191	0xbeb95afd	-0.3620223
192	0x3de5d4f1	0.11222256
193	0x3c92ecbc	0.01793515
194	0xbdadd193	-0.08487239
195	0x3d3a5540	0.045491457
196	0xbc9c0872	-0.019046996
197	0xbc60a143	-0.013710323
198	0xbe163d36	-0.14671788
199	0xbcd4330d	-0.02590325
200	0xbc8fd99c	-0.017559819
201	0xbe711f3f	-0.23547076
202	0xbda4fdd5	-0.08056227
203	0x3da5903d	0.08084152
204	0xbdfd034a	-0.12354143
205	0xbe099213	-0.13434629
206	0x3daf174a	0.08549364
207	0x3d7ad4f3	0.06123824
208	0xbcde0380	-0.027101278
209	0xbd9e3487	-0.077248625
210	0xbcd5363d	-0.02602684
211	0xbc543a6c	-0.012953382
212	0x3e48b9f9	0.19602193
213	0x3df39bee	0.118949756
214	0xbcdbfc43	-0.026853686
215	0xbddf7227	-0.10910445
216	0xbd28f4b1	-0.04124898
217	0xbd041813	-0.03224952
218	0xbc7b7af9	-0.015349143
219	0xbdbeef79	-0.093230195
220	0x3d3ec0a9	0.046570454
221	0x3e6e65dc	0.23281044
222	0xbd66b778	-0.056327313
223	0x3cf27f67	0.029601766
224	0xbe5987f5	-0.2124327
225	0x3cda317d	0.026634926
226	0xbc2c4b75	-0.010516037
227	0x3dc4675d	0.095900275
228	0xbdecd49f	-0.11563992
229	0xbcb045f1	-0.021517726
230	0xbe200f66	-0.15630874
231	0xbde0e350	-0.109808564
232	0x3d8f0104	0.069826156
233	0x3dfec9e0	0.12440848
234	0xbcec597d	-0.028851265
235	0xbe1adc33	-0.15123062
236	0x3be260ed	0.006908527
237	0xbbdc5bdd	-0.006724818
238	0xbd40eac7	-0.0470989
239	0xbd46137a	-0.048358418
240	0xbbef9769	-0.0073117507
241	0x3c5d5a66	0.013510322
242	0x3e006ba5	0.12541063
243	0x3c18fcce	0.009337617
244	0xbc9a844d	-0.018861914
245	0xbe0b07d9	-0.13577212
246	0x3d4c41e5	0.04986753
247	0x3e21e9fc	0.15811914
248	0xbcce1444	-0.025156148
249	0x3b11d6f0	0.0022253357
250	0xbd170a52	-0.036875077
251	0x3e0fbac1	0.14036085
252	0xbd990488	-0.074715674
253	0xbdd9f988	-0.106432974
254	0xbddb7519	-0.10715694
255	0xbd736842	-0.0594256

bias_rho f4 [256]
0	0xc0e847f8	-7.2587852
1	0xc0e03c11	-7.0073323
2	0xc0e4080e	-7.125983
3	0xc0e57a1a	-7.171155
4	0xc0e2f642	-7.092561
5	0xc0e64bd7	-7.196758
6	0xc0d9e670	-6.8093796
7	0xc0deeb8a	-6.9662523
8	0xc0e189e8	-7.0480843
9	0xc0e3c663	-7.117967
10	0xc0e5be5c	-7.179487
11	0xc0df253e	-6.973296
12	0xc0e1a874	-7.051813
13	0xc0dd8f8e	-6.923774
14	0xc0e0773d	-7.0145555
15	0xc0e22885	-7.067446
16	0xc0e27d2c	-7.07778
17	0xc0dfac1c	-6.9897594
18	0xc0dd60ed	-6.9180818
19	0xc0defbd9	-6.968243
20	0xc0d9f971	-6.8116994
21	0xc0e04523	-7.0084395
22	0xc0df8a70	-6.985649
23	0xc0e4180e	-7.1279364
24	0xc0deecec	-6.966421
25	0xc0d8597c	-6.7609234
26	0xc0dd2853	-6.9111724
27	0xc0da88d1	-6.829201
28	0xc0dfd399	-6.99458
29	0xc0de5970	-6.9484177
30	0xc0dfadc0	-6.9899597
31	0xc0e54ae7	-7.1653934
32	0xc0e60caa	-7.189046
33	0xc0dc3830	-6.881859
34	0xc0e0e884	-7.0283833
35	0xc0e3be41	-7.1169744
36	0xc0dbb8c2	-6.8663034
37	0xc0e011c1	-7.002167
38	0xc0e4a387	-7.144962
39	0xc0e176a2	-7.0457315
40	0xc0e38766	-7.110278
41	0xc0e0bce1	-7.0230565
42	0xc0e0e3ea	-7.0278215
43	0xc0dbd898	-6.8701897
44	0xc0dd8feb	-6.923818
45	0xc0e19087	-7.0488925
46	0xc0de9832	-6.9560785
47	0xc0dfa040	-6.988312
48	0xc0dea8b7	-6.958095
49	0xc0e220a9	-7.066487
50	0xc0e00e99	-7.001782
51	0xc0e61ddf	-7.1911464
52	0xc0e4dfdf	-7.152328
53	0xc0dc8816	-6.891612
54	0xc0def304	-6.967165
55	0xc0dde7bb	-6.9345374
56	0xc0ddddd0	-6.9333267
57	0xc0dfe170	-6.996269
58	0xc0dc3740	-6.8817444
59	0xc0e247d4	-7.071268
60	0xc0dd97ab	-6.924764
61	0xc0e0b111	-7.0216146
62	0xc0dc5bcf	-6.886207
63	0xc0dd3653	-6.9128814
64	0xc0e40aca	-7.126317
65	0xc0de94df	-6.9556727
66	0xc0e1385b	-7.0381293
67	0xc0e133da	-7.0375795
68	0xc0dc31ad	-6.881064
69	0xc0dfe58c	-6.996771
70	0xc0e1f86c	-7.061575
71	0xc0e1f1e1	-7.060776
72	0xc0e8e396	-7.2777815
73	0xc0e57379	-7.170346
74	0xc0e5b7b1	-7.1786733
75	0xc0dcf919	-6.9054074
76	0xc0db2b86	-6.849063
77	0xc0e0e609	-7.0280805
78	0xc0e2b7ed	-7.084952
79	0xc0e3f1dd	-7.1232743
80	0xc0e4c1fa	-7.148679
81	0xc0d6035c	-6.68791
82	0xc0e2e6c3	-7.090669
83	0xc0de90e8	-6.9551888
84	0xc0dde375	-6.9340158
85	0xc0de25c6	-6.942111
86	0xc0da2843	-6.8174148
87	0xc0e46b66	-7.13811
88	0xc0de3dad	-6.945029
89	0xc0dd556f	-6.916679
90	0xc0defacc	-6.968115
91	0xc0e35f19	-7.1053586
92	0xc0dcf339	-6.9046903
93	0xc0dd6afa	-6.9193087
94	0xc0e0b14b	-7.021642
95	0xc0e52738	-7.1610374
96	0xc0dcb968	-6.8976326
97	0xc0e05368	-7.0101814
98	0xc0df6f1f	-6.9823146
99	0xc0db753b	-6.8580604
100	0xc0e20c9f	-7.0640407
101	0xc0e126ba	-7.0359774
102	0xc0dd9741	-6.9247136
103	0xc0e16b51	-7.04435
104	0xc0df3227	-6.974872
105	0xc0e0df14	-7.027231
106	0xc0dc5dac	-6.8864346
107	0xc0e2064d	-7.063269
108	0xc0e2676c	-7.0751247
109	0xc0d8f0fe	-6.779418
110	0xc0e03a2e	-7.007102
111	0xc0e148c5	-7.040133
112	0xc0de77dc	-6.9521313
113	0xc0e19106	-7.048953
114	0xc0e411d1	-7.127175
115	0xc0e51b2d	-7.1595674
116	0xc0e34609	-7.102299
117	0xc0d9851b	-6.797498
118	0xc0dc4054	-6.8828526
119	0xc0e00bc1	-7.001435
120	0xc0e11057	-7.0332446
121	0xc0e989c7	-7.2980685
122	0xc0e68e0d	-7.20484
123	0xc0e58493	-7.1724334
124	0xc0dc8b15	-6.891978
125	0xc0df9b4f	-6.9877086
126	0xc0dfc54a	-6.992833
127	0xc0e0e7b8	-7.028286
128	0xc0dc72dc	-6.889021
129	0xc0dced89	-6.903996
130	0xc0ddc39b	-6.9301276
131	0xc0df0db9	-6.970425
132	0xc0e5f973	-7.1867003
133	0xc0e0c9db	-7.0246406
134	0xc0e00b4e	-7.00138
135	0xc0df857d	-6.985045
136	0xc0de2163	-6.9415755
137	0xc0debe04	-6.9606953
138	0xc0def360	-6.967209
139	0xc0e132e6	-7.037463
140	0xc0dfa911	-6.989388
141	0xc0e16f43	-7.0448318
142	0xc0debbe6	-6.960437
143	0xc0dc3c75	-6.88238
144	0xc0e3e91d	-7.122206
145	0xc0e18ca3	-7.0484176
146	0xc0e1e220	-7.058853
147	0xc0ddf122	-6.935685
148	0xc0e20146	-7.0626554
149	0xc0e10aff	-7.0325923
150	0xc0de12ff	-6.939819
151	0xc0dd5b46	-6.917392
152	0xc0dee4b4	-6.965418
153	0xc0dfd33f	-6.994537
154	0xc0e136c4	-7.0379353
155	0xc0e123ff	-7.035644
156	0xc0e0cdd1	-7.025124
157	0xc0dd069a	-6.907056
158	0xc0dfd43b	-6.994657
159	0xc0dd9658	-6.9246025
160	0xc0e09868	-7.0186043
161	0xc0e002f0	-7.0003586
162	0xc0dd55fc	-6.916746
163	0xc0df0c90	-6.9702835
164	0xc0e11865	-7.034228
165	0xc0df8b41	-6.985749
166	0xc0debaee	-6.9603186
167	0xc0ddfef0	-6.9373703
168	0xc0df6d33	-6.98208
169	0xc0e04de4	-7.009508
170	0xc0e2e4e4	-7.0904408
171	0xc0e5f7a3	-7.186479
172	0xc0d92779	-6.7860684
173	0xc0e11544	-7.033846
174	0xc0daeada	-6.8411684
175	0xc0e38842	-7.110383
176	0xc0e26f6a	-7.0761003
177	0xc0def5f9	-6.967526
178	0xc0e715d3	-7.221414
179	0xc0e08886	-7.0166655
180	0xc0e0def9	-7.0272183
181	0xc0e41b50	-7.128334
182	0xc0e13702	-7.037965
183	0xc0df95c8	-6.987034
184	0xc0e014e0	-7.002548
185	0xc0db6458	-6.855999
186	0xc0e07445	-7.014193
187	0xc0e72ec9	-7.224461
188	0xc0dce97d	-6.903502
189	0xc0e27aba	-7.0774813
190	0xc0d9c69b	-6.805494
191	0xc0d9b901	-6.8038335
192	0xc0e40cff	-7.1265864
193	0xc0dd32ac	-6.9124355
194	0xc0df0aa2	-6.970048
195	0xc0dc340e	-6.8813543
196	0xc0daeb39	-6.8412137
197	0xc0db9c6e	-6.8628454
198	0xc0dd2d9c	-6.9118176
199	0xc0e10ad0	-7.03257
200	0xc0e372b2	-7.107751
201	0xc0e2e5b4	-7.09054
202	0xc0e13d5e	-7.038741
203	0xc0dfe08d	-6.996161
204	0xc0e2cf0a	-7.0877733
205	0xc0dc534c	-6.885168
206	0xc0df1aee	-6.9720373
207	0xc0dffede	-6.9998617
208	0xc0df2fa0	-6.9745636
209	0xc0da0aa2	-6.813798
210	0xc0df95f1	-6.9870534
211	0xc0db8f46	-6.8612394
212	0xc0e4bd09	-7.1480756
213	0xc0dec6d4	-6.961771
214	0xc0e1c160	-7.0548553
215	0xc0debe14	-6.960703
216	0xc0e32e7b	-7.099424
217	0xc0dfb839	-6.991238
218	0xc0df8cc1	-6.985932
219	0xc0df5f92	-6.9804163
220	0xc0e132eb	-7.0374656
221	0xc0df4629	-6.9773145
222	0xc0dddb3a	-6.933011
223	0xc0e50a11	-7.157479
224	0xc0e296f4	-7.080927
225	0xc0df43ec	-6.9770412
226	0xc0e2b248	-7.084263
227	0xc0dd78ec	-6.921011
228	0xc0e10533	-7.0318847
229	0xc0dc794a	-6.889806
230	0xc0e89309	-7.2679486
231	0xc0e23da3	-7.070024
232	0xc0e1215c	-7.035322
233	0xc0e0786e	-7.014701
234	0xc0e0188e	-7.0029974
235	0xc0de801b	-6.953138
236	0xc0e28616	-7.078868
237	0xc0e207b5	-7.063441
238	0xc0ded84e	-6.9639044
239	0xc0dc7578	-6.8893394
240	0xc0dfda5d	-6.9954057
241	0xc0dffc18	-6.999523
242	0xc0de1671	-6.9402394
243	0xc0dd48f6	-6.9151564
244	0xc0e38bcf	-7.1108165
245	0xc0e15b9f	-7.042434
246	0xc0e00295	-7.000315
247	0xc0e97efd	-7.2967515
248	0xc0e18c1a	-7.0483522
249	0xc0e055a5	-7.0104547
250	0xc0e346e7	-7.102405
251	0xc0e0b10d	-7.0216126
252	0xc0e06205	-7.0119653
253	0xc0df2e36	-6.974391
254	0xc0e5cfc2	-7.181611
255	0xc0e3d67a	-7.119931

mu f4 [256, 7, 1]
0	0x3e223a01	0.15842439
1	0x3d5e2ac2	0.054239996
2	0x3e2d9bd8	0.16953981
3	0x3da4214f	0.080141656
4	0xbd18761e	-0.03722202
5	0x3eaa476d	0.3325762
6	0x3df1b405	0.11801914
7	0xbddb31a9	-0.10702831
8	0xbe2ed8b7	-0.17074858
9	0xbda599ce	-0.080859765
10	0xbdd4fa54	-0.10399309
11	0xbcea0be3	-0.028570121
12	0xbe73ddeb	-0.23815124
13	0xbe69c5b7	-0.22829328
14	0x3d1f0131	0.038819496
15	0x3e091c87	0.13389789
16	0xbd919ae2	-0.0710962
17	0xbd3a2311	-0.0454436
18	0x3e4f6ef9	0.20257176
19	0x3ca958e2	0.020672265
20	0x3e0d183d	0.13778777
21	0xbc388d96	-0.0112642255
22	0x3e3f0764	0.18655163
23	0x3dbccdec	0.09218964
24	0x3e4a9b5b	0.19785826
25	0x3d1409fd	0.036142338
26	0x3e18817c	0.14893144
27	0x3daf537a	0.08560844
28	0x3d2145ad	0.03937309
29	0xbe02c1de	-0.12769267
30	0xbdbca01d	-0.09210227
31	0xbd0764a4	-0.033054963
32	0x3c34b98d	0.011030567
33	0x3d96b7d3	0.073592804
34	0xbdbffa47	-0.093739085
35	0x3ddec99f	0.108783
36	0xbe1b02f5	-0.15137847
37	0xbe0a7c79	-0.13524045
38	0xbd29fe68	-0.041502386
39	0xbdfd7275	-0.123753466
40	0x3d81c435	0.06336252
41	0x3db74160	0.08948016
42	0x3d2875e6	0.04112806
43	0x3e4d3a0d	0.20041676
44	0x3d78584a	0.060631074
45	0x3c39d487	0.011342174
46	0x3d2bf520	0.041981816
47	0x3dd95433	0.10611763
48	0x3ca8fe66	0.02062912
49	0x3ddb9f52	0.10723747
50	0x3df6fe49	0.1206022
51	0x3e00ede4	0.12590748
52	0x3e062fcc	0.1310417
53	0x3c26b403	0.010174754
54	0x3e9e8138	0.3095796
55	0x3e3485e4	0.176292
56	0xbd4d56b7	-0.050131526
57	0x3d411ffa	0.047149636
58	0xbbb69275	-0.0055716583
59	0xbd78d35d	-0.060748447
60	0xbd1780c7	-0.036988046
61	0x3d4ac8d3	0.049507927
62	0xbdd4fac2	-0.10399391
63	0xbdc8786e	-0.09788595
64	0xbc52f99b	-0.012876893
65	0x3cf9e390	0.030504018
66	0xbe8b0789	-0.27154186
67	0xbdc15d9f	-0.09441685
68	0xbdc0363a	-0.09385343
69	0xbd0ddfa3	-0.034637105
70	0xbd889213	-0.066684864
71	0x3d49e2ff	0.049288746
72	0x3dba6001	0.091003425
73	0x3d23055a	0.039800026
74	0xbd12d957	-0.035851803
75	0xbe328a31	-0.17435528
76	0xbdbbcf6f	-0.09170424
77	0xbcd57a4b	-0.02605929
78	0xbd5a6de2	-0.05332745
79	0x3c9a140b	0.018808385
80	0x3e2211cb	0.158271
81	0xbd951158	-0.07278699
82	0x3e030b68	0.1279732
83	0xbd08c29d	-0.033388723
84	0xbe6cfdd0	-0.23143697
85	0x3db224e5	0.08698443
86	0x3de259bd	0.110522725
87	0xbe3f29ef	-0.1866834
88	0xbd6d8140	-0.05798459
89	0xbcde894b	-0.027165076
90	0xbe377d7e	-0.17918965
91	0x3d1bfd50	0.038083375
92	0x3e90aad4	0.28255332
93	0x3d87fd28	0.066400826
94	0x3e16f478	0.14741695
95	0x3ca2aa19	0.0198565
96	0x3b8e13bf	0.00433585
97	0x3e007350	0.12543988
98	0x3d00357b	0.031301003
99	0xbb98b09f	-0.0046597268
100	0x3d0d722f	0.034532722
101	0x3e0f1dee	0.13976261
102	0x3ea75140	0.32679176
103	0x3d61ce65	0.055128474
104	0x3e5386f7	0.20656954
105	0xbd97a14e	-0.07403813
106	0x3dad1c30	0.08452642
107	0x3c9b7a5b	0.018979242
108	0x3c268b6f	0.0101650795
109	0x3e199bb1	0.15000798
110	0xbd41e638	-0.047338694
111	0x3db1497d	0.08656595
112	0x3e8f60f9	0.28003672
113	0x3dc22f91	0.09481729
114	0x3df48b7e	0.119406685
115	0x3d85feea	0.065427616
116	0x3e20f34b	0.15717809
117	0xbd6a8eb5	-0.057265002
118	0x3da059e3	0.078296445
119	0x3e2863e7	0.1644436
120	0xbc4264b2	-0.011864828
121	0xbc75ac89	-0.014994749
122	0xbe213184	-0.15741545
123	0xbe0c49ca	-0.13700023
124	0x3dd74d23	0.105127595
125	0xbdba4b40	-0.09096384
126	0x3d171987	0.03688958
127	0xbd935eed	-0.0719584
128	0x3d787e7b	0.060667496
129	0x3db65edb	0.08904811
130	0x3d1f5005	0.038894672
131	0x3cfd12a4	0.030892678
132	0x3cb04b2d	0.021520222
133	0xbd6aaaea	-0.057291903
134	0x3dd227c7	0.10261493
135	0x3de01d94	0.109431416
136	0x3a0a2f7a	0.0005271357
137	0x3e173c8e	0.14769194
138	0x3de14307	0.109991126
139	0x3d96268c	0.07331571
140	0x3e86c316	0.26320714
141	0x3d14367d	0.036184777
142	0x3e03e121	0.12878849
143	0x3e12ec40	0.14347935
144	0x3d9c91de	0.076450095
145	0x3dfe9f3a	0.12432714
146	0x3dd3eea8	0.103482544
147	0xbd4bf4b1	-0.049793903
148	0xbddd497a	-0.1080503
149	0xbd6c39af	-0.0576722
150	0xbd58ef8a	-0.052962817
151	0xbe776922	-0.24161199
152	0xbd4b477c	-0.04962872
153	0xbbf5aa83	-0.007497133
154	0x3e5cc649	0.21560015
155	0x3e01af0c	0.12664431
156	0x3e24a932	0.16080168
157	0x3e2ea26a	0.17054144
158	0xbe879dfb	-0.26487717
159	0x3d823fd3	0.0635983
160	0xbc945a8f	-0.018109588
161	0x3daba0fa	0.08380313
162	0xbd493102	-0.049119003
163	0x3df503ae	0.119635925
164	0xbd80a6c9	-0.06281812
165	0xbd32b123	-0.043625962
166	0x3e9d1b44	0.30684865
167	0x3ded9574	0.116007715
168	0x3d7b8e1c	0.061414823
169	0xbb004357	-0.0019571388
170	0x3d8df232	0.06930961
171	0x3d890c91	0.0669185
172	0xbd36120b	-0.0444508
173	0x3cec3f8d	0.028838897
174	0x3d1c69c6	0.03818681
175	0xbdab3f10	-0.083616376
176	0xbe547e3e	-0.20751283
177	0xbd68ad50	-0.05680591
178	0xbe8a79c7	-0.27046034
179	0x3db63f8a	0.08898838
180	0x3c8d1c21	0.017225327
181	0xbd6e769c	-0.058218583
182	0x3d9ffc09	0.07811744
183	0xbd3b6959	-0.045754764
184	0xbdab6526	-0.08368902
185	0xbe298af6	-0.16556916
186	0xbe3bbe6f	-0.18334363
187	0xbe354312	-0.17701367
188	0x3da047bb	0.078261815
189	0xb8479cb6	-4.7591246e-05
190	0x3d4f260a	0.050573386
191	0x3d3981e6	0.045289896
192	0x3d23be65	0.039976496
193	0x3da9d269	0.08292086
194	0x3dd108ea	0.10206778
195	0x3e3c715a	0.18402615
196	0x3de9000e	0.113769636
197	0x3d8dc902	0.06923105
198	0xbc7385d2	-0.014863448
199	0x3e38e4b2	0.1805599
200	0x3e7717c3	0.24130158
201	0x3d596652	0.053076096
202	0xbb7dc18c	-0.00387201
203	0x3c0d1db3	0.008613038
204	0xbde448ff	-0.111467354
205	0xbd8a054a	-0.0673929
206	0xbd3c8013	-0.04602058
207	0xbb5b82dc	-0.0033494746
208	0xbe54ca60	-0.20780325
209	0xbde6237a	-0.11237235
210	0x3da71307	0.08157926
211	0xbc30beb6	-0.0107876565
212	0xbe84a4a1	-0.25906852
213	0xbd2f847f	-0.042850967
214	0xbe36290e	-0.17789099
215	0x3de14beb	0.11000808
216	0x3e0c1d1a	0.13682976
217	0xbda48385	-0.08032898
218	0x3dcb1295	0.099156536
219	0x3cd5be40	0.026091695
220	0xbe4a2485	-0.19740494
221	0x3c365233	0.011127996
222	0xbe019558	-0.12654626
223	0xbd7a9078	-0.061172932
224	0xbd0cbce7	-0.03435984
225	0x3e05e239	0.13074578
226	0x3e5472b6	0.20746884
227	0x3e456568	0.19276965
228	0x3e0da522	0.13832524
229	0x3e05d6d3	0.1307023
230	0x3e64c910	0.22342324
231	0x3c91a49f	0.017778693
232	0xbd9fd5e0	-0.07804465
233	0x3de24ca1	0.11049772
234	0xbd4925bf	-0.049108263
235	0xbdd87d80	-0.10570812
236	0xbe2c85a7	-0.1684786
237	0x3e74531b	0.23859827
238	0xbd0b4d60	-0.034009337
239	0x3cd6a1c8	0.02620019
240	0x3c711ea3	0.014716777
241	0x3e8549ac	0.2603277
242	0x3e169ca6	0.14708194
243	0x3dc9f3bd	0.098609425
244	0x3e6483b4	0.22315866
245	0xbdb7e506	-0.0897923
246	0x3d607cdf	0.054806586
247	0x3cfca5fb	0.030840864
248	0xbe4da453	-0.20082216
249	0xbe6a80ad	-0.22900648
250	0xbecc46ba	-0.3989771
251	0x3b24e95a	0.0025163502
252	0x3d184132	0.03717155
253	0xbca16255	-0.019700209
254	0x3e0599dd	0.13046975
255	0x3dd6dcad	0.10491309

rho f4 [256, 7, 1]
0	0xc0de23c5	-6.9418664
1	0xc0e266d7	-7.0750537
2	0xc0e9f4a9	-7.3111157
3	0xc0e872c5	-7.26401
4	0xc0defc14	-6.9682713
5	0xc0e6b5c9	-7.2096906
6	0xc0e05b0a	-7.011113
7	0xc0dd9f2c	-6.92568
8	0xc0d9fd54	-6.812174
9	0xc0dc40fc	-6.8829327
10	0xc0ddf1a2	-6.935746
11	0xc0df9f7c	-6.9882183
12	0xc0e452d8	-7.135113
13	0xc0e5735c	-7.170332
14	0xc0e113a6	-7.0336485
15	0xc0df80aa	-6.984456
16	0xc0e1bcd8	-7.054302
17	0xc0e10155	-7.0314126
18	0xc0e0abdb	-7.0209785
19	0xc0dfc763	-6.993089
20	0xc0df2eec	-6.974478
21	0xc0db3ae1	-6.8509374
22	0xc0e10083	-7.0313125
23	0xc0e2bd0b	-7.0855765
24	0xc0e28897	-7.0791736
25	0xc0e283e6	-7.078601
26	0xc0e3602b	-7.1054893
27	0xc0de95a3	-6.955766
28	0xc0dad063	-6.837938
29	0xc0e0c9d2	-7.0246363
30	0xc0e0ce38	-7.025173
31	0xc0dcb4f7	-6.8970904
32	0xc0e091cb	-7.017797
33	0xc0d88d28	-6.767231
34	0xc0e7fff9	-7.2499967
35	0xc0df5c63	-6.9800277
36	0xc0d9099f	-6.7824244
37	0xc0df2c40	-6.9741516
38	0xc0de696a	-6.950368
39	0xc0dfdc1a	-6.995618
40	0xc0db13d8	-6.8461723
41	0xc0dae82b	-6.840841
42	0xc0de19d8	-6.9406548
43	0xc0df7821	-6.983414
44	0xc0dbec58	-6.8726006
45	0xc0e1f110	-7.0606766
46	0xc0e2c51b	-7.0865607
47	0xc0dd91c5	-6.924044
48	0xc0e2e8c4	-7.090914
49	0xc0e1a724	-7.051653
50	0xc0df06c8	-6.969578
51	0xc0dd607a	-6.918027
52	0xc0e0fdb1	-7.030968
53	0xc0e09267	-7.0178714
54	0xc0e0cf7c	-7.0253277
55	0xc0dffb10	-6.9993973
56	0xc0deea4d	-6.966101
57	0xc0d94d3d	-6.7906785
58	0xc0d7fc3e	-6.7495413
59	0xc0d8d267	-6.775684
60	0xc0e229b5	-7.067591
61	0xc0e015ee	-7.002677
62	0xc0df381f	-6.9756007
63	0xc0e1cec3	-7.0564895
64	0xc0e0af71	-7.021416
65	0xc0e1b698	-7.0535393
66	0xc0dfb05f	-6.9902797
67	0xc0df3e6e	-6.976371
68	0xc0e27259	-7.0764585
69	0xc0dc7c0f	-6.890144
70	0xc0dddbce	-6.9330816
71	0xc0e0d8aa	-7.0264482
72	0xc0e4d590	-7.1510696
73	0xc0e20ab9	-7.063809
74	0xc0df3d18	-6.9762077
75	0xc0e0d57c	-7.02606
76	0xc0dea760	-6.9579315
77	0xc0e021bd	-7.0041184
78	0xc0e7d0c8	-7.244236
79	0xc0e1fb2e	-7.0619116
80	0xc0e0b078	-7.0215416
81	0xc0e37bd9	-7.108868
82	0xc0e1ba8b	-7.0540214
83	0xc0dc2b07	-6.8802524
84	0xc0e234b7	-7.068935
85	0xc0dcbe28	-6.8982124
86	0xc0e1cc6d	-7.0562043
87	0xc0dca335	-6.8949227
88	0xc0dd00e6	-6.9063597
89	0xc0de092d	-6.93862
90	0xc0e34e91	-7.1033406
91	0xc0df469a	-6.9773684
92	0xc0e3c366	-7.1176023
93	0xc0e45b6f	-7.1361613
94	0xc0e35223	-7.1037765
95	0xc0e06058	-7.0117607
96	0xc0de3e2d	-6.94509
97	0xc0dd6ad9	-6.919293
98	0xc0e21968	-7.0656013
99	0xc0dc657c	-6.887388
100	0xc0e3b92b	-7.1163535
101	0xc0e116fc	-7.0340557
102	0xc0d9f368	-6.8109627
103	0xc0da99bb	-6.831266
104	0xc0e3ca27	-7.118427
105	0xc0e3d011	-7.1191487
106	0xc0e19555	-7.049479
107	0xc0e1bb01	-7.0540776
108	0xc0db6cd5	-6.857035
109	0xc0df6a3d	-6.9817185
110	0xc0e2943f	-7.0805964
111	0xc0e369b2	-7.1066523
112	0xc0dafb38	-6.8431664
113	0xc0e2b406	-7.0844755
114	0xc0e14eb8	-7.040859
115	0xc0e197c4	-7.049776
116	0xc0e28c6e	-7.0796423
117	0xc0dfd644	-6.9949055
118	0xc0d71b19	-6.722058
119	0xc0dcd390	-6.9008255
120	0xc0dc009e	-6.8750753
121	0xc0dc532e	-6.885154
122	0xc0e5d4a4	-7.182207
123	0xc0e0ed4a	-7.028966
124	0xc0e103bd	-7.0317063
125	0xc0dda178	-6.9259605
126	0xc0de6884	-6.9502583
127	0xc0dfe8f1	-6.997185
128	0xc0e0692d	-7.012839
129	0xc0e5bdc4	-7.1794147
130	0xc0de65c8	-6.9499245
131	0xc0db2504	-6.8482685
132	0xc0e0379f	-7.0067897
133	0xc0dc9f83	-6.8944716
134	0xc0df6958	-6.9816093
135	0xc0e44c45	-7.1343102
136	0xc0e24c2d	-7.071799
137	0xc0dc4140	-6.882965
138	0xc0e02057	-7.0039477
139	0xc0ded0a5	-6.9629693
140	0xc0e477a7	-7.139606
141	0xc0e07a5a	-7.0149355
142	0xc0e7e7aa	-7.2470293
143	0xc0dd5501	-6.9166265
144	0xc0dcb12f	-6.896629
145	0xc0ddf4d3	-6.936136
146	0xc0e45534	-7.135401
147	0xc0e0de2c	-7.0271206
148	0xc0e11512	-7.033822
149	0xc0de99c6	-6.956271
150	0xc0de3fc6	-6.945285
151	0xc0de468e	-6.9461126
152	0xc0e0e775	-7.028254
153	0xc0df14bb	-6.9712806
154	0xc0e17d84	-7.0465717
155	0xc0e35199	-7.1037107
156	0xc0db9fa4	-6.8632374
157	0xc0da19ad	-6.8156343
158	0xc0e3002e	-7.093772
159	0xc0e35e07	-7.105228
160	0xc0e1c4f4	-7.055292
161	0xc0ddbd48	-6.9293556
162	0xc0e2c598	-7.0866203
163	0xc0dd4314	-6.9144382
164	0xc0dfe442	-6.9966135
165	0xc0def52b	-6.9674277
166	0xc0dbd05f	-6.869186
167	0xc0dfd957	-6.9952807
168	0xc0e2ec0e	-7.0913153
169	0xc0ddb869	-6.928761
170	0xc0daecd5	-6.84141
171	0xc0e03917	-7.006969
172	0xc0dc261c	-6.879652
173	0xc0de94d8	-6.9556694
174	0xc0dfa36e	-6.9887
175	0xc0dab8cf	-6.8350596
176	0xc0e005c3	-7.0007033
177	0xc0e54d67	-7.1656985
178	0xc0df3b75	-6.976008
179	0xc0dc4e08	-6.8845253
180	0xc0e18c6e	-7.0483923
181	0xc0df2adc	-6.973982
182	0xc0e1c805	-7.0556664
183	0xc0e19985	-7.04999
184	0xc0dcae65	-6.8962884
185	0xc0e58395	-7.1723123
186	0xc0df5094	-6.978586
187	0xc0dc6b6a	-6.888112
188	0xc0e3ae5d	-7.1150346
189	0xc0e13055	-7.03715
190	0xc0dd9470	-6.92437
191	0xc0d95e9f	-6.7928004
192	0xc0dfd151	-6.9943013
193	0xc0df356f	-6.9752727
194	0xc0e0d5fe	-7.026122
195	0xc0e1e0a3	-7.0586715
196	0xc0e0bd3d	-7.0231004
197	0xc0dfdc8a	-6.9956713
198	0xc0ddbf0b	-6.9295707
199	0xc0df502f	-6.978538
200	0xc0df7b7b	-6.9838233
201	0xc0df1265	-6.9709954
202	0xc0dcceb7	-6.9002337
203	0xc0e23d01	-7.069947
204	0xc0dd93c5	-6.9242883
205	0xc0e3433c	-7.1019573
206	0xc0dc587a	-6.8858004
207	0xc0de30aa	-6.9434404
208	0xc0e02c76	-7.0054274
209	0xc0db581e	-6.8545065
210	0xc0dfd593	-6.994821
211	0xc0e0ca71	-7.024712
212	0xc0df7668	-6.983204
213	0xc0dccdf8	-6.9001427
214	0xc0e3a39c	-7.113722
215	0xc0e112be	-7.033538
216	0xc0e33f26	-7.1014585
217	0xc0dcf260	-6.904587
218	0xc0dbdf65	-6.87102
219	0xc0db9e47	-6.863071
220	0xc0e4f7e1	-7.1552587
221	0xc0dd4597	-6.914745
222	0xc0dcb881	-6.8975224
223	0xc0d9ab76	-6.8021803
224	0xc0dd0c3e	-6.9077444
225	0xc0e26cb9	-7.075772
226	0xc0e1b407	-7.053226
227	0xc0e4113d	-7.1271043
228	0xc0e92fc3	-7.2870803
229	0xc0dcccee	-6.900016
230	0xc0e28526	-7.0787535
231	0xc0e4b207	-7.146732
232	0xc0de6c08	-6.9506874
233	0xc0df4a87	-6.9778476
234	0xc0dadf9c	-6.839796
235	0xc0dcc70c	-6.8992977
236	0xc0e12321	-7.035538
237	0xc0dbcd81	-6.868836
238	0xc0e83a86	-7.257144
239	0xc0da9db2	-6.83175
240	0xc0e374b1	-7.1079946
241	0xc0deb122	-6.9591227
242	0xc0e7119a	-7.2208986
243	0xc0dfb4f7	-6.9908404
244	0xc0e2e8b2	-7.090905
245	0xc0dec557	-6.9615893
246	0xc0d8e6e3	-6.7781844
247	0xc0e2a6ca	-7.08286
248	0xc0e6c23f	-7.2112117
249	0xc0db89c5	-6.8605676
250	0xc0dff83a	-6.999051
251	0xc0dde880	-6.9346313
252	0xc0dfff1b	-6.999891
253	0xc0e3e7d0	-7.1220474
254	0xc0d6e857	-6.715862
255	0xc0e00b25	-7.0013604

eps_w f4 [256, 7, 1]
0	0xbf119614	-0.56869626
1	0xbebe5e90	-0.3718152
2	0xbf8653cc	-1.0494323
3	0xbedf65d3	-0.43632373
4	0x3f2dfa34	0.67959905
5	0xbfe89c51	-1.8172704
6	0xc01c9539	-2.4466078
7	0x3f1bf998	0.60927725
8	0x3e6aa7e4	0.22915608
9	0xbe899eae	-0.26878875
10	0x3f195a1c	0.5990312
11	0x3f91cfb0	1.1391506
12	0xbfbff725	-1.4997298
13	0x3e9177ee	0.28411812
14	0xbf33393e	-0.7000922
15	0xbecc1821	-0.3986216
16	0xbece44fa	-0.40287
17	0x3eee590f	0.4655232
18	0xbeb1a2a0	-0.34694386
19	0x3ff323b1	1.8995267
20	0xbe34c49f	-0.1765313
21	0x3f76dc07	0.96429485
22	0x3efe0c3c	0.4961871
23	0x3f800551	1.0001622
24	0x3f998e71	1.1996595
25	0x3f9b9529	1.2154895
26	0x3f81163f	1.0084914
27	0xbf8fe00f	-1.1240252
28	0xbf46c744	-0.77647805
29	0x3fab1394	1.336535
30	0x3e17c062	0.14819482
31	0xbe61639d	-0.22010656
32	0xbc22f7d0	-0.009946778
33	0x3eb2227b	0.34791932
34	0x3fe8190a	1.8132641
35	0xbe917c46	-0.28415126
36	0x3f08b305	0.5339816
37	0x3f1db4db	0.6160409
38	0x3de32559	0.11091108
39	0x3feb0e87	1.8363808
40	0xbf356744	-0.70860696
41	0x3f9bcdf8	1.2172232
42	0xbf18aec3	-0.59641665
43	0x3ea4bcad	0.32175198
44	0xbf9cb397	-1.2242306
45	0xbf0c2833	-0.5474884
46	0xbd4c8e23	-0.04994024
47	0xbf39af05	-0.72532684
48	0xbf3f2b03	-0.74675006
49	0xbed986d9	-0.42485693
50	0x3eb1854f	0.3467202
51	0x3f8bd4f5	1.0924364
52	0x3f7b1267	0.98074955
53	0x3e62e6e9	0.22158398
54	0xc014313f	-2.3155057
55	0xbf81b689	-1.013383
56	0x3fddfa50	1.7342014
57	0xbea786c9	-0.3272002
58	0x3eefe3d5	0.4685351
59	0xbf4048aa	-0.75110877
60	0xbfb96b63	-1.4485897
61	0xbf843281	-1.0327913
62	0x3f074f8f	0.5285577
63	0xbf2b3317	-0.6687483
64	0xbf6a0a9e	-0.9142245
65	0xbf8a00bc	-1.0781474
66	0xbf0f92bc	-0.56083274
67	0xbfa5264e	-1.2902315
68	0x3db0b8be	0.08628987
69	0xbc9ff337	-0.019525154
70	0xbe899827	-0.26873896
71	0x3e6cbf89	0.2311994
72	0x3d212cc8	0.039349347
73	0xbf174b6b	-0.59099454
74	0xbf055cd3	-0.52094764
75	0x3e5263fa	0.2054595
76	0xbf017372	-0.5056678
77	0x3f2026c8	0.62559175
78	0xbf83c464	-1.0294309
79	0xbf7d37a7	-0.98913044
80	0x3da5d49e	0.08097194
81	0x3eb31378	0.3497579
82	0xbfb8c30f	-1.4434527
83	0xbe53c4ee	-0.20680591
84	0xbfa3e681	-1.2804719
85	0xbf3453e0	-0.70440483
86	0xbfc233bc	-1.5172038
87	0x3f2f2d23	0.6842825
88	0xbe247a7b	-0.16062348
89	0x3fae3329	1.3609363
90	0xbf24f6ef	-0.6443929
91	0xbfb350e0	-1.4009056
92	0xbf086018	-0.5327163
93	0x3fc02bf5	1.5013415
94	0x3f060962	0.5235807
95	0xbf47f39c	-0.78106093
96	0xc003e636	-2.060926
97	0xbff37b4d	-1.9022003
98	0xbf904c65	-1.1273314
99	0x3f8baee6	1.091275
100	0xbf2804dc	-0.65632415
101	0x3e51b261	0.20478202
102	0x3f0fdca4	0.56196046
103	0x3e93becf	0.28856513
104	0x3cd44b0a	0.025914688
105	0xbe166a1c	-0.14688915
106	0xbf56d876	-0.83924043
107	0x3e6324df	0.22182034
108	0x3f284898	0.6573577
109	0x3efe7baf	0.49703738
110	0xbf0e19e2	-0.55508244
111	0x3f3dfb1d	0.74211293
112	0x3fa1d8a1	1.2644235
113	0x3e2c8036	0.16845784
114	0xbe5cc546	-0.21559629
115	0x3f211af3	0.62931746
116	0xbf59a37a	-0.8501507
117	0xbec082fe	-0.3759994
118	0x3fd8fc2d	1.6951958
119	0x3f6f86da	0.9356514
120	0xc00f8cd0	-2.2429695
121	0x3f5ad84f	0.8548631
122	0xbe4a3484	-0.19746596
123	0xbed2d613	-0.4117895
124	0x3ddca739	0.10774083
125	0xbfb9b8bc	-1.4509501
126	0x3e693602	0.22774509
127	0x3f91b90f	1.13846
128	0xbeb1c888	-0.34723306
129	0x3f9c859f	1.2228278
130	0x3e954319	0.29152754
131	0x3f0685f2	0.52548134
132	0xbfc71fa0	-1.5556526
133	0x3f692fd9	0.91088635
134	0x3f77ca10	0.967927
135	0x3f19672e	0.59923065
136	0x3ebbe287	0.36696264
137	0xbf1714aa	-0.59015906
138	0xbf476f00	-0.7790375
139	0xbe03b184	-0.12860686
140	0xbee95b9b	-0.45577702
141	0x3f3fd4b6	0.74933946
142	0x3ebc2c72	0.3675266
143	0x3fb0231c	1.3760715
144	0xbfb0b5dc	-1.3805499
145	0x3eae3ec9	0.34032276
146	0xbee834c1	-0.45352748
147	0xbeb68738	-0.3565004
148	0xc015c7d1	-2.3403208
149	0xbff62333	-1.9229492
150	0xbf97c477	-1.1856831
151	0x3f16825c	0.5879266
152	0x3f54b633	0.83090514
153	0x3f800282	1.0000765
154	0x3e786b9b	0.24259798
155	0xbf84677e	-1.0344083
156	0xbe8f51e5	-0.27992168
157	0xbf8af4e0	-1.085598
158	0xbf9f3937	-1.2439336
159	0xbf8e454f	-1.1114901
160	0x3f87e897	1.0617856
161	0x3f714218	0.94241476
162	0xbdca229e	-0.09869884
163	0xbe45bffa	-0.19311514
164	0xbf0c7730	-0.54869366
165	0xbe292a89	-0.16520132
166	0xbc0ca45c	-0.008584108
167	0xbf69162d	-0.9104946
168	0x3fa7a2ab	1.3096517
169	0xbf59766e	-0.84946334
170	0x3fbfcd57	1.498454
171	0x3f1828b7	0.59437126
172	0xbfbe0fb0	-1.4848537
173	0xbe15d6c9	-0.14632715
174	0x3f52a3b8	0.82281065
175	0x3f12c31a	0.5732895
176	0xbf181817	-0.5941176
177	0x3e1e8f61	0.15484382
178	0xbf93dad4	-1.1551156
179	0xbf3786fb	-0.7169034
180	0x3ce1cf42	0.027564649
181	0xbefccd4f	-0.49375388
182	0x3ed746ae	0.42046112
183	0xbfa01016	-1.2504909
184	0xbca61c88	-0.020277277
185	0xbf2869cb	-0.6578643
186	0xbfd7e5d7	-1.6867017
187	0xbf9b3732	-1.2126219
188	0x3f073483	0.528145
189	0xbf7dbb97	-0.99114364
190	0x3e8bbdac	0.27293146
191	0xbe82641d	-0.25467005
192	0x3fec60d9	1.8467056
193	0x3e983596	0.29728383
194	0xbe9b61a5	-0.30347934
195	0xbefc767b	-0.49309143
196	0xbe9859c9	-0.29756
197	0xbe8bb80b	-0.2728885
198	0xbf99d52d	-1.2018181
199	0xc00a2bb1	-2.1589167
200	0x4009a6b7	2.1508005
201	0x3f2083b1	0.62700945
202	0x3fb284be	1.394676
203	0xbfdb8fd2	-1.7153265
204	0xbec15178	-0.37757468
205	0xbdc85f6f	-0.097838275
206	0x3ff40920	1.9065285
207	0xbdf9e21f	-0.12201332
208	0x3f250952	0.64467347
209	0xbd88d8af	-0.06681954
210	0x3e5045fe	0.203392
211	0xbf461d6b	-0.7738864
212	0x3e135562	0.1438804
213	0xbe9867f7	-0.2976682
214	0x3f98f1f0	1.1948833
215	0xbf055d8a	-0.52095854
216	0x3ec2cde3	0.38047704
217	0xbe0b1cbb	-0.13585179
218	0x3eb8146d	0.35953084
219	0xbf096677	-0.53671974
220	0xbf3dd800	-0.74157715
221	0x3e0c93b5	0.13728221
222	0x3f4ef1b4	0.8083756
223	0xbf50cbc4	-0.8156092
224	0x3fc832d5	1.5640513
225	0xbff35175	-1.9009234
226	0xbfb3248c	-1.3995528
227	0x3f8104be	1.0079572
228	0x3f07e55b	0.53084344
229	0x3fbbe286	1.4678504
230	0xbfa3ebc5	-1.2806326
231	0x3d96502d	0.07339511
232	0x3fa63696	1.2985408
233	0xbeec6bf1	-0.46176103
234	0xbdd61d00	-0.1045475
235	0xbeae3acb	-0.3402923
236	0xc02ee6f7	-2.732847
237	0x3fcda68a	1.6066449
238	0x3e832709	0.2561572
239	0xbf605ede	-0.87644756
240	0x3f2ab5e8	0.66683817
241	0x3e8d9b78	0.27657676
242	0xbe689fe3	-0.22717242
243	0xbf6db85e	-0.92859447
244	0x3e79b8f8	0.24386966
245	0x3cc9713d	0.024590129
246	0x3f01344c	0.50470424
247	0x3c33da66	0.010977363
248	0xbf9e74df	-1.2379416
249	0x3f8ff1b7	1.124564
250	0x3f1d9d0f	0.6156778
251	0x3f75fafe	0.9608611
252	0x3fc4a2f0	1.5362225
253	0xbf642f05	-0.89134246
254	0xbfaa225e	-1.3291738
255	0x3fdacdeb	1.7094091
