results/saved_models/df_CNYExch_seed_58361_model_GRU.pkl (torch, 370120 bytes, 22 tensors)

weight_ih_mu f4 [5, 256]
000000 a7 f1 e4 bc a0 5b 9a bd 1e 11 a7 bd ae de 24 bd
       -0.02794726 -0.07537007 -0.08157562 -0.040251426
000010 fe 8a 37 bb e0 3a 44 be ff bd 4f be a4 87 2b 3e
       -0.002800643 -0.19163084 -0.20287322 0.16750962
000020 78 68 bf bc 8c ee 02 3e 44 fa b2 bd 97 10 fb bd
       -0.023365244 0.12786311 -0.08739141 -0.12259024
000030 4d 67 1f 3d 8d 76 42 bd 05 1b e3 bd d9 32 2e 3b
       0.038916875 -0.04747634 -0.11089138 0.00265806
000040 a3 d6 c5 bd bf e5 b8 3d 64 ec 52 be 52 6b fd ba
       -0.09660079 0.090281956 -0.20597988 -0.0019334352
000050 d8 39 03 3e c2 89 53 3d 1e 6d 40 bd 9a 22 3e be
       0.12815034 0.051645048 -0.046979062 -0.18567887
000060 83 a1 0e bd b1 e9 17 be cf 88 1d be a4 6d 2a bc
       -0.034822 -0.1483524 -0.1538422 -0.010402117
000070 5a 23 29 3c c4 a7 17 bd 07 c5 ee 3d e6 e4 e0 bd
       0.01032337 -0.03702523 0.11658674 -0.10981159
000080 31 fe 48 be 68 19 b4 bd 24 bf e7 3d de 95 0c 3b
       -0.19628216 -0.08793908 0.11315754 0.0021451632
000090 6a a4 fe bd 93 29 df bc 77 11 74 be 3d 3f fc bd
       -0.12433703 -0.027241504 -0.23834787 -0.12316749
0000a0 a6 17 ee bc 5f e9 76 3e 5a 78 19 be 77 2a 4b bd
       -0.02906401 0.24112462 -0.14987317 -0.049601045
0000b0 68 37 56 be 60 24 65 bb 6e fe 75 be 21 9a d0 bc
       -0.20919573 -0.0034964308 -0.24022838 -0.02546412
0000c0 23 e7 8a bd cf 29 b2 bd 2d 5f c6 3c ed 46 7b bd
       -0.06782367 -0.086993806 0.024215305 -0.061346937
0000d0 9b 73 3b be d0 e5 49 bc b3 70 85 3b 29 0c 9e bd
       -0.18305819 -0.012322858 0.0040722727 -0.07717163
0000e0 b5 a9 8d 3b 8e cc a6 bd a6 eb 0a be 11 bb f9 3d
       0.004323209 -0.081444845 -0.13566455 0.12193883
0000f0 bd 2c 69 3d 96 03 60 3d 97 69 45 be b9 d8 10 3e
       0.05692743 0.05469092 -0.1927856 0.14145173
000100 fd c9 9b bd b8 f6 4e bd 57 34 81 3e 35 ef 82 ba
       -0.076068856 -0.050528258 0.25235245 -0.0009989502
000110 47 1f 21 3e 90 af 16 3d 6c cc 50 bd 01 80 f6 bd
       0.15734588 0.036788523 -0.050976202 -0.120361336
000120 7b 9d 1e be 56 ae 28 3e 92 93 4d 3e f0 02 de 3d
       -0.15489762 0.16472754 0.20075825 0.10840404
000130 75 b1 b2 bd 5e ba 38 3d 87 5b b2 3d c2 4f 37 3e
       -0.087252535 0.04509961 0.08708864 0.17901519
000140 5c cb 5c be 96 4c ba bd d4 c8 da 3d 79 55 e5 3d
       -0.2156195 -0.09096639 0.10682836 0.11197943
000150 26 7c 2f 3d aa 6b 56 3d a9 18 87 3e 1a 60 ff 3c
       0.042843007 0.05234877 0.26386002 0.031173754
000160 97 67 0d bc 7a b7 9c 3d 18 ba 04 3d 6f ae bc 3d
       -0.008630655 0.07652183 0.032404035 0.09212958
000170 f8 52 e5 3b bb 67 79 bc 06 9d 1e 3d 81 40 30 bb
       0.006998416 -0.015222485 0.038723968 -0.0026893916
000180 37 8b 34 bd c9 8f 40 3e 0c 67 ae 3d 33 d9 72 be
       -0.044078078 0.1880485 0.085157484 -0.23715667
000190 a8 03 df bc d9 e4 0b 3d 8b ae 31 be 0d c5 b8 3c
       -0.027223423 0.034153793 -0.17351739 0.022554899
0001a0 6b c6 01 3d b3 b6 1c be 8a d9 94 3d 1f a6 1f be
       0.031683367 -0.15304069 0.07268055 -0.15590714
0001b0 7e 48 8c be c1 30 f0 bc 85 e1 11 bd 67 b9 2a bd
       -0.27399057 -0.029320123 -0.035615463 -0.04168072
0001c0 13 b4 15 be 63 aa 0f be 6f 9e 68 bd d2 2f 3f be
       -0.14619474 -0.14029841 -0.05679172 -0.18670586
0001d0 20 06 1b 3b 0a e0 db 3d 8f 34 26 3d 70 27 39 be
       0.0023654774 0.107360914 0.040577468 -0.1808145
0001e0 19 7a 1e 3e 3b b3 4c 3e b6 4d 0d be b2 3b ec bd
       0.15476264 0.19990246 -0.13799176 -0.115348235
0001f0 94 59 a7 be 03 cd 36 3e 83 dc 34 bd 92 bc de bd
       -0.3268553 0.17851643 -0.04415561 -0.10875811
000200 76 0b c1 3c 2a 97 2e 3e c2 7e c6 bd c1 bf e0 3d
       0.023565035 0.17049852 -0.09692146 0.10974074
000210 ad 0f 99 3c 54 11 e5 bc 27 7c 8f 3d 9a b9 bc bc
       0.018684233 -0.027962364 0.07006102 -0.02303772
000220 b7 6c 1f 3e 85 39 88 3c 1e 07 cc 3d 2d 1c 9a bd
       0.15568815 0.01662899 0.09962295 -0.07524905
000230 d7 d5 7e bd 0f c2 89 3d 16 00 46 bd 27 a2 8c bd
       -0.062215652 0.06726467 -0.048339926 -0.068668656
000240 72 52 73 bd 7a 7b 0f bd 9b 00 21 3e b4 c2 d4 3d
       -0.059404798 -0.035029866 0.15722887 0.10388699
000250 86 ad a3 3d 02 2e 74 3c 5c 44 c2 3c 4c e1 b2 3d
       0.07992081 0.014903547 0.023714237 0.08734378
000260 94 55 a7 bb 3b 5e 2f 3c d7 8a 8f 3c fa ae 1d bd
       -0.0051066373 0.010703619 0.017522259 -0.03849695
000270 fd c2 c0 3d 16 ea 2e 3d 18 bd 41 3d 1b 98 15 3e
       0.09412191 0.04270371 0.047299474 0.14608805
000280 4c a5 cd 3d 4b 5c 66 3d ed 4e 84 3c 10 4b 40 3e
       0.100412935 0.05624036 0.016150916 0.18778634
000290 04 4d aa be ac 07 87 3d 4a ce d6 bd b1 97 2b 3d
       -0.33261883 0.0659326 -0.10488565 0.04189271
0002a0 1c 18 f1 3d 0c e5 7c bc 5c 98 5f 3b da 7e 01 bd
       0.117721766 -0.015435468 0.0034117913 -0.031615116
0002b0 a1 b1 4c be c3 a5 87 bc e3 7d 25 3d 70 f6 1c be
       -0.19989635 -0.016558534 0.040403258 -0.15328383
0002c0 3c d6 d6 bd 32 5b 65 3e 50 41 7e bd 71 64 2d 3d
       -0.10490081 0.2239807 -0.062074006 0.042332117
0002d0 e1 e3 1d bd 91 2e 0b 3e de 70 92 3d f2 69 25 be
       -0.0385474 0.13591982 0.07150434 -0.16153696
0002e0 c0 a0 19 bc 14 47 86 be 3a 00 b7 3d ff 49 5d 3d
       -0.009376705 -0.26226103 0.0893559 0.054025646
0002f0 08 df 5f 3e 05 97 7d bc f3 96 53 bd a6 36 64 bc
       0.21862423 -0.0154779 -0.05165763 -0.013929045
000300 1d 42 49 bd 7e 91 10 3e ed f2 9b bc d2 2c be 3c
       -0.049135316 0.14118001 -0.019036734 0.023214731
000310 8f 2d 0f 3e bc 5b 24 be a7 da 6d bd 4f 62 7b 3b
       0.13982223 -0.16050619 -0.05806985 0.0038358157
000320 92 61 d2 bd 64 e1 b3 3c 12 bb bf 3d ca d6 b0 3d
       -0.10272516 0.02195806 0.09361853 0.08634718
000330 57 a3 73 be e7 dc 82 3b 32 c6 ed bc 1b 44 6b bd
       -0.23792778 0.003993619 -0.029025171 -0.057437997
000340 2f 95 af bd 9f 3a 33 bc a7 83 81 3d 3d 92 1c 3d
       -0.085733764 -0.010939269 0.06323939 0.0382254
000350 94 39 bf bc 4a 88 4c 3d 7b ac 0e bd 93 33 f6 3b
       -0.023342885 0.049934663 -0.03483246 0.0075134723
000360 f2 58 11 3c 27 5c a3 bc 37 06 fe bc 83 92 a7 bd
       0.008871304 -0.019941403 -0.031008823 -0.08182242
000370 7e 82 84 bc aa 0b d5 bd 08 f9 8f bd a1 3c b1 bd
       -0.016175505 -0.10402615 -0.07029921 -0.08654142
000380 bb 50 03 3c 8e 2c 31 be 45 b0 e2 3d 00 8a db bd
       0.008014853 -0.17302153 0.11068777 -0.10719681
000390 b4 d6 99 bd ab 76 bb 3d 1e f4 2f bd 32 5a 15 3d
       -0.075116545 0.091534935 -0.042957418 0.03646297
0003a0 43 db d8 3d df de 03 3e f6 b1 cb bd e3 aa c5 3e
       0.10588696 0.12877987 -0.09946053 0.3860694
0003b0 bb 02 24 3e 56 a5 10 3d 85 bc 82 3c 6c f1 bd bd
       0.16016667 0.035313927 0.015959034 -0.09274563
0003c0 fb 92 f6 bd af 61 c5 bd 9c 82 3c 3e 97 5e 1d 3e
       -0.12039753 -0.09637772 0.18409199 0.15368114
0003d0 39 e3 9f bc c0 c4 eb bc 76 9a 1d bc 47 44 f2 bc
       -0.019517528 -0.028780341 -0.009619346 -0.029573573
0003e0 52 4b ee 3d 3b 40 a8 bd 50 ca fa bb a7 fa 18 3c
       0.1163546 -0.08215376 -0.007653512 0.009337104
0003f0 c3 39 b9 3d ed bc c5 3d 3e 4f 05 be de 4b c3 bc
       0.0904422 0.09655175 -0.1301851 -0.023839887

weight_ih_rho f4 [5, 256]
000000 29 af bb c0 71 55 c4 c0 a8 74 bd c0 5e 90 bc c0
       -5.865132 -6.13543 -5.9204903 -5.892623
000010 92 05 b9 c0 3b ae c4 c0 bd d2 c0 c0 36 79 c1 c0
       -5.78193 -6.1462684 -6.025725 -6.0460463
000020 eb 1d b9 c0 0e 61 c2 c0 8a 5f c4 c0 9d f9 c5 c0
       -5.784902 -6.0743475 -6.1366625 -6.1867204
000030 74 64 b9 c0 7e 6f c0 c0 f7 53 b7 c0 f3 f4 ba c0
       -5.7935123 -6.01361 -5.7289996 -5.842401
000040 61 b7 ba c0 8d 37 c1 c0 d6 66 bd c0 60 6e ba c0
       -5.834885 -6.038031 -5.918803 -5.8259735
000050 c1 cb b8 c0 e8 50 c4 c0 ab 93 ba c0 64 f6 bd c0
       -5.7748723 -6.1348763 -5.830526 -5.936327
000060 5a 22 c3 c0 6d 1a be c0 12 86 c6 c0 c1 0d c5 c0
       -6.0979433 -5.940726 -6.203866 -6.157929
000070 45 eb ba c0 ef ac bf c0 d2 fe c1 c0 83 c8 be c0
       -5.8412194 -5.98986 -6.062356 -5.9619765
000080 42 1a bd c0 25 ea c0 c0 8a bc bf c0 af 1e c3 c0
       -5.9094553 -6.028582 -5.991765 -6.0974956
000090 cd 72 bd c0 34 b6 c5 c0 31 04 bd c0 f0 ab c3 c0
       -5.920264 -6.1784916 -5.9067616 -6.1147385
0000a0 e6 a6 bc c0 8f 31 b9 c0 b4 e6 bf c0 93 8c c4 c0
       -5.8953733 -5.7872996 -5.996912 -6.14216
0000b0 c6 87 c0 c0 79 7a c3 c0 70 d1 b7 c0 62 dd c2 c0
       -6.016574 -6.1087003 -5.744316 -6.0895243
0000c0 12 b6 c5 c0 e7 18 be c0 ed 49 c1 c0 61 2e bd c0
       -6.1784754 -5.94054 -6.040274 -5.9119115
0000d0 36 c1 ba c0 82 de bd c0 8c fb c2 c0 6a 9b c1 c0
       -5.8360853 -5.9334116 -6.0932064 -6.0502214
0000e0 c1 61 c0 c0 7c f4 c2 c0 b3 0b bd c0 de 5d c4 c0
       -6.011933 -6.0923443 -5.907678 -6.1364584
0000f0 4b 7d bc c0 4b 75 c3 c0 69 a0 bf c0 1d c1 c2 c0
       -5.8902946 -6.108068 -5.9883313 -6.0860734
000100 c6 38 c2 c0 f1 66 b8 c0 70 04 c3 c0 53 05 c6 c0
       -6.0694304 -5.762566 -6.0942917 -6.18815
000110 6c 7d c3 c0 a0 33 be c0 e3 9c c1 c0 18 4a c3 c0
       -6.1090603 -5.943802 -6.050401 -6.1027946
000120 9f d7 c2 c0 e1 6f bd c0 d8 ca be c0 c9 dc bb c0
       -6.088821 -5.919907 -5.962261 -5.8707013
000130 7d 09 be c0 24 54 bf c0 de ae c2 c0 30 35 c0 c0
       -5.938658 -5.979021 -6.083846 -6.0064926
000140 49 30 c1 c0 02 22 be c0 dd 02 bc c0 c0 68 c0 c0
       -6.037144 -5.9416513 -5.8753495 -6.012787
000150 09 55 c2 c0 da ae c2 c0 91 50 c0 c0 c1 4b ba c0
       -6.0728803 -6.083844 -6.009835 -5.8217473
000160 a8 f5 c1 c0 da e0 be c0 95 27 bd c0 06 90 c5 c0
       -6.0612373 -5.9649477 -5.911082 -6.173831
000170 c3 38 c5 c0 64 9a c0 c0 e6 9f bd c0 c8 55 c1 c0
       -6.163179 -6.0188465 -5.925769 -6.0417213
000180 ea 24 c6 c0 9c 95 bf c0 39 58 c4 c0 37 b4 ba c0
       -6.192006 -5.987013 -6.1357694 -5.834499
000190 e0 83 be c0 5e cb be c0 27 f0 bf c0 88 0c b9 c0
       -5.953598 -5.962325 -5.9980655 -5.7827797
0001a0 eb 92 bc c0 53 fa bf c0 23 52 ba c0 8f c9 c3 c0
       -5.8929343 -5.999307 -5.8225265 -6.1183543
0001b0 60 51 c1 c0 ae 69 be c0 b9 b9 c0 c0 dc 97 c1 c0
       -6.0411835 -5.9504004 -6.022671 -6.0497875
0001c0 d3 b8 c1 c0 b1 96 c0 c0 f6 bd c6 c0 ce 8e bf c0
       -6.0538116 -6.018395 -6.2106886 -5.986182
0001d0 5d 1b c7 c0 51 1e bf c0 26 c6 cc c0 64 04 c3 c0
       -6.2220902 -5.9724507 -6.399188 -6.094286
0001e0 b0 ce c2 c0 97 16 c3 c0 4c d9 c3 c0 ea 6b bf c0
       -6.0877304 -6.0965075 -6.1202755 -5.981923
0001f0 20 f6 bb c0 a5 dd c0 c0 fe 9d bb c0 27 e3 c2 c0
       -5.8737946 -6.027056 -5.863036 -6.0902286
000200 bc 3d be c0 10 87 c4 c0 1b 9d bb c0 05 92 c0 c0
       -5.945036 -6.141487 -5.862928 -6.0178246
000210 ed 24 c0 c0 88 62 c0 c0 bc a1 be c0 a0 e0 c2 c0
       -6.0045075 -6.0120277 -5.957243 -6.08992
000220 e0 f9 c5 c0 1e 33 ba c0 cc 99 c3 c0 81 1c bf c0
       -6.1867523 -5.81874 -6.112524 -5.9722295
000230 42 1b bd c0 b5 fc bc c0 54 6b b7 c0 52 0f c1 c0
       -5.9095774 -5.905848 -5.7318516 -6.03312
000240 76 2d c2 c0 ec f5 c1 c0 83 54 c2 c0 c2 01 cb c0
       -6.0680494 -6.0612698 -6.0728164 -6.3439646
000250 8f c8 c3 c0 82 0f bc c0 63 dc bd c0 3f 79 c1 c0
       -6.1182323 -5.876893 -5.9331527 -6.0460505
000260 f4 ab bf c0 59 9b c2 c0 74 cd c1 c0 94 02 bc c0
       -5.9897404 -6.0814633 -6.0563297 -5.8753147
000270 d5 91 c4 c0 1f ef bf c0 69 6c bf c0 d0 26 c0 c0
       -6.142802 -5.9979396 -5.9819837 -6.004738
000280 35 8d c1 c0 17 7c bf c0 d5 af bb c0 12 61 c4 c0
       -6.048487 -5.9838977 -5.865214 -6.1368494
000290 23 6d c5 c0 8c a7 c1 c0 4b 0e c3 c0 b3 05 bb c0
       -6.1695724 -6.0517025 -6.0954947 -5.8444457
0002a0 92 2e bf c0 66 61 b8 c0 73 06 c0 c0 1c 8b c1 c0
       -5.974435 -5.7618895 -6.0007873 -6.048231
0002b0 eb 67 c4 c0 ad b6 bc c0 e8 69 c1 c0 f6 57 c1 c0
       -6.1376853 -5.8972993 -6.044178 -6.0419874
0002c0 e6 26 c1 c0 ad 7b c0 c0 d4 44 bd c0 0a 7d b9 c0
       -6.0359983 -6.015097 -5.914652 -5.7965136
0002d0 24 34 c3 c0 46 99 bc c0 4e 3a bd c0 72 a9 be c0
       -6.100115 -5.89371 -5.9133673 -5.9581842
0002e0 5f db b9 c0 e8 56 bf c0 75 11 c0 c0 97 87 c3 c0
       -5.8080287 -5.9793587 -6.002131 -6.1103015
0002f0 b0 b8 bd c0 95 a1 b9 c0 ad 7f c3 c0 87 b3 bd c0
       -5.928795 -5.8009744 -6.1093354 -5.928165
000300 f7 86 c5 c0 9e 54 c3 c0 f3 76 c1 c0 ed 75 c0 c0
       -6.172725 -6.1040792 -6.04577 -6.014395
000310 4b fc c0 c0 ca f0 bc c0 47 f1 c1 c0 a0 f9 bc c0
       -6.0307975 -5.904393 -6.060703 -5.905472
000320 59 bf c0 c0 f2 7b be c0 80 83 be c0 6c ab c3 c0
       -6.023358 -5.95263 -5.9535522 -6.1146755
000330 12 43 c1 c0 4e ce c4 c0 e3 13 c3 c0 53 f1 c5 c0
       -6.0394373 -6.1501837 -6.0961776 -6.1857085
000340 37 99 be c0 4a a9 bf c0 03 5d c0 c0 6b dc c6 c0
       -5.956203 -5.989415 -6.011354 -6.2144065
000350 e2 32 c6 c0 26 3b c2 c0 0e 32 bd c0 5b 50 bf c0
       -6.1937113 -6.0697203 -5.91236 -5.978559
000360 11 a1 bd c0 62 4c bf c0 d3 05 c5 c0 45 ac bd c0
       -5.9259114 -5.978074 -6.156961 -5.927279
000370 51 e8 be c0 cf 99 bb c0 eb 1a be c0 69 dd c2 c0
       -5.965859 -5.8625255 -5.940786 -6.0895276
000380 9e ef c2 c0 62 d0 c2 c0 66 9b c3 c0 e6 9b c3 c0
       -6.09175 -6.0879374 -6.1127195 -6.1127806
000390 45 43 c3 c0 ba 8a c2 c0 25 e7 c0 c0 11 50 c3 c0
       -6.1019616 -6.0794344 -6.028216 -6.1035237
0003a0 ea fe bb c0 0e 19 bf c0 e1 73 be c0 7a 5d c0 c0
       -5.8748674 -5.9718084 -5.9516454 -6.0114107
0003b0 4c 24 c0 c0 92 0d c0 c0 26 8c c5 c0 7a 85 c3 c0
       -6.004431 -6.0016565 -6.173358 -6.1100435
0003c0 1c e5 bf c0 76 92 c1 c0 ce e6 bf c0 20 db c1 c0
       -5.9967175 -6.0491285 -5.9969244 -6.0579987
0003d0 5a ea bf c0 f9 6b ba c0 63 c4 c1 c0 ca b3 bb c0
       -5.9973574 -5.8256803 -6.055223 -5.865697
0003e0 75 16 c0 c0 67 3a bf c0 2e 67 be c0 bb 9c c0 c0
       -6.0027413 -5.975879 -5.950095 -6.019132
0003f0 16 77 bd c0 de 67 c3 c0 cf 16 c7 c0 3a 60 c1 c0
       -5.920787 -6.106429 -6.2215343 -6.0429964

weight_hh_mu f4 [64, 256]
000000 2c 6e 66 3d c1 ed 27 be a2 64 28 3d e1 3f 1c be
       0.05625741 -0.1639929 0.041111596 -0.15258743
000010 f5 64 38 3e 02 7c ae bd 76 59 9c bd 08 e8 85 bd
       0.18007262 -0.08519746 -0.07634251 -0.06538397
000020 c9 ea 49 bd ee e9 17 3d b5 50 3b be e0 14 c1 bd
       -0.049296174 0.037088327 -0.18292506 -0.0942781
000030 00 01 d1 bc 03 b0 93 3e 2d d3 33 be 81 9d b0 bd
       -0.025513172 0.28845224 -0.17561026 -0.086237915
000040 e5 12 b9 bd 87 08 89 3d 83 9a 51 bc bf 6c ec 3c
       -0.09036807 0.066910796 -0.012793186 0.028860448
000050 60 12 97 bd 56 93 51 3e 8f d7 42 be 2a bf 88 3d
       -0.07376552 0.2046636 -0.19027542 0.06677087
000060 c1 64 ea bd 3f 78 9e be fb b7 55 3c b0 d5 50 3d
       -0.114449985 -0.30951115 0.013044353 0.05098504
000070 1e b0 3c 3b bb 0d 3b be 8b 7c 82 3d 77 59 d2 3d
       0.0028791497 -0.18266957 0.06371411 0.1027097
000080 b7 4d 9a bd f5 19 f6 3c 5a 6c b7 bd 21 e3 b7 bd
       -0.07534354 0.030041674 -0.08956213 -0.08978868
000090 32 b1 74 bd 6b c8 36 bd 9a ef 41 bd 8b f3 56 3e
       -0.0597393 -0.044624727 -0.047347642 0.20991342
0000a0 81 df 0f bd 05 0a 72 bd ed 7f 44 be e4 e0 27 3e
       -0.03512526 -0.059091587 -0.19189425 0.16394383
0000b0 4f ff 5d 3e 70 1e 09 be 3f ff 49 3e 8a da 02 be
       0.21679424 -0.13390517 0.19726275 -0.12778679
0000c0 e6 72 d0 3d d1 cd 27 be 81 e7 a2 bd 77 b1 c1 bd
       0.10178165 -0.16387106 -0.07954312 -0.09457677
0000d0 37 c1 8b be 6c 44 27 3c 93 c1 1c bd 9d 61 f9 bd
       -0.2729585 0.010209184 -0.038270544 -0.121768214
0000e0 61 84 ed bd 70 76 e7 3d f8 c9 86 bd 4b 36 0b 3d
       -0.11597515 0.11301887 -0.06581491 0.033987325
0000f0 d1 e3 fd bd f6 3c c9 3d 6d 9b c6 bc 25 01 d3 bc
       -0.12396968 0.098260805 -0.024244035 -0.025757382
000100 7f ee 18 be 76 43 2d bc 1a a1 c4 3c e6 63 cd 3b
       -0.14934729 -0.010575166 0.0240026 0.0062680123
000110 8b c3 93 3e ac fd 04 3d b4 16 09 3d 81 83 74 be
       0.28860125 0.032468483 0.033468917 -0.2387829
000120 5e 9a c5 bd d2 ab b9 bd 1b 39 d7 bd e8 a6 c0 3d
       -0.09648584 -0.09065975 -0.10508939 0.09406835
000130 5f 38 9a be e4 e9 cd bd 75 4d b6 3d 78 d4 06 3e
       -0.30121133 -0.10054377 0.089014925 0.13166988
000140 03 62 00 3e dd 2d 28 3d 64 6b 03 be 29 b3 a3 3c
       0.12537389 0.041059364 -0.12833935 0.019982891
000150 ac d0 69 bb cd 9a b2 3d d0 70 c3 3d 64 cd 0e 3d
       -0.0035677357 0.08720932 0.09543002 0.034863845
000160 34 d0 79 be 5b 16 19 bc 08 fc e1 3d 3b 58 14 be
       -0.2439583 -0.009343709 0.11034399 -0.14486782
000170 c9 db 2a be f9 46 45 be 69 fd f0 3d e5 93 3e 3d
       -0.16685404 -0.19265355 0.11767084 0.046527762
000180 5f d3 ff bb bf 33 14 3d 44 04 a4 3d 34 57 82 bd
       -0.00780718 0.03618216 0.08008626 -0.06364289
000190 b2 1a d7 bd 37 87 02 be d0 df 3b 3d cd fe 60 3e
       -0.105031386 -0.12746893 0.04586774 0.21972199
0001a0 57 a2 3f bd ee 22 05 bd 94 c7 28 3e 26 af 71 be
       -0.04678568 -0.032504015 0.16482383 -0.2360197
0001b0 de 02 5d be d6 e5 bc bd 63 3f 07 3c f5 75 4f bd
       -0.21583125 -0.09223525 0.008254859 -0.050649602
0001c0 ea 2f 29 3d 93 6c f0 bd e3 00 f3 bd cf bf f6 be
       0.04130546 -0.11739459 -0.118654035 -0.48193213
0001d0 c4 88 f9 bd 9d 4a 31 be 30 f4 f5 3d 9a eb b0 bd
       -0.12184289 -0.17313619 0.12009466 -0.086386874
0001e0 0e 58 84 3c fb bd 46 bd e6 6b 72 ba d1 24 71 3d
       0.016155269 -0.048521023 -0.00092476455 0.058873
0001f0 b5 ba 51 3e 63 d7 a0 3d d1 05 22 3d 20 fb 0f 3e
       0.2048138 0.07853582 0.03955633 0.1406064
000200 f3 2a 37 be 55 3e d1 bc 16 ee 90 bd 35 08 87 3c
       -0.17887478 -0.025542418 -0.07076661 0.016483406
000210 81 1d 19 be cb 52 d7 3c 62 cb f9 bd 7a f5 e6 3a
       -0.14952661 0.026284596 -0.12196995 0.0017620765
000220 fe 05 13 bd de 0b 30 be a7 43 f3 3d 66 d1 1c be
       -0.035894386 -0.17192027 0.11878138 -0.15314254
000230 9e 6a 1a 3e 53 9b 14 3d 5b 69 d8 bd 93 1c a8 3d
       0.15079734 0.03628094 -0.1056697 0.08208575
000240 6f 43 b2 bd 3a 86 58 3d e2 92 58 bd 51 1d 02 be
       -0.08704268 0.052862383 -0.052874453 -0.12706496
000250 23 22 c8 bd 42 e0 a4 bd 35 17 0d be 03 05 22 3d
       -0.09772136 -0.08050586 -0.13778384 0.03955556
000260 a7 87 e1 3d d3 8b 77 3e d5 b3 2e bd e0 d3 d7 3c
       0.11012202 0.24174432 -0.04265197 0.026346147
000270 bf 67 1f 3e a2 6c 89 bc 92 68 e1 bc 7c a0 bd 3c
       0.1556692 -0.016775433 -0.027515683 0.023147814
000280 12 78 e4 3d 97 46 22 3e a3 cb d1 bd d8 eb 64 be
       0.11155714 0.1584724 -0.10243919 -0.22355592
000290 62 3c 82 3c 85 28 67 3d 06 22 1c 3d 8b 5c 3b be
       0.015897933 0.056435127 0.038118385 -0.18297021
0002a0 b6 14 9d bd 6b c3 00 be 9f d5 8d bd cb 02 0a be
       -0.07669966 -0.12574546 -0.069255106 -0.13477628
0002b0 23 35 2c 3e 3c 22 9d 3d 0c 0b 24 3c e1 22 06 be
       0.16817145 0.07672545 0.010012399 -0.13099243
0002c0 9d f0 fb bc 6a a8 59 bd 33 ec 93 bb d4 74 1f 3e
       -0.030754382 -0.053139128 -0.004514241 0.1557191
0002d0 55 f5 dd bc 61 11 c0 3d a3 89 a3 b9 9c 4a 2d 3d
       -0.027094522 0.09378315 -0.0003119233 0.04230748
0002e0 c5 41 2f 3e a4 ca 83 3b 6e c0 12 3e 23 2e 2f 3d
       0.17114933 0.0040219594 0.14331219 0.04276861
0002f0 f8 59 4f 3e 49 67 bd 3d 71 4c 85 3e 3d 81 e2 3c
       0.20249164 0.09248216 0.26034883 0.027649516
000300 64 b2 8c be b4 43 5c 3c 5f 9d 6b 3c 1e 53 13 3d
       -0.2747985 0.013443876 0.014380782 0.03596794
000310 d7 85 0c be 7c 90 64 be 2c 62 9e bd 7a 5f 99 be
       -0.13722931 -0.22320741 -0.077335685 -0.29955655
000320 16 f1 5d 3d e8 27 ea bc 36 b5 21 3e c4 9c 8c 3d
       0.054184996 -0.028583482 0.15791783 0.06865838
000330 a4 4a af 3d 8c 7e 59 bd 23 7f bb bd 88 e4 3a be
       0.085591584 -0.0530992 -0.09155109 -0.1825124
000340 6c 8e 3c be 25 a8 2a bd 22 3c 08 3e c4 02 0c 3e
       -0.18413705 -0.04166426 0.13304189 0.1367293
000350 a6 b0 05 bd 45 bc a9 3d 56 ef b1 bd 57 0c f9 bd
       -0.03263917 0.08287863 -0.08688228 -0.12160557
000360 b0 b6 20 bd b1 d1 0a 3d a0 14 08 3d 1b 97 cb 3d
       -0.039236724 0.033891384 0.033222795 0.099409305
000370 00 2c 6b bc 56 1d 27 bd fa 91 13 bd 7e 8a c6 3d
       -0.014353752 -0.04079946 -0.036027886 0.09694384
000380 87 2c 2b bc fd ee 18 be fb 0f 88 3d e4 85 f9 bd
       -0.010447628 -0.14934917 0.06643673 -0.12183741
000390 be be 5c 3e e3 1a 59 3c 8c 7c f9 3d ab 6d f2 3d
       0.21557137 0.013251039 0.121819586 0.11837324
0003a0 39 fa 1b 3e c1 19 10 3e d2 51 a2 be bd fc a0 3d
       0.15232171 0.14072324 -0.3170305 0.07860706
0003b0 51 ec 0f bd 84 3f 2e be 9f 20 fc bd 34 23 f0 3d
       -0.03513748 -0.17016417 -0.123109095 0.117254645
0003c0 11 c9 74 3d f4 22 57 be 87 3f f8 3c 59 d8 cb bd
       0.059762064 -0.21009427 0.03030373 -0.099533744
0003d0 e9 7b 8e bd 2e 8c c4 3d c1 7b b8 3c cd 2d 4b 3e
       -0.06957228 0.0959705 0.022519948 0.1984169
0003e0 ab 14 26 3e 75 2a 80 bb 2d f5 d2 bd cb d1 60 3e
       0.16218822 -0.0039113113 -0.1030067 0.2195503
0003f0 26 de 1b be ea 02 7e bd 3a 01 70 3d ab fd 9a 3d
       -0.15221462 -0.062014498 0.05859492 0.075679146

weight_hh_rho f4 [64, 256]
000000 a4 ef c1 c0 43 65 b9 c0 a2 99 bd c0 e4 97 ba c0
       -6.060503 -5.793611 -5.925004 -5.8310413
000010 32 dc c2 c0 42 d1 b9 c0 bb 4d bb c0 fb 10 ca c0
       -6.0893793 -5.806794 -5.8532386 -6.314573
000020 3f 2f bd c0 bc 6f b7 c0 52 71 bf c0 fe 1d c6 c0
       -5.9120173 -5.7323895 -5.982583 -6.191161
000030 49 f9 bb c0 9b cd c0 c0 53 9a c6 c0 18 1b c3 c0
       -5.8741803 -6.0250983 -6.2063384 -6.0970573
000040 e0 54 bd c0 26 7a bf c0 9c 89 c0 c0 3f 47 c2 c0
       -5.9166107 -5.9836607 -6.016798 -6.071197
000050 29 f5 bc c0 36 db bc c0 3e cb be c0 4a ff be c0
       -5.904927 -5.901759 -5.96231 -5.968663
000060 c7 08 c3 c0 40 50 bf c0 18 fa bd c0 7a 84 bc c0
       -6.0948215 -5.978546 -5.936779 -5.8911715
000070 28 41 be c0 88 40 c8 c0 b2 d0 c4 c0 b8 f9 be c0
       -5.9454536 -6.2578773 -6.1504755 -5.9679832
000080 94 a6 c2 c0 a6 34 c5 c0 b7 ba bc c0 85 a7 be c0
       -6.0828342 -6.162677 -5.8977923 -5.957949
000090 71 ea c0 c0 a2 96 c2 c0 98 e8 c6 c0 a1 16 bf c0
       -6.0286183 -6.080888 -6.215893 -5.9715123
0000a0 04 d8 ba c0 1a ec bc c0 a7 41 be c0 6f 6a bd c0
       -5.838869 -5.903821 -5.945514 -5.9192424
0000b0 d5 16 b7 c0 2f eb be c0 47 e0 be c0 bd 3f bc c0
       -5.721537 -5.966209 -5.9648776 -5.8827806
0000c0 e4 16 b9 c0 17 f1 be c0 a5 fd c0 c0 bc ca c3 c0
       -5.7840443 -5.96693 -6.0309625 -6.118498
0000d0 c6 93 c0 c0 ba a5 c0 c0 38 03 b9 c0 9a 11 bc c0
       -6.0180387 -6.0202303 -5.781643 -5.8771486
0000e0 c0 cb c0 c0 54 c7 bd c0 1e 54 bd c0 fd 4c bd c0
       -6.024872 -5.930582 -5.916518 -5.915648
0000f0 39 e8 c8 c0 fe 49 c0 c0 5f fa b9 c0 a9 cf c1 c0
       -6.2783475 -6.0090322 -5.811813 -6.056599
000100 4d 78 ba c0 e4 88 c0 c0 5c 7c bf c0 22 79 c3 c0
       -5.827185 -6.0167103 -5.9839306 -6.1085367
000110 77 51 c6 c0 62 25 bc c0 f2 42 b8 c0 02 25 bf c0
       -6.1974444 -5.8795633 -5.758172 -5.9732676
000120 f4 27 be c0 6f 22 bd c0 d9 32 c0 c0 3a 10 bd c0
       -5.942377 -5.9104533 -6.006207 -5.908231
000130 83 42 c2 c0 42 84 c7 c0 bd 97 c4 c0 79 f2 c0 c0
       -6.070619 -6.2348948 -6.1435227 -6.0295987
000140 99 84 be c0 a6 46 bf c0 03 44 b9 c0 c0 ed bc c0
       -5.953686 -5.977374 -5.789552 -5.904022
000150 bd bc c3 c0 47 de bd c0 6e 51 bd c0 16 d9 c3 c0
       -6.1167893 -5.9333835 -5.91619 -6.1202497
000160 5a 5c c2 c0 76 b7 c1 c0 27 b7 bc c0 98 68 bd c0
       -6.0737734 -6.053645 -5.8973575 -5.919018
000170 76 72 bf c0 c5 5a c1 c0 a6 45 c3 c0 21 e3 be c0
       -5.9827223 -6.0423303 -6.102252 -5.9652257
000180 64 40 bc c0 80 41 c1 c0 06 63 c2 c0 01 a6 bb c0
       -5.88286 -6.0392456 -6.074588 -5.864014
000190 00 05 c0 c0 be 63 c2 c0 b2 1f be c0 88 87 bd c0
       -6.0006104 -6.0746756 -5.941369 -5.9227943
0001a0 70 3e bf c0 72 a1 c5 c0 f2 47 c1 c0 a5 0c ba c0
       -5.976372 -6.1759577 -6.0400324 -5.8140435
0001b0 68 98 c1 c0 77 1f c3 c0 5f d8 bc c0 98 42 bc c0
       -6.0498543 -6.097591 -5.9014125 -5.883129
0001c0 42 ee c0 c0 48 42 ba c0 47 05 bf c0 10 db c2 c0
       -6.029084 -5.820591 -5.969394 -6.089241
0001d0 ca 40 c0 c0 10 c4 bd c0 2c d9 c0 c0 7f a1 c1 c0
       -6.007909 -5.9301834 -6.0265102 -6.050964
0001e0 11 9f c5 c0 16 34 c4 c0 ff dc c7 c0 5c 15 c1 c0
       -6.1756673 -6.131358 -6.245727 -6.0338573
0001f0 6b 35 c1 c0 7c 7a c2 c0 a1 fd c5 c0 fa 7b c4 c0
       -6.0377707 -6.0774517 -6.1872106 -6.140134
000200 01 22 bd c0 ed 1d c3 c0 d8 33 bd c0 83 49 c7 c0
       -5.910401 -6.097403 -5.9125786 -6.2277236
000210 f2 af c2 c0 11 1c be c0 90 5d bd c0 05 56 c1 c0
       -6.0839777 -5.940926 -5.917671 -6.0417504
000220 86 f3 c2 c0 bc eb be c0 58 66 bd c0 dc 06 bf c0
       -6.092227 -5.966276 -5.918743 -5.9695873
000230 7e 2b be c0 c5 65 bd c0 f1 44 c3 c0 ee eb be c0
       -5.942809 -5.918673 -6.1021657 -5.9663
000240 ac ab be c0 e0 b2 c4 c0 30 fe c4 c0 1d 4a c2 c0
       -5.958456 -6.1468353 -6.1560287 -6.071547
000250 70 b1 bf c0 ff 06 be c0 8f 6e c5 c0 34 b6 bb c0
       -5.99041 -5.938354 -6.169746 -5.8659916
000260 cd ad be c0 15 58 be c0 ef a5 c2 c0 0c 66 c3 c0
       -5.958716 -5.948252 -6.0827556 -6.106207
000270 2d e1 c1 c0 c7 32 ba c0 f1 e9 c0 c0 cd 94 c2 c0
       -6.0587373 -5.8186984 -6.0285573 -6.080664
000280 dd e4 be c0 1b e7 bf c0 3d c6 c1 c0 4a 59 bb c0
       -5.9654374 -5.996961 -6.055449 -5.8546495
000290 b1 2e be c0 80 09 bb c0 4f 66 c4 c0 9a f2 be c0
       -5.9431996 -5.8449097 -6.137489 -5.9671144
0002a0 ae e8 c5 c0 88 20 c1 c0 80 5e c1 c0 fc 62 c5 c0
       -6.1846533 -6.035221 -6.0427856 -6.168333
0002b0 72 23 be c0 d3 86 c3 c0 5b 94 c2 c0 8a 24 c0 c0
       -5.941827 -6.110208 -6.08061 -6.0044603
0002c0 9f 9e c0 c0 aa 4e c5 c0 5b aa be c0 ef 44 bf c0
       -6.019363 -6.1658525 -5.9582953 -5.9771647
0002d0 d9 40 c3 c0 e9 1e bc c0 79 56 c0 c0 a4 0c c0 c0
       -6.101666 -5.878773 -6.0105557 -6.001543
0002e0 05 e4 b9 c0 f3 74 bf c0 df 93 b5 c0 82 39 c0 c0
       -5.8090844 -5.983026 -5.6743007 -6.00702
0002f0 de dc c6 c0 3c 6c ba c0 37 11 c1 c0 a1 a2 bd c0
       -6.2144613 -5.825712 -6.0333514 -5.926102
000300 4d 1d c5 c0 9e ec be c0 5f c6 c2 c0 76 fd b6 c0
       -6.1598268 -5.966384 -6.086715 -5.71844
000310 17 fe bf c0 98 b4 bd c0 14 e5 bb c0 89 af b9 c0
       -5.999767 -5.928295 -5.8717136 -5.8026776
000320 80 ae bc c0 82 5f bf c0 ac 3f c5 c0 fb 80 c2 c0
       -5.8963013 -5.9804087 -6.1640224 -6.0782447
000330 8c 44 c5 c0 57 3e c0 c0 9e af c1 c0 a3 61 c0 c0
       -6.1646175 -6.00761 -6.0526876 -6.0119185
000340 73 3b c3 c0 8b c5 b7 c0 96 5a c1 c0 5e 6c bc c0
       -6.101007 -5.742864 -6.042308 -5.8882284
000350 83 e9 b8 c0 2e 0f c3 c0 1a 10 bd c0 0b cc bc c0
       -5.778505 -6.095603 -5.9082155 -5.8999076
000360 16 ab b4 c0 1a a4 bf c0 2f 23 bc c0 be 7f be c0
       -5.6458845 -5.988782 -5.879295 -5.9530935
000370 42 2f bf c0 c9 95 be c0 ac 3a c0 c0 f9 a8 c1 c0
       -5.974519 -5.9557843 -6.007162 -6.0518765
000380 4a 8f bc c0 ba df be c0 22 f6 c1 c0 fc d8 bd c0
       -5.8924913 -5.9648104 -6.0612955 -5.9327374
000390 47 cb bf c0 e9 54 bb c0 e2 cb bd c0 b5 9f bf c0
       -5.993564 -5.854115 -5.931138 -5.9882455
0003a0 ea 30 c0 c0 00 ea bc c0 11 25 c4 c0 13 53 bb c0
       -6.005971 -5.9035645 -6.1295247 -5.853891
0003b0 81 ea c5 c0 00 ca bc c0 75 73 cc c0 64 37 bc c0
       -6.184876 -5.899658 -6.389094 -5.8817616
0003c0 f1 48 c3 c0 c4 f0 c7 c0 ff 88 bb c0 0a 56 c5 c0
       -6.102654 -6.2481403 -5.860473 -6.166753
0003d0 8b 07 b4 c0 0d 11 bf c0 58 15 c0 c0 a2 b1 bc c0
       -5.625921 -5.9708314 -6.0026054 -5.8966837
0003e0 80 2e bf c0 4b f3 c4 c0 da 55 c8 c0 e7 9a bc c0
       -5.9744263 -6.154699 -6.26048 -5.893909
0003f0 c4 ca c2 c0 c0 e6 bd c0 ec 45 c0 c0 81 97 c0 c0
       -6.0872517 -5.9344177 -6.0085354 -6.018494

bias_mu f4 [256]
000000 a0 23 2a be 1f 4a d0 bd 4a c0 be 3c 40 02 1a be
       -0.16615152 -0.101703875 0.02328505 -0.15039921
000010 68 a1 0f 3d 02 29 45 bd 8b a9 ca bc 68 e8 02 3c
       0.03506604 -0.04813481 -0.024739048 0.00798998
000020 99 99 da b9 18 9a aa bd 5e 21 14 bd 6f 78 0a bd
       -0.0004169464 -0.08330172 -0.036164634 -0.03380626
000030 e4 be 3d 3d 8b f0 08 be 0e 22 a8 3c 19 ca 4b 3d
       0.046324626 -0.1337301 0.020524051 0.049753282
000040 aa 6e 0c 3d 67 41 45 be bf 4e ba bd e9 99 5c bd
       0.034285225 -0.1926323 -0.09097051 -0.053857718
000050 e0 38 59 3d d4 79 c3 bd ae a6 00 bc 45 7f f7 3d
       0.053032756 -0.09544721 -0.0078522395 0.120848216
000060 a9 20 ce 3d 6d 57 31 be a8 9c 54 bc c5 d4 d3 bd
       0.10064823 -0.17318507 -0.012976803 -0.10343317
000070 26 95 8b be 95 ba cd 3d 10 64 31 3d 50 80 91 bd
       -0.2726223 0.10045353 0.043308318 -0.07104552
000080 e1 c9 76 be 4f 61 4e be ff 99 cc bd ad 57 ab bd
       -0.24100448 -0.20154308 -0.0999031 -0.08366332
000090 d1 b3 41 be bd cc dd bd 7c db 4f be 24 fc a5 bd
       -0.18916251 -0.10830066 -0.2029857 -0.08104733
0000a0 10 35 13 3c 1f e3 d5 3c 83 7e 08 be 6d 96 43 bd
       0.008984819 0.026109276 -0.1332951 -0.04775088
0000b0 96 12 1e bd 36 80 9a bc 08 46 b2 be 6e 25 ab bd
       -0.038591944 -0.018859964 -0.34819055 -0.083567485
0000c0 ec 45 84 be 03 4d 0c be 7f 94 d4 bd 2e 90 11 be
       -0.25834596 -0.13701253 -0.10379886 -0.14215156
0000d0 d1 c6 af bb 25 69 40 be d8 87 f9 bd 3b d7 4e 3c
       -0.005364277 -0.1879011 -0.12184113 0.012624557
0000e0 55 f7 28 3d a8 b3 84 bd eb ea 74 bd 86 37 f7 bd
       0.0412515 -0.06479579 -0.059794348 -0.12071137
0000f0 41 42 25 3e 00 1f bc 3d 01 cb 8f bc 77 3c 3e bd
       0.16138555 0.091856 -0.017552854 -0.046444383
000100 e3 60 df 3d ca 78 27 3e 92 00 e3 bc cf b6 0e bd
       0.109071516 0.16354671 -0.027710233 -0.03484231
000110 91 c7 af bd 28 8b 3b 3d 7f 7e d1 bd 11 25 06 bd
       -0.08582986 0.045787007 -0.10229205 -0.032750193
000120 60 81 cf bb 6f e8 52 3d 1a e5 5a 3c c2 6e db 3d
       -0.0063325614 0.051491197 0.013360286 0.10714485
000130 c8 e0 1d 3e 6b f4 23 3d b8 84 0c be fa 2b 80 3d
       0.15417778 0.040028017 -0.13722503 0.06258388
000140 1a 13 0f be a7 1b b0 3c 98 07 03 3e 87 e3 ad 3d
       -0.1397213 0.02149756 0.12795866 0.08490663
000150 37 11 9c bd 1f b2 c8 bc 9e b5 29 3e 47 ec d8 bd
       -0.07620471 -0.024498997 0.16573188 -0.10591941
000160 7d 5d 80 bd 92 01 dc bd 04 e5 44 3b 72 02 80 3e
       -0.062678315 -0.10742487 0.003004373 0.25001866
000170 bc 1d aa 3d c0 06 4b 3e 35 e7 12 3e da 7a 05 bd
       0.08306453 0.19826794 0.14346011 -0.032587864
000180 d4 46 f9 3d 3d 62 6f 3d 92 34 05 3d d9 51 63 bd
       0.121717125 0.058443297 0.032520838 -0.055497978
000190 fa 48 a6 bd 11 a5 50 3d 01 95 8d be bd 80 6e 3e
       -0.08119388 0.05093867 -0.27652743 0.23291297
0001a0 eb a5 94 3d 8b f3 0a be 96 ad 32 3e fd ae 18 3d
       0.07258209 -0.13569467 0.1744903 0.037276257
0001b0 f4 d8 59 bd de 2c ad 3d 14 17 ff 3d df 9b 2d be
       -0.05318542 0.08455823 0.12455574 -0.16953991
0001c0 ed 26 71 be cd d5 1f be 56 31 c1 bd 82 84 b5 bd
       -0.23550005 -0.15608902 -0.09433238 -0.088631645
0001d0 03 9d 8e 3c e3 3e a2 bd d1 b6 c3 3c 81 34 80 be
       0.017408853 -0.07922151 0.023890885 -0.25040057
0001e0 61 dc f2 bc 8a 32 ba 3d 2a 26 69 bd 7a ec 52 be
       -0.0296461 0.09091671 -0.05692116 -0.20598021
0001f0 95 dc d5 3b 29 f1 d6 bc b1 4b 1d be d7 38 53 3e
       0.0065265396 -0.026238041 -0.15360905 0.20627151
000200 ba 7c ea bc ac 9d 8f bc dc 11 31 3d 2a f1 a2 3d
       -0.028623927 -0.017531238 0.043229923 0.07956155
000210 0d af 2a 3e 20 f6 8d 3d 95 06 dd bd d6 25 2e 3d
       0.16668339 0.0693171 -0.10792271 0.042516552
000220 60 5a 8b be 50 52 78 bd 86 d6 6c bc 4a fb ee 3d
       -0.27217388 -0.060625374 -0.014455443 0.11669023
000230 9e 01 56 be 2e 6a 3e 3d 99 5b f2 bd f5 5e 8e bd
       -0.20899054 0.04648798 -0.11833877 -0.06951705
000240 3c 42 81 3d 92 3f 1f be 4d e8 33 bc 44 fa 56 bc
       0.06311461 -0.15551594 -0.010980678 -0.013121191
000250 d9 83 96 3d 76 19 15 bc 37 1c 13 bd 42 ee 60 bd
       0.07349367 -0.009100309 -0.03591558 -0.05491472
000260 59 1a e0 3d 14 21 21 3e d1 75 42 3d 6a f7 66 3c
       0.109425254 0.15735275 0.04747564 0.014097074
000270 e4 5b 66 3d f4 ca 7f bd a7 3c 57 bd ef bd 87 3d
       0.056239977 -0.06244941 -0.052548077 0.06628024
000280 16 4b 73 bc 95 29 27 3c c9 37 4b bd c9 ee 3a bd
       -0.014849445 0.010202785 -0.049613748 -0.04563788
000290 5f 9a 2f bc 5f e4 f6 bc b2 86 30 3d 46 26 c5 bd
       -0.010717957 -0.030138193 0.043097205 -0.09626441
0002a0 bd 0d 74 be 99 90 4c bd 8f 3d 89 3c b3 67 83 bb
       -0.23833366 -0.049942587 0.016752986 -0.0040101646
0002b0 08 d1 23 3e ce 99 a9 3d d0 4a 45 3c 66 06 f9 bc
       0.15997708 0.08281289 0.0120417625 -0.030398559
0002c0 a3 a8 8c bd 9e 64 00 be 15 23 97 3c cb 7e df bb
       -0.068681024 -0.12538382 0.018449346 -0.006820535
0002d0 1a 8c 7c bc fa 57 f3 3d 89 23 1f bc d7 66 d5 3c
       -0.015414262 0.118820146 -0.009713062 0.026050014
0002e0 3b 05 11 3e e9 83 06 bb bb 9a 14 3e da 9d 21 be
       0.14162152 -0.0020525402 0.1451215 -0.15782872
0002f0 5b 27 91 bd cb 19 79 3c a6 49 c2 bd 26 02 46 bd
       -0.070875846 0.015203903 -0.094867036 -0.048341893
000300 c9 fc 2a 3e 76 f0 ef bc 27 4c c7 bd ea c5 83 3d
       0.16697992 -0.029289465 -0.09731322 0.064342335
000310 e0 07 11 bc 93 24 ad bc 74 af 90 3d a1 26 90 3a
       -0.008851975 -0.021135604 0.07064715 0.001099784
000320 3e a0 20 3b d3 14 b2 3c 17 28 5b bb 46 24 4e be
       0.0024509574 0.021738445 -0.0033440643 -0.20131025
000330 28 6e 37 3e 2c 25 22 bd ec bd e1 3d df ce 09 be
       0.17913115 -0.03958623 0.11022553 -0.13457821
000340 06 e5 8e bb 91 b4 ee 3c 46 b3 48 3b de 17 49 3e
       -0.004360798 0.029138835 0.0030624433 0.19638011
000350 30 76 b7 bd ca ef 05 3d 9e c0 3d be 50 28 8b bd
       -0.08958089 0.032699384 -0.18530509 -0.067947984
000360 e2 16 c1 3d d3 76 21 3d 48 9d 0e bb 66 86 00 be
       0.09428193 0.03941996 -0.0021761227 -0.12551269
000370 0d 24 12 3e 26 b4 0c bd 9f 46 f7 3d e3 44 30 be
       0.14271565 -0.03435149 0.12074017 -0.17213778
000380 e3 22 0d be 59 0c 20 3e 26 85 03 bd 85 8c 87 bd
       -0.1378284 0.1562971 -0.032109402 -0.06618599
000390 40 20 db 3d 9b af 0c 3d b5 32 a6 3d 6b 49 23 be
       0.106995106 0.034347158 0.0811514 -0.15945975
0003a0 8c d6 73 bd 79 24 27 be bb 3a af 3d 43 e0 0b 3d
       -0.05953078 -0.16322507 0.08556124 0.03414942
0003b0 86 aa a2 3d aa e3 b1 3c 96 a9 85 3d 37 84 c6 3d
       0.07942681 0.021715004 0.065264866 0.09693187
0003c0 39 a3 15 3e 6e 99 8b bd a5 ab df bd 02 e6 c7 bb
       0.14613046 -0.06816374 -0.109214105 -0.006100417
0003d0 5a 79 90 3d da a3 e2 3c 3d 74 21 bd 0b 32 f7 3d
       0.07054396 0.027666021 -0.039417494 0.12070092
0003e0 60 36 0e bd 24 55 b7 3d d4 ef 1f bd 51 b8 c0 bd
       -0.034719825 0.08951786 -0.039047077 -0.094101556
0003f0 27 7d 32 3d f1 0b 06 bd 6c a7 92 bd f2 a2 67 3c
       0.043576386 -0.032726232 -0.071608394 0.01413797

bias_rho f4 [256]
000000 a3 c9 c0 c0 0c c6 c0 c0 ee 61 c0 c0 0d 20 bf c0
       -6.024614 -6.0241756 -6.0119543 -5.9726624
000010 d9 b5 bd c0 5c f0 bb c0 ad a9 c1 c0 98 07 bf c0
       -5.928448 -5.8730907 -6.0519624 -5.969677
000020 c1 32 bf c0 04 44 c2 c0 45 52 c3 c0 3a c2 bc c0
       -5.9749455 -6.0708027 -6.1037927 -5.8987093
000030 c6 a1 be c0 d9 29 bc c0 86 67 b6 c0 a1 46 bf c0
       -5.9572477 -5.8801084 -5.700137 -5.9773717
000040 fb cd bc c0 cd f2 c5 c0 bf ba c1 c0 03 90 bd c0
       -5.900144 -6.185889 -6.054046 -5.9238296
000050 80 97 b9 c0 c5 f0 be c0 e1 07 ba c0 66 75 c0 c0
       -5.7997437 -5.966891 -5.813462 -6.014331
000060 d5 50 c2 c0 d0 19 c2 c0 54 8a bb c0 f7 73 c8 c0
       -6.072367 -6.065651 -5.8606358 -6.264156
000070 51 12 c7 c0 34 b4 c0 c0 d3 0f bc c0 69 6a bd c0
       -6.220986 -6.0219975 -5.8769317 -5.9192395
000080 29 42 bd c0 15 d6 c2 c0 2a 44 c1 c0 4f 25 c3 c0
       -5.914326 -6.088633 -6.039571 -6.0983043
000090 da a2 c1 c0 ea ef c0 c0 05 be c2 c0 c8 1a c0 c0
       -6.0511293 -6.0292864 -6.0856957 -6.003269
0000a0 c5 de bd c0 2e 47 c2 c0 fb 9a be c0 4f 48 be c0
       -5.9334435 -6.071189 -5.9564185 -5.9463267
0000b0 98 10 c5 c0 72 2b c1 c0 7d 1b bf c0 3c b3 be c0
       -6.1582756 -6.0365534 -5.9721055 -5.959379
0000c0 85 b7 c2 c0 9f 1b c1 c0 e9 c6 bd c0 9f 8f bb c0
       -6.0849023 -6.0346217 -5.930531 -5.861282
0000d0 9f 43 c2 c0 59 cc bf c0 ab e3 c2 c0 10 f6 c6 c0
       -6.0707545 -5.993695 -6.0902915 -6.217537
0000e0 8f 0d c6 c0 a2 c1 c4 c0 3d 45 c4 c0 5d ec c5 c0
       -6.189155 -6.148637 -6.133452 -6.185103
0000f0 f6 0c c1 c0 bd 3c be c0 ee ec bb c0 d5 f3 c0 c0
       -6.032832 -5.9449143 -5.872672 -6.0297647
000100 bf e4 bc c0 7a fd bf c0 f8 3d c1 c0 12 80 bb c0
       -5.902923 -5.999692 -6.0388145 -5.8593836
000110 f7 01 bd c0 be b7 c1 c0 ed b0 bf c0 15 10 c3 c0
       -5.90649 -6.0536795 -5.9903474 -6.095713
000120 74 86 bf c0 a2 1b be c0 47 a3 bc c0 a7 6c c3 c0
       -5.9851627 -5.940873 -5.8949313 -6.107013
000130 8a 71 c1 c0 9e ce bf c0 df 46 c1 c0 2b 99 bc c0
       -6.0451097 -5.993972 -6.0399013 -5.8936973
000140 4c 7f c1 c0 a0 89 bc c0 bb 44 c1 c0 dd 24 c7 c0
       -6.046789 -5.8918 -6.03964 -6.22325
000150 32 dd c1 c0 6d 37 c0 c0 79 8b b5 c0 cb e7 bf c0
       -6.0582514 -6.006766 -5.6732755 -5.997045
000160 bb 39 c2 c0 0a 64 b8 c0 d7 fc c0 c0 e7 0a bd c0
       -6.069547 -5.762212 -6.0308642 -5.907581
000170 71 4a c2 c0 7b dd c0 c0 e9 27 be c0 45 7a c1 c0
       -6.071587 -6.027036 -5.942372 -6.0461755
000180 cb 57 c1 c0 9b 8e be c0 03 3a c6 c0 f2 de b8 c0
       -6.041967 -5.954908 -6.1945815 -5.777215
000190 6c 6c b8 c0 0b 7d c0 c0 61 59 bb c0 b9 a0 c6 c0
       -5.763235 -6.015264 -5.8546605 -6.2071195
0001a0 51 30 bf c0 c5 6a c1 c0 f6 3a b6 c0 b0 e6 c1 c0
       -5.974648 -6.0442834 -5.6946974 -6.05941
0001b0 c1 05 bd c0 ab 89 c0 c0 8f 75 be c0 be 31 c1 c0
       -5.9069524 -6.016805 -5.9518504 -6.037322
0001c0 76 07 bc c0 90 43 bd c0 31 b3 c4 c0 68 61 bc c0
       -5.8759108 -5.9144974 -6.146874 -5.8868904
0001d0 12 5b be c0 4c 69 c0 c0 66 0b bc c0 49 4e c1 c0
       -5.948617 -6.0128536 -5.8763914 -6.0408063
0001e0 1e f8 c0 c0 7c d7 c0 c0 fd 07 bf c0 8f 1e c2 c0
       -6.0302877 -6.0263042 -5.969725 -6.0662303
0001f0 d7 8d c7 c0 58 06 bd c0 b9 dc c9 c0 45 e8 b6 c0
       -6.2360644 -5.9070244 -6.3081937 -5.715853
000200 db 06 bf c0 d4 e2 c2 c0 df a5 b6 c0 66 3d c6 c0
       -5.969587 -6.090189 -5.707748 -6.194995
000210 26 d8 c1 c0 b3 e0 c0 c0 58 06 c2 c0 ff 6b be c0
       -6.0576353 -6.027429 -6.0632744 -5.950683
000220 f9 58 be c0 75 fb bb c0 b1 1f c3 c0 30 f8 c4 c0
       -5.948361 -5.8744454 -6.0976186 -6.1552963
000230 30 5e c0 c0 4b 9f c5 c0 50 4b c3 c0 b1 b7 c0 c0
       -6.0114975 -6.175695 -6.1029434 -6.0224233
000240 a7 53 cb c0 83 3d bf c0 7b 20 c1 c0 3a e3 bd c0
       -6.3539615 -5.9762588 -6.035215 -5.9339876
000250 59 2e c4 c0 8d 69 b5 c0 c7 33 c1 c0 3b f3 c0 c0
       -6.1306577 -5.6691346 -6.0375705 -6.029691
000260 74 26 c4 c0 36 2b bf c0 fe b0 bc c0 f5 1f b8 c0
       -6.129694 -5.974025 -5.8966055 -5.753901
000270 21 d8 c5 c0 79 38 be c0 58 02 c5 c0 9f f0 c6 c0
       -6.182633 -5.9443936 -6.156536 -6.2168727
000280 d4 98 c7 c0 71 d3 bc c0 6e 95 bd c0 18 0b bd c0
       -6.237406 -5.9008107 -5.924491 -5.907604
000290 d4 65 c9 c0 1e 2d c2 c0 76 fd c5 c0 45 6e be c0
       -6.29368 -6.0680075 -6.18719 -5.9509606
0002a0 f0 36 ba c0 23 db bf c0 17 6d ba c0 6e 4e c1 c0
       -5.819206 -5.9955 -5.8258166 -6.040824
0002b0 47 d8 c1 c0 92 e3 c4 c0 93 c6 c1 c0 b3 e7 bf c0
       -6.057651 -6.1527796 -6.05549 -5.9970336
0002c0 1a 53 c1 c0 a7 1e c3 c0 d5 e2 be c0 00 36 c3 c0
       -6.041394 -6.0974917 -5.9651895 -6.100342
0002d0 66 6c bf c0 d1 e3 c1 c0 ca fc c0 c0 d5 af c2 c0
       -5.981982 -6.0590596 -6.030858 -6.083964
0002e0 fb 63 c0 c0 9f e9 c2 c0 ed 40 c0 c0 c8 2e c6 c0
       -6.0122046 -6.091018 -6.0079255 -6.1932106
0002f0 22 73 c0 c0 45 ed c4 c0 55 fd bd c0 5c 2f c3 c0
       -6.0140543 -6.1539636 -5.9371743 -6.099531
000300 01 b4 be c0 83 56 c2 c0 4a 90 c4 c0 ea cb be c0
       -5.959473 -6.0730605 -6.1426134 -5.962392
000310 e1 03 bf c0 91 1b bd c0 e9 a3 c1 c0 ce 3a c0 c0
       -5.9692235 -5.909615 -6.0512586 -6.0071783
000320 17 31 bf c0 44 e6 c6 c0 12 8f c6 c0 38 ab c2 c0
       -5.9747424 -6.2156086 -6.2049646 -6.0834007
000330 3a 96 c1 c0 03 22 b9 c0 fa 7e c1 c0 75 49 c2 c0
       -6.049588 -5.785402 -6.04675 -6.071467
000340 cd 33 c1 c0 06 96 bc c0 74 bb c2 c0 3a 3c c0 c0
       -6.0375733 -5.8933134 -6.0853825 -6.007352
000350 e2 be ba c0 09 88 c2 c0 7c 2e c0 c0 6b e6 be c0
       -5.835801 -6.079106 -6.0056744 -5.965627
000360 f9 b5 c0 c0 39 5b c0 c0 da 90 b9 c0 05 fc bf c0
       -6.0222135 -6.0111356 -5.798932 -5.999514
000370 1c de c4 c0 58 d5 bc c0 70 68 bb c0 de c5 bc c0
       -6.152113 -5.901043 -5.8564987 -5.8991537
000380 b4 34 c0 c0 20 d0 bc c0 b7 a2 c0 c0 ea 9e c7 c0
       -6.0064335 -5.900406 -6.0198627 -6.2381487
000390 19 bb c0 c0 8c 0d c7 c0 a5 91 c2 c0 d5 df c4 c0
       -6.022839 -6.2204037 -6.080279 -6.1523232
0003a0 07 63 be c0 6e 10 c8 c0 35 0b c4 c0 03 c3 bf c0
       -5.9495883 -6.2520056 -6.126368 -5.992555
0003b0 77 2c c2 c0 07 ee bd c0 6d 20 c2 c0 3e 55 c6 c0
       -6.067928 -5.935306 -6.066458 -6.1979055
0003c0 52 62 c0 c0 97 39 c5 c0 28 ee c2 c0 8b 0c c0 c0
       -6.012002 -6.16328 -6.091572 -6.001531
0003d0 86 74 c6 c0 97 73 c2 c0 55 d9 c1 c0 18 94 c2 c0
       -6.201724 -6.07661 -6.05778 -6.080578
0003e0 fa 23 c0 c0 21 54 be c0 4d a6 bd c0 0e 82 c0 c0
       -6.0043917 -5.9477696 -5.9265504 -6.015876
0003f0 a7 a8 bb c0 9d 47 bd c0 98 c8 ba c0 f1 18 c4 c0
       -5.8643374 -5.914992 -5.8369865 -6.1280446

mu f4 [5, 256]
000000 a7 f1 e4 bc a0 5b 9a bd 1e 11 a7 bd ae de 24 bd
       -0.02794726 -0.07537007 -0.08157562 -0.040251426
000010 fe 8a 37 bb e0 3a 44 be ff bd 4f be a4 87 2b 3e
       -0.002800643 -0.19163084 -0.20287322 0.16750962
000020 78 68 bf bc 8c ee 02 3e 44 fa b2 bd 97 10 fb bd
       -0.023365244 0.12786311 -0.08739141 -0.12259024
000030 4d 67 1f 3d 8d 76 42 bd 05 1b e3 bd d9 32 2e 3b
       0.038916875 -0.04747634 -0.11089138 0.00265806
000040 a3 d6 c5 bd bf e5 b8 3d 64 ec 52 be 52 6b fd ba
       -0.09660079 0.090281956 -0.20597988 -0.0019334352
000050 d8 39 03 3e c2 89 53 3d 1e 6d 40 bd 9a 22 3e be
       0.12815034 0.051645048 -0.046979062 -0.18567887
000060 83 a1 0e bd b1 e9 17 be cf 88 1d be a4 6d 2a bc
       -0.034822 -0.1483524 -0.1538422 -0.010402117
000070 5a 23 29 3c c4 a7 17 bd 07 c5 ee 3d e6 e4 e0 bd
       0.01032337 -0.03702523 0.11658674 -0.10981159
000080 31 fe 48 be 68 19 b4 bd 24 bf e7 3d de 95 0c 3b
       -0.19628216 -0.08793908 0.11315754 0.0021451632
000090 6a a4 fe bd 93 29 df bc 77 11 74 be 3d 3f fc bd
       -0.12433703 -0.027241504 -0.23834787 -0.12316749
0000a0 a6 17 ee bc 5f e9 76 3e 5a 78 19 be 77 2a 4b bd
       -0.02906401 0.24112462 -0.14987317 -0.049601045
0000b0 68 37 56 be 60 24 65 bb 6e fe 75 be 21 9a d0 bc
       -0.20919573 -0.0034964308 -0.24022838 -0.02546412
0000c0 23 e7 8a bd cf 29 b2 bd 2d 5f c6 3c ed 46 7b bd
       -0.06782367 -0.086993806 0.024215305 -0.061346937
0000d0 9b 73 3b be d0 e5 49 bc b3 70 85 3b 29 0c 9e bd
       -0.18305819 -0.012322858 0.0040722727 -0.07717163
0000e0 b5 a9 8d 3b 8e cc a6 bd a6 eb 0a be 11 bb f9 3d
       0.004323209 -0.081444845 -0.13566455 0.12193883
0000f0 bd 2c 69 3d 96 03 60 3d 97 69 45 be b9 d8 10 3e
       0.05692743 0.05469092 -0.1927856 0.14145173
000100 fd c9 9b bd b8 f6 4e bd 57 34 81 3e 35 ef 82 ba
       -0.076068856 -0.050528258 0.25235245 -0.0009989502
000110 47 1f 21 3e 90 af 16 3d 6c cc 50 bd 01 80 f6 bd
       0.15734588 0.036788523 -0.050976202 -0.120361336
000120 7b 9d 1e be 56 ae 28 3e 92 93 4d 3e f0 02 de 3d
       -0.15489762 0.16472754 0.20075825 0.10840404
000130 75 b1 b2 bd 5e ba 38 3d 87 5b b2 3d c2 4f 37 3e
       -0.087252535 0.04509961 0.08708864 0.17901519
000140 5c cb 5c be 96 4c ba bd d4 c8 da 3d 79 55 e5 3d
       -0.2156195 -0.09096639 0.10682836 0.11197943
000150 26 7c 2f 3d aa 6b 56 3d a9 18 87 3e 1a 60 ff 3c
       0.042843007 0.05234877 0.26386002 0.031173754
000160 97 67 0d bc 7a b7 9c 3d 18 ba 04 3d 6f ae bc 3d
       -0.008630655 0.07652183 0.032404035 0.09212958
000170 f8 52 e5 3b bb 67 79 bc 06 9d 1e 3d 81 40 30 bb
       0.006998416 -0.015222485 0.038723968 -0.0026893916
000180 37 8b 34 bd c9 8f 40 3e 0c 67 ae 3d 33 d9 72 be
       -0.044078078 0.1880485 0.085157484 -0.23715667
000190 a8 03 df bc d9 e4 0b 3d 8b ae 31 be 0d c5 b8 3c
       -0.027223423 0.034153793 -0.17351739 0.022554899
0001a0 6b c6 01 3d b3 b6 1c be 8a d9 94 3d 1f a6 1f be
       0.031683367 -0.15304069 0.07268055 -0.15590714
0001b0 7e 48 8c be c1 30 f0 bc 85 e1 11 bd 67 b9 2a bd
       -0.27399057 -0.029320123 -0.035615463 -0.04168072
0001c0 13 b4 15 be 63 aa 0f be 6f 9e 68 bd d2 2f 3f be
       -0.14619474 -0.14029841 -0.05679172 -0.18670586
0001d0 20 06 1b 3b 0a e0 db 3d 8f 34 26 3d 70 27 39 be
       0.0023654774 0.107360914 0.040577468 -0.1808145
0001e0 19 7a 1e 3e 3b b3 4c 3e b6 4d 0d be b2 3b ec bd
       0.15476264 0.19990246 -0.13799176 -0.115348235
0001f0 94 59 a7 be 03 cd 36 3e 83 dc 34 bd 92 bc de bd
       -0.3268553 0.17851643 -0.04415561 -0.10875811
000200 76 0b c1 3c 2a 97 2e 3e c2 7e c6 bd c1 bf e0 3d
       0.023565035 0.17049852 -0.09692146 0.10974074
000210 ad 0f 99 3c 54 11 e5 bc 27 7c 8f 3d 9a b9 bc bc
       0.018684233 -0.027962364 0.07006102 -0.02303772
000220 b7 6c 1f 3e 85 39 88 3c 1e 07 cc 3d 2d 1c 9a bd
       0.15568815 0.01662899 0.09962295 -0.07524905
000230 d7 d5 7e bd 0f c2 89 3d 16 00 46 bd 27 a2 8c bd
       -0.062215652 0.06726467 -0.048339926 -0.068668656
000240 72 52 73 bd 7a 7b 0f bd 9b 00 21 3e b4 c2 d4 3d
       -0.059404798 -0.035029866 0.15722887 0.10388699
000250 86 ad a3 3d 02 2e 74 3c 5c 44 c2 3c 4c e1 b2 3d
       0.07992081 0.014903547 0.023714237 0.08734378
000260 94 55 a7 bb 3b 5e 2f 3c d7 8a 8f 3c fa ae 1d bd
       -0.0051066373 0.010703619 0.017522259 -0.03849695
000270 fd c2 c0 3d 16 ea 2e 3d 18 bd 41 3d 1b 98 15 3e
       0.09412191 0.04270371 0.047299474 0.14608805
000280 4c a5 cd 3d 4b 5c 66 3d ed 4e 84 3c 10 4b 40 3e
       0.100412935 0.05624036 0.016150916 0.18778634
000290 04 4d aa be ac 07 87 3d 4a ce d6 bd b1 97 2b 3d
       -0.33261883 0.0659326 -0.10488565 0.04189271
0002a0 1c 18 f1 3d 0c e5 7c bc 5c 98 5f 3b da 7e 01 bd
       0.117721766 -0.015435468 0.0034117913 -0.031615116
0002b0 a1 b1 4c be c3 a5 87 bc e3 7d 25 3d 70 f6 1c be
       -0.19989635 -0.016558534 0.040403258 -0.15328383
0002c0 3c d6 d6 bd 32 5b 65 3e 50 41 7e bd 71 64 2d 3d
       -0.10490081 0.2239807 -0.062074006 0.042332117
0002d0 e1 e3 1d bd 91 2e 0b 3e de 70 92 3d f2 69 25 be
       -0.0385474 0.13591982 0.07150434 -0.16153696
0002e0 c0 a0 19 bc 14 47 86 be 3a 00 b7 3d ff 49 5d 3d
       -0.009376705 -0.26226103 0.0893559 0.054025646
0002f0 08 df 5f 3e 05 97 7d bc f3 96 53 bd a6 36 64 bc
       0.21862423 -0.0154779 -0.05165763 -0.013929045
000300 1d 42 49 bd 7e 91 10 3e ed f2 9b bc d2 2c be 3c
       -0.049135316 0.14118001 -0.019036734 0.023214731
000310 8f 2d 0f 3e bc 5b 24 be a7 da 6d bd 4f 62 7b 3b
       0.13982223 -0.16050619 -0.05806985 0.0038358157
000320 92 61 d2 bd 64 e1 b3 3c 12 bb bf 3d ca d6 b0 3d
       -0.10272516 0.02195806 0.09361853 0.08634718
000330 57 a3 73 be e7 dc 82 3b 32 c6 ed bc 1b 44 6b bd
       -0.23792778 0.003993619 -0.029025171 -0.057437997
000340 2f 95 af bd 9f 3a 33 bc a7 83 81 3d 3d 92 1c 3d
       -0.085733764 -0.010939269 0.06323939 0.0382254
000350 94 39 bf bc 4a 88 4c 3d 7b ac 0e bd 93 33 f6 3b
       -0.023342885 0.049934663 -0.03483246 0.0075134723
000360 f2 58 11 3c 27 5c a3 bc 37 06 fe bc 83 92 a7 bd
       0.008871304 -0.019941403 -0.031008823 -0.08182242
000370 7e 82 84 bc aa 0b d5 bd 08 f9 8f bd a1 3c b1 bd
       -0.016175505 -0.10402615 -0.07029921 -0.08654142
000380 bb 50 03 3c 8e 2c 31 be 45 b0 e2 3d 00 8a db bd
       0.008014853 -0.17302153 0.11068777 -0.10719681
000390 b4 d6 99 bd ab 76 bb 3d 1e f4 2f bd 32 5a 15 3d
       -0.075116545 0.091534935 -0.042957418 0.03646297
0003a0 43 db d8 3d df de 03 3e f6 b1 cb bd e3 aa c5 3e
       0.10588696 0.12877987 -0.09946053 0.3860694
0003b0 bb 02 24 3e 56 a5 10 3d 85 bc 82 3c 6c f1 bd bd
       0.16016667 0.035313927 0.015959034 -0.09274563
0003c0 fb 92 f6 bd af 61 c5 bd 9c 82 3c 3e 97 5e 1d 3e
       -0.12039753 -0.09637772 0.18409199 0.15368114
0003d0 39 e3 9f bc c0 c4 eb bc 76 9a 1d bc 47 44 f2 bc
       -0.019517528 -0.028780341 -0.009619346 -0.029573573
0003e0 52 4b ee 3d 3b 40 a8 bd 50 ca fa bb a7 fa 18 3c
       0.1163546 -0.08215376 -0.007653512 0.009337104
0003f0 c3 39 b9 3d ed bc c5 3d 3e 4f 05 be de 4b c3 bc
       0.0904422 0.09655175 -0.1301851 -0.023839887
