results/saved_models/df_Electricity_seed_1111111_model_CNN.pkl (torch, 167511 bytes, 18 tensors)

weight_mu f4 [256, 4, 1]
0	0xbd3cc375	-0.04608484
1	0xbd3cad0f	-0.04606348
2	0x3d3fb07a	0.04679916
3	0xbe78fcdd	-0.2431521
4	0x3e1c8081	0.15283395
5	0xbe0f447b	-0.13990967
6	0xbddb1403	-0.10697176
7	0x3e0eee6b	0.13958137
8	0x3e952fd8	0.29138064
9	0x3d1e2398	0.038608164
10	0xbe553d46	-0.20824155
11	0xbe4ab0ee	-0.19794056
12	0x3c0f9306	0.00876308
13	0xbdb94f9a	-0.09048386
14	0xbd13bd5b	-0.036069255
15	0xbeb851a1	-0.35999778
16	0xbcf4e058	-0.029892132
17	0x3da2ac36	0.07943003
18	0xbe949fd3	-0.29028186
19	0x3eae08b3	0.33991012
20	0x3c988b16	0.018621009
21	0xbbdb99f7	-0.0067017036
22	0xbe0f62e9	-0.14002575
23	0x3c57f0d5	0.013179977
24	0x3d37912e	0.04481619
25	0x3dc82d27	0.09774237
26	0x3d3d664e	0.046240143
27	0xbd550deb	-0.052015226
28	0x3debbf5d	0.11511109
29	0xbab0bc0b	-0.0013483776
30	0xb957566b	-0.00020536191
31	0xbddb2c47	-0.107018046
32	0xbde28ee7	-0.11062413
33	0xbe2c0e24	-0.16802269
34	0x3da8069e	0.08204387
35	0xbccc33d7	-0.024927063
36	0x3e5cf1b2	0.21576574
37	0x3ce6c853	0.028171694
38	0xbe0c0034	-0.13671952
39	0x3eeb00fb	0.45899186
40	0x3d83e4b1	0.06440104
41	0xbda710e2	-0.08157517
42	0x3d781c31	0.06057376
43	0xbd03b0e9	-0.032151137
44	0xbe72ff54	-0.23730212
45	0xbdb9a768	-0.09065133
46	0x3dc9bf0b	0.09850892
47	0x3e8e972a	0.27849704
48	0x3dbe7d25	0.09301213
49	0xbe104b84	-0.14091307
50	0x3d3c289b	0.045937162
51	0x3d1e3bc8	0.03863123
52	0xbe351de8	-0.1768719
53	0xbe4411de	-0.19147441
54	0xbe82444e	-0.25442737
55	0x3dc534bb	0.09629198
56	0xbd1a4e54	-0.037672356
57	0xbe94bca8	-0.29050183
58	0xbaa53884	-0.0012605344
59	0x3e96b2bd	0.2943324
60	0xbd269d11	-0.040677134
61	0x3ebab44e	0.36465687
62	0xbea8a558	-0.32938647
63	0xbdedd7c4	-0.1161342
64	0x3da93827	0.08262663
65	0x3d3124bf	0.043247934
66	0xbdb67fbd	-0.08911083
67	0x3cb12fa7	0.021629168
68	0xbe073908	-0.1320535
69	0xbe357db4	-0.17723733
70	0x3d64bff9	0.055847142
71	0x3de456ae	0.11149345
72	0xbdae9d75	-0.08526126
73	0xbe6d2b36	-0.23161015
74	0x3be571ad	0.0070020766
75	0x3e705de4	0.23473316
76	0x3dbc75ff	0.092021935
77	0x3ac7f6ba	0.0015256025
78	0x3e0807a9	0.13284172
79	0xbc6f4741	-0.014604391
80	0xbd95a270	-0.07306373
81	0xbd3fac14	-0.046794966
82	0xbbde92db	-0.006792409
83	0x3d93a0e8	0.07208425
84	0x3d833c9c	0.06408045
85	0xbe128a87	-0.14310656
86	0x3d74b0eb	0.059739035
87	0x3d811486	0.06302743
88	0x3ded9a94	0.11601749
89	0x3f14a2a0	0.58060646
90	0xbe9d2561	-0.3069258
91	0xbf38569d	-0.7200716
92	0x3d076387	0.0330539
93	0x3dc5b16a	0.0965298
94	0xbcd4dcc3	-0.025984174
95	0xbd863013	-0.06552138
96	0x3c995c07	0.01872064
97	0xbbc0fc4c	-0.005889451
98	0x3e0a4d64	0.13506085
99	0xbcf4e06a	-0.029892165
100	0xbd185233	-0.037187766
101	0x3de1f9fc	0.11034009
102	0x3df38e43	0.11892369
103	0xbe2a137d	-0.16608997
104	0xbd824925	-0.063616075
105	0xbdf49ff2	-0.1194457
106	0x3da82d26	0.082117364
107	0x3e22f5e5	0.15914114
108	0xbdf9b77f	-0.12193202
109	0xbd8d4a0f	-0.06898891
110	0x3dffe12f	0.12494122
111	0xbde63a20	-0.11241555
112	0x3d866667	0.065625004
113	0x3c643915	0.013929625
114	0xbda041fb	-0.07825085
115	0x3cfc1f05	0.03077651
116	0x3d931207	0.07181173
117	0x3db640f9	0.08899111
118	0xbe4ff865	-0.20309599
119	0x3de0e5ff	0.10981368
120	0xbec8d16c	-0.39222276
121	0xbe059075	-0.13043387
122	0xbc98028b	-0.0185559
123	0x3e455f82	0.19274715
124	0xbd9cf84b	-0.076645456
125	0x3d2def11	0.04246432
126	0xbc808eac	-0.015693031
127	0x3d419a24	0.04726614
128	0xbdce4853	-0.100723885
129	0xbda309d4	-0.07960859
130	0xbe4324c3	-0.19056992
131	0xbe0c0d47	-0.1367694
132	0xbdf10de4	-0.117702276
133	0xbda1bffe	-0.07897948
134	0xbd8c5cd2	-0.068536416
135	0xbe157f00	-0.14599228
136	0xbdb0748f	-0.08615982
137	0xbc82f120	-0.015984118
138	0xbd84a450	-0.064766526
139	0x3cf95c6f	0.030439584
140	0xbd46d1bb	-0.04853986
141	0xbe9a78af	-0.301702
142	0x3dcdf644	0.10056737
143	0x3e17f207	0.1483842
144	0x3d0d761d	0.03453647
145	0x3b2780ff	0.0025559065
146	0x3ae2e018	0.0017309217
147	0xbd76b030	-0.06022662
148	0xbf030ea0	-0.5119419
149	0xbe13fef0	-0.1445272
150	0x3e62fdce	0.22167131
151	0x3e51999b	0.20468752
152	0xbce8a3a2	-0.028398339
153	0xbe35ccff	-0.17753981
154	0x3ddd1537	0.10795062
155	0x3c9ef651	0.019404562
156	0x3e1a3ce6	0.15062293
157	0x3c601378	0.013676517
158	0x3c5d267e	0.013497947
159	0x3e0aaeea	0.13543287
160	0xbddce0d0	-0.10785067
161	0x3d201de0	0.03909099
162	0xbe25a301	-0.16175462
163	0x3e7dfe51	0.24804045
164	0x3e8eeaef	0.27913615
165	0xbc0e5726	-0.00868777
166	0xbd41e829	-0.047340546
167	0x3e8cade1	0.2747641
168	0x3cabdaaf	0.0209783
169	0xba8805fd	-0.0010377761
170	0xbcbf042f	-0.023317425
171	0x3da7a11c	0.08185026
172	0x3de84aac	0.113423675
173	0xbcc278f9	-0.023739325
174	0xbdd37c77	-0.10326474
175	0xbd5d1c6c	-0.053982183
176	0xbd75c262	-0.05999983
177	0xbdae4d2b	-0.08510812
178	0xbe9c23c3	-0.30496034
179	0x3d7ceefd	0.061751354
180	0x3eab80b5	0.33496633
181	0x3f12a2f4	0.57279897
182	0xbe72bac6	-0.23704061
183	0x3ee80b46	0.453211
184	0xbc833849	-0.01601805
185	0x3ddfbd49	0.10924775
186	0xbd2ea40c	-0.042636916
187	0xbe3fb20d	-0.18720265
188	0x3d73d9d4	0.05953391
189	0x3f17e502	0.59333813
190	0xbef13c5f	-0.47116372
191	0xbf84727e	-1.034744
192	0xbcb34f16	-0.021888297
193	0xbd47268a	-0.048620738
194	0x3d392530	0.04520148
195	0xbd0f8110	-0.035035193
196	0x3c0ea9f5	0.008707513
197	0x3c62cb62	0.013842436
198	0x3ba16289	0.0049250764
199	0xbdf196a8	-0.117963135
200	0xbe84d8f2	-0.25946766
201	0x3de74385	0.11292175
202	0x3d342834	0.043983653
203	0x3d4de0a4	0.050263062
204	0xbedef304	-0.4354478
205	0x3c22a880	0.009927869
206	0x3df96df0	0.12179172
207	0x3e1a2906	0.15054712
208	0xbe07353f	-0.13203906
209	0xbd5ce2b1	-0.053927127
210	0x3dc1ec6a	0.094689205
211	0xbd2c985b	-0.042137485
212	0xbc9062d4	-0.01762525
213	0xbe7c6550	-0.24648023
214	0xbe4f6a6a	-0.20255437
215	0xbd8d031b	-0.06885358
216	0xbe360381	-0.17774774
217	0x3e17fbe8	0.14842188
218	0xbd5b7925	-0.05358233
219	0x3d5e9e1f	0.054350015
220	0xbd8c133f	-0.068396084
221	0x3b207e32	0.002448928
222	0x3eae0979	0.33991602
223	0xbe4758ae	-0.19467422
224	0xbea5bf33	-0.32372436
225	0x3d2adee9	0.04171649
226	0xbe2c0188	-0.16797459
227	0xbe87f77b	-0.26556
228	0x3e2913b1	0.16511418
229	0xbe2aae9a	-0.16668168
230	0xbc2c9bc0	-0.010535181
231	0xbbbba7bf	-0.005726784
232	0xbec6edc2	-0.3885327
233	0x3e8499f4	0.25898707
234	0xbe2ea3e5	-0.17054708
235	0xbe5e95ad	-0.21736784
236	0xbec3773a	-0.381769
237	0xbe714dca	-0.2356483
238	0x3e2ecb27	0.17069684
239	0x3e8786b7	0.26469967
240	0x3d4ed9cb	0.050500672
241	0xbe001b03	-0.12510304
242	0xbcb440df	-0.02200359
243	0xbceb6413	-0.028734243
244	0xbe039fed	-0.12853976
245	0xbbf5870b	-0.007492905
246	0xbd892784	-0.0669699
247	0x3d909ff3	0.07061758
248	0x3dd0594c	0.10173282
249	0x3e389c6c	0.1802842
250	0x3e6df7ab	0.23239009
251	0x3d7d536e	0.061847143
252	0xbe66aa71	-0.22525956
253	0xbe71f57b	-0.236288
254	0x3c865400	0.016397476
255	0x3eaa1ad3	0.3322359

weight_rho f4 [256, 4, 1]
0	0xc0e44a4e	-7.1340704
1	0xc0e033e8	-7.006336
2	0xc0d96adc	-6.7942944
3	0xc0de8bd7	-6.9545703
4	0xc0e480a6	-7.140704
5	0xc0e720c2	-7.2227488
6	0xc0e566b3	-7.1687865
7	0xc0d6ea14	-6.716074
8	0xc0dc7ff2	-6.8906183
9	0xc0d906fa	-6.7821016
10	0xc0dd2a86	-6.911441
11	0xc0dbc758	-6.868084
12	0xc0db116d	-6.845877
13	0xc0e3c116	-7.11732
14	0xc0e1b42b	-7.053243
15	0xc0d8a37c	-6.7699566
16	0xc0e1a830	-7.0517807
17	0xc0e077de	-7.014632
18	0xc0e1849f	-7.047439
19	0xc0e1b43f	-7.0532527
20	0xc0e0ac67	-7.021045
21	0xc0deeb04	-6.9661884
22	0xc0d927fe	-6.786132
23	0xc0df9116	-6.9864607
24	0xc0ddf75e	-6.936446
25	0xc0e066b8	-7.012539
26	0xc0e07702	-7.0145273
27	0xc0e4f99a	-7.155469
28	0xc0e1eb10	-7.059944
29	0xc0e2f560	-7.092453
30	0xc0db3089	-6.8496747
31	0xc0e03694	-7.0066624
32	0xc0e12ed2	-7.0369654
33	0xc0e20305	-7.0628686
34	0xc0e373d2	-7.107888
35	0xc0dce5bb	-6.9030433
36	0xc0dbdec4	-6.870943
37	0xc0e76a41	-7.2317204
38	0xc0e20056	-7.062541
39	0xc0e0aef7	-7.021358
40	0xc0dcf69a	-6.9051027
41	0xc0dd5382	-6.916444
42	0xc0e512a3	-7.158525
43	0xc0dc5e9b	-6.8865485
44	0xc0e124c3	-7.0357375
45	0xc0d947cc	-6.7900143
46	0xc0e07a91	-7.0149617
47	0xc0e19cdf	-7.0503993
48	0xc0e1a630	-7.0515366
49	0xc0e1cf1e	-7.056533
50	0xc0e24961	-7.0714574
51	0xc0e19b6f	-7.050224
52	0xc0df8980	-6.9855347
53	0xc0def7ea	-6.967763
54	0xc0e64860	-7.196335
55	0xc0e1c394	-7.0551243
56	0xc0e4ae0a	-7.146245
57	0xc0d89a53	-6.7688384
58	0xc0e2fc9f	-7.0933375
59	0xc0e00764	-7.000902
60	0xc0e6ab3e	-7.2084036
61	0xc0e0995e	-7.0187216
62	0xc0e2b209	-7.084233
63	0xc0e98473	-7.297418
64	0xc0e48ef7	-7.142452
65	0xc0dc52d9	-6.8851132
66	0xc0e2590c	-7.07337
67	0xc0dd923c	-6.924101
68	0xc0e0d4c7	-7.025974
69	0xc0e1c16b	-7.0548606
70	0xc0e613e8	-7.18993
71	0xc0e3b5e3	-7.115953
72	0xc0e1aa66	-7.0520506
73	0xc0e19959	-7.049969
74	0xc0e2004a	-7.0625353
75	0xc0e239b4	-7.069544
76	0xc0de5118	-6.947399
77	0xc0e0faf6	-7.030635
78	0xc0df12ef	-6.971061
79	0xc0e48056	-7.140666
80	0xc0e4ebff	-7.153808
81	0xc0e1df0b	-7.058477
82	0xc0e665fd	-7.1999497
83	0xc0e25a32	-7.07351
84	0xc0dce097	-6.9024158
85	0xc0e008ee	-7.00109
86	0xc0de31ed	-6.9435945
87	0xc0df8f26	-6.986224
88	0xc0d79d19	-6.737927
89	0xc0e9897f	-7.298034
90	0xc0e3b7a9	-7.1161695
91	0xc0e69f9a	-7.2069826
92	0xc0e4b969	-7.147633
93	0xc0def0ae	-6.96688
94	0xc0df8623	-6.985124
95	0xc0dc8ec4	-6.8924274
96	0xc0df0df3	-6.970453
97	0xc0e853cc	-7.260229
98	0xc0e21afa	-7.065793
99	0xc0e34091	-7.1016316
100	0xc0dd9a64	-6.9250965
101	0xc0dd865a	-6.9226503
102	0xc0e0b9a2	-7.0226603
103	0xc0e59430	-7.1743393
104	0xc0e3e33e	-7.1214895
105	0xc0df5719	-6.979382
106	0xc0e096fd	-7.018431
107	0xc0ddf3fd	-6.9360337
108	0xc0e20756	-7.0633955
109	0xc0dcee9b	-6.9041266
110	0xc0e3341e	-7.100112
111	0xc0db011a	-6.8438845
112	0xc0e289af	-7.079307
113	0xc0de17b9	-6.940396
114	0xc0e32279	-7.097958
115	0xc0e5a529	-7.176411
116	0xc0dc2d8e	-6.880561
117	0xc0dbf20a	-6.873296
118	0xc0e0f3e4	-7.029772
119	0xc0defe6c	-6.9685574
120	0xc0db551f	-6.8541408
121	0xc0dbbe52	-6.8669825
122	0xc0e55c75	-7.1675363
123	0xc0e41b33	-7.12832
124	0xc0db2356	-6.8480635
125	0xc0e1616e	-7.0431433
126	0xc0d70f9a	-6.7206545
127	0xc0e1a8b3	-7.051843
128	0xc0e5b9f3	-7.178949
129	0xc0dd7dd4	-6.92161
130	0xc0df78a3	-6.983476
131	0xc0def85a	-6.9678164
132	0xc0e322d3	-7.098001
133	0xc0e32ccf	-7.09922
134	0xc0de8b2d	-6.954489
135	0xc0e0292f	-7.0050273
136	0xc0dffa91	-6.9993367
137	0xc0e282b2	-7.078454
138	0xc0dbbd94	-6.866892
139	0xc0ddef3d	-6.935454
140	0xc0dd0079	-6.9063077
141	0xc0dc9141	-6.892731
142	0xc0e4f99f	-7.1554713
143	0xc0dd49f6	-6.9152784
144	0xc0e08ea2	-7.017411
145	0xc0df1397	-6.9711413
146	0xc0dd7c18	-6.921398
147	0xc0df9ed1	-6.988137
148	0xc0e3367d	-7.1004014
149	0xc0e5d23c	-7.1819134
150	0xc0ddf152	-6.935708
151	0xc0e27489	-7.0767255
152	0xc0e02fa7	-7.005817
153	0xc0e07d5c	-7.0153027
154	0xc0e00ee2	-7.0018167
155	0xc0dfd89b	-6.995191
156	0xc0e17657	-7.045696
157	0xc0daf936	-6.8429213
158	0xc0e29280	-7.0803833
159	0xc0e8d03f	-7.2754207
160	0xc0dc2b9f	-6.880325
161	0xc0e7206a	-7.222707
162	0xc0e2c285	-7.086245
163	0xc0dc8ee2	-6.8924417
164	0xc0e480a5	-7.1407037
165	0xc0e5f8e7	-7.1866336
166	0xc0e0309f	-7.005935
167	0xc0e1c1ac	-7.0548916
168	0xc0e342e6	-7.1019163
169	0xc0dd8663	-6.9226546
170	0xc0ddee3f	-6.935333
171	0xc0e1152b	-7.033834
172	0xc0dea522	-6.957658
173	0xc0de5009	-6.94727
174	0xc0e27386	-7.076602
175	0xc0dd5816	-6.9170027
176	0xc0ddd0bf	-6.9317317
177	0xc0e36799	-7.106396
178	0xc0debc01	-6.9604497
179	0xc0e2a284	-7.0823383
180	0xc0e6c4cb	-7.2115226
181	0xc0df6902	-6.9815683
182	0xc0e3a578	-7.113949
183	0xc0e43b6d	-7.132254
184	0xc0e3f92f	-7.124168
185	0xc0e08e12	-7.0173426
186	0xc0e2337b	-7.068784
187	0xc0dd76d5	-6.920756
188	0xc0e55c5e	-7.1675253
189	0xc0de9a57	-6.9563403
190	0xc0e2805e	-7.07817
191	0xc0e8839e	-7.2660666
192	0xc0dc9694	-6.893381
193	0xc0e077a6	-7.0146055
194	0xc0dcc6c9	-6.899266
195	0xc0e1b28a	-7.0530443
196	0xc0e1b0ee	-7.052848
197	0xc0df1329	-6.971089
198	0xc0e2c1c5	-7.0861535
199	0xc0e1c9ec	-7.0558987
200	0xc0dff1ad	-6.9982514
201	0xc0def9ce	-6.9679937
202	0xc0e153d0	-7.041481
203	0xc0dd84a6	-6.9224424
204	0xc0d93530	-6.7877426
205	0xc0de70c0	-6.9512634
206	0xc0e9d951	-7.307778
207	0xc0e35587	-7.1041903
208	0xc0e06053	-7.0117583
209	0xc0df56b9	-6.9793363
210	0xc0dfb75e	-6.9911337
211	0xc0df90e9	-6.986439
212	0xc0de281d	-6.9423966
213	0xc0d99e3d	-6.800566
214	0xc0ded0c5	-6.9629846
215	0xc0de9d3d	-6.956694
216	0xc0e0888a	-7.0166674
217	0xc0e05092	-7.0098352
218	0xc0dda7b9	-6.926724
219	0xc0ddb47d	-6.9282823
220	0xc0d685ce	-6.7038336
221	0xc0e46b3f	-7.1380916
222	0xc0e0a918	-7.0206413
223	0xc0e03990	-7.0070267
224	0xc0df8353	-6.984781
225	0xc0e5130b	-7.1585746
226	0xc0de4daa	-6.9469805
227	0xc0e8042d	-7.2505097
228	0xc0e0f8f4	-7.03039
229	0xc0ddd56e	-6.9323034
230	0xc0e417cb	-7.1279044
231	0xc0dd19a4	-6.90938
232	0xc0dd4823	-6.9150558
233	0xc0dadac9	-6.839207
234	0xc0e05d29	-7.011372
235	0xc0df6209	-6.980717
236	0xc0e831d2	-7.2560816
237	0xc0e46698	-7.1375237
238	0xc0e10f42	-7.0331125
239	0xc0e49372	-7.1429987
240	0xc0dfb538	-6.9908714
241	0xc0dde04b	-6.9336295
242	0xc0ddc86f	-6.930717
243	0xc0dc5574	-6.8854313
244	0xc0e04f63	-7.0096908
245	0xc0e0086e	-7.001029
246	0xc0e16b5b	-7.044355
247	0xc0e58b56	-7.173259
248	0xc0e368b8	-7.106533
249	0xc0e0eeef	-7.0291667
250	0xc0e714c0	-7.221283
251	0xc0dca3ee	-6.895011
252	0xc0e05506	-7.010379
253	0xc0dd8e85	-6.9236474
254	0xc0dea3d8	-6.9575005
255	0xc0df9e08	-6.988041

bias_mu f4 [256]
0	0xbc7c689b	-0.015405799
1	0x3c01cbf9	0.007922166
2	0xbd3b2091	-0.045685355
3	0x3df88165	0.12134055
4	0x3d13e30d	0.036105204
5	0xbe4549da	-0.19266453
6	0x3d72dd2b	0.059292953
7	0xbdd978fa	-0.106187776
8	0xbdc47e78	-0.095944345
9	0xbd1e74a2	-0.03868545
10	0xbd355470	-0.04426998
11	0xbe791f27	-0.2432829
12	0xbe0bf128	-0.13666213
13	0x3e25e417	0.1620029
14	0x3d3fb911	0.046807352
15	0x3ca50969	0.020146089
16	0xbe11c40b	-0.1423494
17	0x3decd277	0.115635805
18	0x3d92c3f9	0.07166285
19	0xbcb112a5	-0.021615336
20	0xbd933aaf	-0.071889274
21	0xbe07bcb7	-0.13255583
22	0x3e232716	0.15932879
23	0xbe0b5e7f	-0.13610266
24	0xbe77850e	-0.2417185
25	0xbdfda86f	-0.12385642
26	0xbcdfd0d5	-0.027321259
27	0xbdff5f7f	-0.12469386
28	0xbe102678	-0.14077175
29	0xbe76ad90	-0.24089646
30	0x3df92c2c	0.12166628
31	0x3db19ee2	0.086728826
32	0xbcb19111	-0.021675618
33	0x3dea0450	0.11426604
34	0xbde6c6fb	-0.11268421
35	0x3dc9b54a	0.09849031
36	0xbe06b85b	-0.13156264
37	0x3e6723eb	0.22572295
38	0xbeb5bd3d	-0.3549594
39	0xbdef96d3	-0.11698689
40	0x3d8a162a	0.06742509
41	0xbe236f54	-0.15960437
42	0xbe0bd784	-0.13656431
43	0xbd858559	-0.06519575
44	0xbe2045d3	-0.15651636
45	0xbf10ae28	-0.5651574
46	0xbdfc8bdd	-0.12331364
47	0x3f30ede9	0.6911302
48	0xbe50dd3b	-0.20396893
49	0xbdbbc725	-0.09168843
50	0x3d5a5693	0.05330522
51	0x3e13fbb7	0.1445149
52	0xbdaacf99	-0.08340377
53	0xbe7322cd	-0.23743744
54	0xbde115ed	-0.1099051
55	0xbd1a6d7a	-0.03770206
56	0x3e75bebb	0.23998539
57	0xbdb7d072	-0.08975305
58	0x3e408407	0.18800364
59	0x3e3a51d1	0.18195273
60	0xbd316def	-0.04331773
61	0xbde1d99b	-0.11027833
62	0xbe13f641	-0.14449407
63	0x3deca5c8	0.11555058
64	0x3da247e6	0.0792387
65	0xbde7b45a	-0.11313696
66	0xbdb43ac0	-0.08800268
67	0x3e4862af	0.19568895
68	0x3dd8435e	0.10559724
69	0xbd473d63	-0.048642527
70	0x3e8ddc77	0.27707264
71	0xbd824659	-0.06361074
72	0x3e101a0c	0.14072436
73	0x3e004837	0.12527548
74	0xbd0a3003	-0.033737194
75	0x3e101701	0.14071275
76	0x3dde381c	0.10850546
77	0xbdaeb993	-0.08531489
78	0x3e31b596	0.17354426
79	0x3e124a90	0.14286256
80	0xbd0483b0	-0.03235215
81	0xbe38f9bf	-0.1806402
82	0x3e528104	0.20557028
83	0x3dc470c1	0.095918186
84	0xbe28b895	-0.16476662
85	0xbd0ab685	-0.03386547
86	0xbcff2652	-0.031146202
87	0xbdc7f8db	-0.09764262
88	0xbd5b95bf	-0.053609606
89	0xbc75dd4d	-0.0150063755
90	0x3e59450e	0.21217749
91	0xbecce108	-0.40015435
92	0xbd21b202	-0.039476402
93	0xbcc6b9a3	-0.02425844
94	0x3e178221	0.14795734
95	0x3d8f5abc	0.06999728
96	0x3e3bacde	0.18327662
97	0x3e6fc4ac	0.23414868
98	0x3e01ba93	0.12668829
99	0x3de2b226	0.11069135
100	0xbde5ac92	-0.11214556
101	0x3dbb9363	0.09158971
102	0x3c02d6d9	0.007985794
103	0x3b8b0058	0.0042419843
104	0x3dd6346a	0.10459216
105	0xbf0c19e8	-0.5472703
106	0x3e13b479	0.14424314
107	0xbd721dd0	-0.059110463
108	0x3cc7bf8a	0.024383325
109	0xbc96f82b	-0.018428883
110	0x3c6cf7d1	0.014463381
111	0xbd6a05b3	-0.05713434
112	0xbe15c928	-0.14627516
113	0x3d8f2a3c	0.069904774
114	0xbe85b647	-0.2611563
115	0x3e3b4217	0.1828693
116	0xbe093a59	-0.13401164
117	0x3d95e5c4	0.07319215
118	0xbe6eb3d5	-0.23310788
119	0xbb0243b8	-0.001987679
120	0xbd9821e6	-0.074283406
121	0xbe05b5e2	-0.13057664
122	0xbc5994b5	-0.013280083
123	0x3b213609	0.0024598858
124	0xbe09ca18	-0.13455999
125	0xbe626d71	-0.22112061
126	0x3ceda885	0.02901102
127	0xbe1d095f	-0.15335606
128	0xbd892d87	-0.06698137
129	0xbd08439a	-0.033267595
130	0xbd1724ab	-0.036900204
131	0x3e812b04	0.2522813
132	0xbce2f575	-0.027704934
133	0x3dda51bc	0.10660121
134	0xbd8ee43f	-0.06977128
135	0x3e114506	0.14186487
136	0x3dbd665a	0.09248038
137	0xbd087df1	-0.033323232
138	0x3d36c51b	0.04462157
139	0x3d4b6dbc	0.049665198
140	0x3d959b17	0.07304972
141	0xbd84e27a	-0.064885095
142	0x3e05a171	0.13049866
143	0x3de72766	0.112868115
144	0xbd69a45d	-0.057041515
145	0x3e52f908	0.2060281
146	0xbe6b73e1	-0.22993423
147	0xbd88d119	-0.06680507
148	0xbe4f1228	-0.2022177
149	0xbda3da89	-0.08000667
150	0xbcf811b9	-0.030281888
151	0xbde4ce10	-0.11172116
152	0x3dc3c786	0.095595405
153	0xbd6860af	-0.05673283
154	0x3cadf000	0.021232605
155	0x3e9d36a8	0.30705762
156	0x3d5f3b0f	0.054499682
157	0xbe52f0df	-0.20599698
158	0xbdc549ff	-0.09633254
159	0x3dd27d1f	0.10277771
160	0xbd17942d	-0.037006546
161	0xbd40c66d	-0.047064234
162	0x3c9192d1	0.017770203
163	0xbeb94ca4	-0.36191285
164	0x3e4f46a4	0.20241791
165	0xbba3660f	-0.0049865316
166	0xbcbd7d38	-0.023130998
167	0xbd2d1d83	-0.042264473
168	0xbd9f4f10	-0.07778752
169	0xbd51e9c2	-0.05124832
170	0xbd8bf4b9	-0.068337865
171	0xbd61557c	-0.055013165
172	0xbe215c9b	-0.15757982
173	0xbe373cf0	-0.1789434
174	0x3e1158cb	0.14194028
175	0x3e7472d9	0.23871936
176	0xbe7bbe6c	-0.24584359
177	0x3e1ea14c	0.15491217
178	0x3d2b1525	0.041768212
179	0x3eb769b2	0.35822827
180	0x3de8b8c1	0.11363364
181	0xbe611920	-0.2198224
182	0xbd2afb47	-0.041743543
183	0x3d76abd1	0.06022245
184	0x3e460980	0.19339561
185	0xbd48e9b9	-0.04905102
186	0xbdd2c1cc	-0.1029087
187	0x3d88ad08	0.06673628
188	0x3e160311	0.14649607
189	0xbc1e2176	-0.009651532
190	0xbcd9b8af	-0.026577322
191	0xbe18a1d1	-0.14905478
192	0xbe10e24d	-0.14148827
193	0xbe595623	-0.21224265
194	0xbc3ee4cf	-0.011651232
195	0xbde2c1b9	-0.11072106
196	0x3c912d47	0.017721785
197	0xbdabff9e	-0.083983645
198	0x3da90196	0.082522556
199	0xbe1b9dba	-0.15196887
200	0xbd0f7378	-0.03502223
201	0xbc072be6	-0.008250212
202	0x3dad1056	0.084503815
203	0xbe5f4e63	-0.21807246
204	0xbc224ce0	-0.009906024
205	0xbd14d984	-0.03634025
206	0x3d2110c7	0.03932264
207	0xbe0952e6	-0.1341053
208	0x3e85400f	0.26025435
209	0xbdfa6bb8	-0.12227577
210	0xbdc39210	-0.095493436
211	0xbdc24ab5	-0.094869055
212	0xbdc8efed	-0.09811387
213	0xbd7e450b	-0.062077563
214	0xbe17c006	-0.14819345
215	0x3df79e0b	0.12090691
216	0xbdce045b	-0.100594245
217	0xbdde24d8	-0.10846871
218	0x3db30b91	0.087424405
219	0xbc5f02b5	-0.013611485
220	0xbc66f97f	-0.01409757
221	0xbcdd98f7	-0.027050478
222	0xbd48a8dd	-0.048989166
223	0x3e281d7f	0.16417502
224	0xbef0d064	-0.4703399
225	0x3d4117c2	0.047141798
226	0xbd4f2945	-0.050576467
227	0xbd829d1b	-0.06377622
228	0x3e01d803	0.12680058
229	0x3de8f8ab	0.11375555
230	0xbdc51385	-0.09622864
231	0xbe219fd3	-0.15783624
232	0xbd2eb9fa	-0.04265783
233	0xbd8190ad	-0.06326423
234	0xbdbdeafd	-0.09273336
235	0xbd209c03	-0.039211284
236	0xbe3c4757	-0.18386589
237	0xbdd80035	-0.105469145
238	0x3d1aceab	0.03779475
239	0xbc8a09f9	-0.016850458
240	0xbd791583	-0.06081153
241	0x3dea3320	0.114355326
242	0x3d0e54c0	0.034748793
243	0xbd76cb95	-0.060252745
244	0xbdf1475c	-0.11781189
245	0x3e0b1eca	0.13585964
246	0xbdc5fdc3	-0.09667542
247	0xbce01749	-0.027354853
248	0xbdd929cd	-0.10603676
249	0x3e3c0668	0.18361819
250	0x3dacbc1c	0.084343165
251	0xbbfb87d8	-0.007676106
252	0xbd966cbf	-0.073449604
253	0xbca84685	-0.020541439
254	0xbde58ee7	-0.11208897
255	0x3debf0d6	0.11520545

bias_rho f4 [256]
0	0xc0dc10cf	-6.877052
1	0xc0de6cec	-6.950796
2	0xc0dd1e5e	-6.909957
3	0xc0e1a01e	-7.0507956
4	0xc0e153d2	-7.041482
5	0xc0e127ba	-7.0360994
6	0xc0db85c1	-6.8600774
7	0xc0dec188	-6.9611244
8	0xc0d5b476	-6.678279
9	0xc0e55992	-7.167184
10	0xc0e18bff	-7.0483394
11	0xc0de719e	-6.9513693
12	0xc0dd200b	-6.9101615
13	0xc0da5016	-6.822276
14	0xc0d85a7b	-6.761045
15	0xc0da8d3e	-6.8297415
16	0xc0e173dd	-7.0453935
17	0xc0dfab4f	-6.9896617
18	0xc0e09394	-7.018015
19	0xc0e2fd6d	-7.093436
20	0xc0dc3d77	-6.882503
21	0xc0df7756	-6.9833174
22	0xc0e5a20e	-7.176032
23	0xc0dd5799	-6.916943
24	0xc0defb07	-6.968143
25	0xc0e24d7e	-7.0719595
26	0xc0e3570f	-7.1043773
27	0xc0e4ebdf	-7.153793
28	0xc0df3a16	-6.9758406
29	0xc0ddb824	-6.928728
30	0xc0e2751e	-7.0767965
31	0xc0dfa3dc	-6.9887524
32	0xc0e31759	-7.0966
33	0xc0dd3bc8	-6.9135475
34	0xc0da905b	-6.8301215
35	0xc0e0b74b	-7.0223746
36	0xc0e46e31	-7.138451
37	0xc0e361ee	-7.1057043
38	0xc0e3ebba	-7.122525
39	0xc0d98d4e	-6.798499
40	0xc0e01b5c	-7.00334
41	0xc0e2baaa	-7.085286
42	0xc0e09cd7	-7.0191455
43	0xc0ddc700	-6.930542
44	0xc0de1aa7	-6.9407535
45	0xc0ea07b7	-7.3134418
46	0xc0e2b65a	-7.0847597
47	0xc0e85cee	-7.261344
48	0xc0decbb4	-6.962366
49	0xc0df0c7a	-6.970273
50	0xc0def661	-6.9675756
51	0xc0e322ff	-7.098022
52	0xc0e54724	-7.164934
53	0xc0e2bf13	-7.0858245
54	0xc0e22ce0	-7.067978
55	0xc0dacdf0	-6.837639
56	0xc0e73a2b	-7.2258506
57	0xc0db22ed	-6.8480134
58	0xc0e1d45f	-7.057174
59	0xc0e340d3	-7.101663
60	0xc0dcc1de	-6.8986654
61	0xc0e6181b	-7.1904426
62	0xc0dd494d	-6.915198
63	0xc0e1bb49	-7.054112
64	0xc0e1770c	-7.045782
65	0xc0e46fd7	-7.1386523
66	0xc0dc970c	-6.8934383
67	0xc0dc1974	-6.878107
68	0xc0e19b27	-7.0501895
69	0xc0da87fc	-6.8290997
70	0xc0e1fab9	-7.061856
71	0xc0df4027	-6.976581
72	0xc0e1eec3	-7.0603957
73	0xc0dbb1c5	-6.8654504
74	0xc0df14a9	-6.971272
75	0xc0da339d	-6.8188004
76	0xc0dfb787	-6.9911532
77	0xc0e01fc6	-7.0038786
78	0xc0dc09f6	-6.876216
79	0xc0deddc8	-6.964573
80	0xc0e06906	-7.0128202
81	0xc0de00a5	-6.9375787
82	0xc0e2c74e	-7.086829
83	0xc0dfd602	-6.994874
84	0xc0de8180	-6.953308
85	0xc0e1d9e0	-7.057846
86	0xc0da8223	-6.828386
87	0xc0e16042	-7.043
88	0xc0dbaa72	-6.8645563
89	0xc0dd7196	-6.9201155
90	0xc0e1364e	-7.037879
91	0xc0dbac29	-6.8647656
92	0xc0dc3a15	-6.88209
93	0xc0da1038	-6.81448
94	0xc0e13dc2	-7.038789
95	0xc0e0621f	-7.0119777
96	0xc0df129e	-6.9710226
97	0xc0e59130	-7.173973
98	0xc0da5bec	-6.823721
99	0xc0e3638e	-7.1059027
100	0xc0e0b5bc	-7.0221844
101	0xc0dfda30	-6.995384
102	0xc0e02173	-7.004083
103	0xc0e11419	-7.0337033
104	0xc0dd0f30	-6.908104
105	0xc0e7757c	-7.2330914
106	0xc0ddf64c	-6.9363155
107	0xc0df982a	-6.9873247
108	0xc0e11d96	-7.0348616
109	0xc0e0873f	-7.0165095
110	0xc0e40327	-7.125385
111	0xc0e3daf7	-7.120479
112	0xc0dfa470	-6.988823
113	0xc0dc9aac	-6.893881
114	0xc0dc7b0e	-6.8900213
115	0xc0dca425	-6.895037
116	0xc0e61b41	-7.190827
117	0xc0dc9071	-6.892632
118	0xc0dee6e7	-6.9656863
119	0xc0e1ac90	-7.0523148
120	0xc0dfc5dc	-6.9929028
121	0xc0dc82d3	-6.8909698
122	0xc0dd9d7d	-6.9254746
123	0xc0dfb36e	-6.990653
124	0xc0dd635f	-6.9183803
125	0xc0db2237	-6.8479266
126	0xc0dd6ee4	-6.9197865
127	0xc0e304b6	-7.094325
128	0xc0e182dc	-7.047224
129	0xc0e0177f	-7.002868
130	0xc0e0671e	-7.0125875
131	0xc0e84c3e	-7.259307
132	0xc0e04682	-7.008607
133	0xc0e9f5ec	-7.3112698
134	0xc0e42695	-7.1297097
135	0xc0dfb0c3	-6.9903274
136	0xc0e134e6	-7.0377073
137	0xc0e49752	-7.1434717
138	0xc0dfe33c	-6.9964886
139	0xc0e117b4	-7.0341434
140	0xc0dd5298	-6.9163322
141	0xc0e480f2	-7.1407404
142	0xc0dd6976	-6.9191236
143	0xc0de7fbe	-6.9530935
144	0xc0e4ebdd	-7.153792
145	0xc0e14425	-7.0395684
146	0xc0dcc09a	-6.898511
147	0xc0e0ad2d	-7.0211396
148	0xc0e44f37	-7.13467
149	0xc0df78d1	-6.983498
150	0xc0e3a463	-7.1138167
151	0xc0e07c88	-7.0152016
152	0xc0e3dc49	-7.1206403
153	0xc0dda6de	-6.9266195
154	0xc0e0c323	-7.0238204
155	0xc0de6aa9	-6.95052
156	0xc0dd4626	-6.914813
157	0xc0e3ba4e	-7.1164923
158	0xc0e7d5a6	-7.24483
159	0xc0de2bab	-6.9428306
160	0xc0e0742a	-7.01418
161	0xc0dc00ef	-6.875114
162	0xc0dff939	-6.9991727
163	0xc0e12969	-7.036305
164	0xc0e00e17	-7.00172
165	0xc0e0db25	-7.026751
166	0xc0dca511	-6.8951497
167	0xc0de513a	-6.9474154
168	0xc0dd429e	-6.914382
169	0xc0ddb09a	-6.927808
170	0xc0dfd3cd	-6.9946046
171	0xc0e88c7a	-7.267148
172	0xc0e350ba	-7.1036043
173	0xc0e366e7	-7.1063113
174	0xc0e04cf8	-7.0093956
175	0xc0e30411	-7.0942464
176	0xc0e2fb3d	-7.0931687
177	0xc0e26e64	-7.0759754
178	0xc0da2c61	-6.8179173
179	0xc0e001b5	-7.0002084
180	0xc0e4009e	-7.1250753
181	0xc0e7f56b	-7.2487082
182	0xc0e1cde6	-7.056384
183	0xc0e36d8f	-7.107124
184	0xc0e051cd	-7.0099854
185	0xc0e396eb	-7.1121726
186	0xc0e0f0b4	-7.0293827
187	0xc0e0a7a8	-7.020466
188	0xc0e0a74b	-7.0204215
189	0xc0e5c761	-7.1805882
190	0xc0e12849	-7.0361676
191	0xc0dd9231	-6.9240956
192	0xc0d9e225	-6.8088555
193	0xc0e3ef9f	-7.1230006
194	0xc0dc6af4	-6.888056
195	0xc0df4fc6	-6.978488
196	0xc0debfa6	-6.9608946
197	0xc0df7a6a	-6.983693
198	0xc0dd89fd	-6.9230943
199	0xc0df33dd	-6.975081
200	0xc0dc5ad7	-6.886089
201	0xc0df038e	-6.969184
202	0xc0dcaddd	-6.8962235
203	0xc0e253ef	-7.072746
204	0xc0e2c275	-7.0862374
205	0xc0e07a71	-7.0149465
206	0xc0e1102f	-7.0332255
207	0xc0e611be	-7.189666
208	0xc0e0be42	-7.023225
209	0xc0defc0c	-6.9682674
210	0xc0de83f4	-6.9536076
211	0xc0e5662e	-7.168723
212	0xc0e50302	-7.156617
213	0xc0e350ad	-7.103598
214	0xc0d618e9	-6.690541
215	0xc0dfecf5	-6.9976754
216	0xc0e3dab1	-7.1204457
217	0xc0dc4345	-6.8832116
218	0xc0de45f9	-6.9460416
219	0xc0e2bcee	-7.0855627
220	0xc0e70c36	-7.2202406
221	0xc0e3a4a2	-7.113847
222	0xc0dccb07	-6.8997836
223	0xc0e0096a	-7.001149
224	0xc0e111a0	-7.0334015
225	0xc0e3187b	-7.0967383
226	0xc0e227a3	-7.0673385
227	0xc0e34ed4	-7.1033726
228	0xc0e16569	-7.043629
229	0xc0df9e0d	-6.9880433
230	0xc0dcfbac	-6.9057217
231	0xc0df2468	-6.973194
232	0xc0db6eb0	-6.8572617
233	0xc0e2eb1d	-7.0912004
234	0xc0d54ec6	-6.665866
235	0xc0db4647	-6.852329
236	0xc0e51c36	-7.1596937
237	0xc0dd2e2b	-6.9118857
238	0xc0dcd51c	-6.9010143
239	0xc0e5d1e1	-7.18187
240	0xc0e21df9	-7.066159
241	0xc0de897c	-6.9542828
242	0xc0e1d14a	-7.056798
243	0xc0dc0ef7	-6.876827
244	0xc0dafaeb	-6.8431296
245	0xc0df56a4	-6.9793262
246	0xc0df3dc3	-6.9762893
247	0xc0dfb740	-6.9911194
248	0xc0e0e754	-7.0282383
249	0xc0e05315	-7.010142
250	0xc0db1e9d	-6.847487
251	0xc0dfce02	-6.9938974
252	0xc0e40bdf	-7.126449
253	0xc0e3ae03	-7.1149917
254	0xc0df766f	-6.983207
255	0xc0dd41af	-6.914268

mu f4 [256, 4, 1]
0	0xbd3cc375	-0.04608484
1	0xbd3cad0f	-0.04606348
2	0x3d3fb07a	0.04679916
3	0xbe78fcdd	-0.2431521
4	0x3e1c8081	0.15283395
5	0xbe0f447b	-0.13990967
6	0xbddb1403	-0.10697176
7	0x3e0eee6b	0.13958137
8	0x3e952fd8	0.29138064
9	0x3d1e2398	0.038608164
10	0xbe553d46	-0.20824155
11	0xbe4ab0ee	-0.19794056
12	0x3c0f9306	0.00876308
13	0xbdb94f9a	-0.09048386
14	0xbd13bd5b	-0.036069255
15	0xbeb851a1	-0.35999778
16	0xbcf4e058	-0.029892132
17	0x3da2ac36	0.07943003
18	0xbe949fd3	-0.29028186
19	0x3eae08b3	0.33991012
20	0x3c988b16	0.018621009
21	0xbbdb99f7	-0.0067017036
22	0xbe0f62e9	-0.14002575
23	0x3c57f0d5	0.013179977
24	0x3d37912e	0.04481619
25	0x3dc82d27	0.09774237
26	0x3d3d664e	0.046240143
27	0xbd550deb	-0.052015226
28	0x3debbf5d	0.11511109
29	0xbab0bc0b	-0.0013483776
30	0xb957566b	-0.00020536191
31	0xbddb2c47	-0.107018046
32	0xbde28ee7	-0.11062413
33	0xbe2c0e24	-0.16802269
34	0x3da8069e	0.08204387
35	0xbccc33d7	-0.024927063
36	0x3e5cf1b2	0.21576574
37	0x3ce6c853	0.028171694
38	0xbe0c0034	-0.13671952
39	0x3eeb00fb	0.45899186
40	0x3d83e4b1	0.06440104
41	0xbda710e2	-0.08157517
42	0x3d781c31	0.06057376
43	0xbd03b0e9	-0.032151137
44	0xbe72ff54	-0.23730212
45	0xbdb9a768	-0.09065133
46	0x3dc9bf0b	0.09850892
47	0x3e8e972a	0.27849704
48	0x3dbe7d25	0.09301213
49	0xbe104b84	-0.14091307
50	0x3d3c289b	0.045937162
51	0x3d1e3bc8	0.03863123
52	0xbe351de8	-0.1768719
53	0xbe4411de	-0.19147441
54	0xbe82444e	-0.25442737
55	0x3dc534bb	0.09629198
56	0xbd1a4e54	-0.037672356
57	0xbe94bca8	-0.29050183
58	0xbaa53884	-0.0012605344
59	0x3e96b2bd	0.2943324
60	0xbd269d11	-0.040677134
61	0x3ebab44e	0.36465687
62	0xbea8a558	-0.32938647
63	0xbdedd7c4	-0.1161342
64	0x3da93827	0.08262663
65	0x3d3124bf	0.043247934
66	0xbdb67fbd	-0.08911083
67	0x3cb12fa7	0.021629168
68	0xbe073908	-0.1320535
69	0xbe357db4	-0.17723733
70	0x3d64bff9	0.055847142
71	0x3de456ae	0.11149345
72	0xbdae9d75	-0.08526126
73	0xbe6d2b36	-0.23161015
74	0x3be571ad	0.0070020766
75	0x3e705de4	0.23473316
76	0x3dbc75ff	0.092021935
77	0x3ac7f6ba	0.0015256025
78	0x3e0807a9	0.13284172
79	0xbc6f4741	-0.014604391
80	0xbd95a270	-0.07306373
81	0xbd3fac14	-0.046794966
82	0xbbde92db	-0.006792409
83	0x3d93a0e8	0.07208425
84	0x3d833c9c	0.06408045
85	0xbe128a87	-0.14310656
86	0x3d74b0eb	0.059739035
87	0x3d811486	0.06302743
88	0x3ded9a94	0.11601749
89	0x3f14a2a0	0.58060646
90	0xbe9d2561	-0.3069258
91	0xbf38569d	-0.7200716
92	0x3d076387	0.0330539
93	0x3dc5b16a	0.0965298
94	0xbcd4dcc3	-0.025984174
95	0xbd863013	-0.06552138
96	0x3c995c07	0.01872064
97	0xbbc0fc4c	-0.005889451
98	0x3e0a4d64	0.13506085
99	0xbcf4e06a	-0.029892165
100	0xbd185233	-0.037187766
101	0x3de1f9fc	0.11034009
102	0x3df38e43	0.11892369
103	0xbe2a137d	-0.16608997
104	0xbd824925	-0.063616075
105	0xbdf49ff2	-0.1194457
106	0x3da82d26	0.082117364
107	0x3e22f5e5	0.15914114
108	0xbdf9b77f	-0.12193202
109	0xbd8d4a0f	-0.06898891
110	0x3dffe12f	0.12494122
111	0xbde63a20	-0.11241555
112	0x3d866667	0.065625004
113	0x3c643915	0.013929625
114	0xbda041fb	-0.07825085
115	0x3cfc1f05	0.03077651
116	0x3d931207	0.07181173
117	0x3db640f9	0.08899111
118	0xbe4ff865	-0.20309599
119	0x3de0e5ff	0.10981368
120	0xbec8d16c	-0.39222276
121	0xbe059075	-0.13043387
122	0xbc98028b	-0.0185559
123	0x3e455f82	0.19274715
124	0xbd9cf84b	-0.076645456
125	0x3d2def11	0.04246432
126	0xbc808eac	-0.015693031
127	0x3d419a24	0.04726614
128	0xbdce4853	-0.100723885
129	0xbda309d4	-0.07960859
130	0xbe4324c3	-0.19056992
131	0xbe0c0d47	-0.1367694
132	0xbdf10de4	-0.117702276
133	0xbda1bffe	-0.07897948
134	0xbd8c5cd2	-0.068536416
135	0xbe157f00	-0.14599228
136	0xbdb0748f	-0.08615982
137	0xbc82f120	-0.015984118
138	0xbd84a450	-0.064766526
139	0x3cf95c6f	0.030439584
140	0xbd46d1bb	-0.04853986
141	0xbe9a78af	-0.301702
142	0x3dcdf644	0.10056737
143	0x3e17f207	0.1483842
144	0x3d0d761d	0.03453647
145	0x3b2780ff	0.0025559065
146	0x3ae2e018	0.0017309217
147	0xbd76b030	-0.06022662
148	0xbf030ea0	-0.5119419
149	0xbe13fef0	-0.1445272
150	0x3e62fdce	0.22167131
151	0x3e51999b	0.20468752
152	0xbce8a3a2	-0.028398339
153	0xbe35ccff	-0.17753981
154	0x3ddd1537	0.10795062
155	0x3c9ef651	0.019404562
156	0x3e1a3ce6	0.15062293
157	0x3c601378	0.013676517
158	0x3c5d267e	0.013497947
159	0x3e0aaeea	0.13543287
160	0xbddce0d0	-0.10785067
161	0x3d201de0	0.03909099
162	0xbe25a301	-0.16175462
163	0x3e7dfe51	0.24804045
164	0x3e8eeaef	0.27913615
165	0xbc0e5726	-0.00868777
166	0xbd41e829	-0.047340546
167	0x3e8cade1	0.2747641
168	0x3cabdaaf	0.0209783
169	0xba8805fd	-0.0010377761
170	0xbcbf042f	-0.023317425
171	0x3da7a11c	0.08185026
172	0x3de84aac	0.113423675
173	0xbcc278f9	-0.023739325
174	0xbdd37c77	-0.10326474
175	0xbd5d1c6c	-0.053982183
176	0xbd75c262	-0.05999983
177	0xbdae4d2b	-0.08510812
178	0xbe9c23c3	-0.30496034
179	0x3d7ceefd	0.061751354
180	0x3eab80b5	0.33496633
181	0x3f12a2f4	0.57279897
182	0xbe72bac6	-0.23704061
183	0x3ee80b46	0.453211
184	0xbc833849	-0.01601805
185	0x3ddfbd49	0.10924775
186	0xbd2ea40c	-0.042636916
187	0xbe3fb20d	-0.18720265
188	0x3d73d9d4	0.05953391
189	0x3f17e502	0.59333813
190	0xbef13c5f	-0.47116372
191	0xbf84727e	-1.034744
192	0xbcb34f16	-0.021888297
193	0xbd47268a	-0.048620738
194	0x3d392530	0.04520148
195	0xbd0f8110	-0.035035193
196	0x3c0ea9f5	0.008707513
197	0x3c62cb62	0.013842436
198	0x3ba16289	0.0049250764
199	0xbdf196a8	-0.117963135
200	0xbe84d8f2	-0.25946766
201	0x3de74385	0.11292175
202	0x3d342834	0.043983653
203	0x3d4de0a4	0.050263062
204	0xbedef304	-0.4354478
205	0x3c22a880	0.009927869
206	0x3df96df0	0.12179172
207	0x3e1a2906	0.15054712
208	0xbe07353f	-0.13203906
209	0xbd5ce2b1	-0.053927127
210	0x3dc1ec6a	0.094689205
211	0xbd2c985b	-0.042137485
212	0xbc9062d4	-0.01762525
213	0xbe7c6550	-0.24648023
214	0xbe4f6a6a	-0.20255437
215	0xbd8d031b	-0.06885358
216	0xbe360381	-0.17774774
217	0x3e17fbe8	0.14842188
218	0xbd5b7925	-0.05358233
219	0x3d5e9e1f	0.054350015
220	0xbd8c133f	-0.068396084
221	0x3b207e32	0.002448928
222	0x3eae0979	0.33991602
223	0xbe4758ae	-0.19467422
224	0xbea5bf33	-0.32372436
225	0x3d2adee9	0.04171649
226	0xbe2c0188	-0.16797459
227	0xbe87f77b	-0.26556
228	0x3e2913b1	0.16511418
229	0xbe2aae9a	-0.16668168
230	0xbc2c9bc0	-0.010535181
231	0xbbbba7bf	-0.005726784
232	0xbec6edc2	-0.3885327
233	0x3e8499f4	0.25898707
234	0xbe2ea3e5	-0.17054708
235	0xbe5e95ad	-0.21736784
236	0xbec3773a	-0.381769
237	0xbe714dca	-0.2356483
238	0x3e2ecb27	0.17069684
239	0x3e8786b7	0.26469967
240	0x3d4ed9cb	0.050500672
241	0xbe001b03	-0.12510304
242	0xbcb440df	-0.02200359
243	0xbceb6413	-0.028734243
244	0xbe039fed	-0.12853976
245	0xbbf5870b	-0.007492905
246	0xbd892784	-0.0669699
247	0x3d909ff3	0.07061758
248	0x3dd0594c	0.10173282
249	0x3e389c6c	0.1802842
250	0x3e6df7ab	0.23239009
251	0x3d7d536e	0.061847143
252	0xbe66aa71	-0.22525956
253	0xbe71f57b	-0.236288
254	0x3c865400	0.016397476
255	0x3eaa1ad3	0.3322359

rho f4 [256, 4, 1]
0	0xc0e44a4e	-7.1340704
1	0xc0e033e8	-7.006336
2	0xc0d96adc	-6.7942944
3	0xc0de8bd7	-6.9545703
4	0xc0e480a6	-7.140704
5	0xc0e720c2	-7.2227488
6	0xc0e566b3	-7.1687865
7	0xc0d6ea14	-6.716074
8	0xc0dc7ff2	-6.8906183
9	0xc0d906fa	-6.7821016
10	0xc0dd2a86	-6.911441
11	0xc0dbc758	-6.868084
12	0xc0db116d	-6.845877
13	0xc0e3c116	-7.11732
14	0xc0e1b42b	-7.053243
15	0xc0d8a37c	-6.7699566
16	0xc0e1a830	-7.0517807
17	0xc0e077de	-7.014632
18	0xc0e1849f	-7.047439
19	0xc0e1b43f	-7.0532527
20	0xc0e0ac67	-7.021045
21	0xc0deeb04	-6.9661884
22	0xc0d927fe	-6.786132
23	0xc0df9116	-6.9864607
24	0xc0ddf75e	-6.936446
25	0xc0e066b8	-7.012539
26	0xc0e07702	-7.0145273
27	0xc0e4f99a	-7.155469
28	0xc0e1eb10	-7.059944
29	0xc0e2f560	-7.092453
30	0xc0db3089	-6.8496747
31	0xc0e03694	-7.0066624
32	0xc0e12ed2	-7.0369654
33	0xc0e20305	-7.0628686
34	0xc0e373d2	-7.107888
35	0xc0dce5bb	-6.9030433
36	0xc0dbdec4	-6.870943
37	0xc0e76a41	-7.2317204
38	0xc0e20056	-7.062541
39	0xc0e0aef7	-7.021358
40	0xc0dcf69a	-6.9051027
41	0xc0dd5382	-6.916444
42	0xc0e512a3	-7.158525
43	0xc0dc5e9b	-6.8865485
44	0xc0e124c3	-7.0357375
45	0xc0d947cc	-6.7900143
46	0xc0e07a91	-7.0149617
47	0xc0e19cdf	-7.0503993
48	0xc0e1a630	-7.0515366
49	0xc0e1cf1e	-7.056533
50	0xc0e24961	-7.0714574
51	0xc0e19b6f	-7.050224
52	0xc0df8980	-6.9855347
53	0xc0def7ea	-6.967763
54	0xc0e64860	-7.196335
55	0xc0e1c394	-7.0551243
56	0xc0e4ae0a	-7.146245
57	0xc0d89a53	-6.7688384
58	0xc0e2fc9f	-7.0933375
59	0xc0e00764	-7.000902
60	0xc0e6ab3e	-7.2084036
61	0xc0e0995e	-7.0187216
62	0xc0e2b209	-7.084233
63	0xc0e98473	-7.297418
64	0xc0e48ef7	-7.142452
65	0xc0dc52d9	-6.8851132
66	0xc0e2590c	-7.07337
67	0xc0dd923c	-6.924101
68	0xc0e0d4c7	-7.025974
69	0xc0e1c16b	-7.0548606
70	0xc0e613e8	-7.18993
71	0xc0e3b5e3	-7.115953
72	0xc0e1aa66	-7.0520506
73	0xc0e19959	-7.049969
74	0xc0e2004a	-7.0625353
75	0xc0e239b4	-7.069544
76	0xc0de5118	-6.947399
77	0xc0e0faf6	-7.030635
78	0xc0df12ef	-6.971061
79	0xc0e48056	-7.140666
80	0xc0e4ebff	-7.153808
81	0xc0e1df0b	-7.058477
82	0xc0e665fd	-7.1999497
83	0xc0e25a32	-7.07351
84	0xc0dce097	-6.9024158
85	0xc0e008ee	-7.00109
86	0xc0de31ed	-6.9435945
87	0xc0df8f26	-6.986224
88	0xc0d79d19	-6.737927
89	0xc0e9897f	-7.298034
90	0xc0e3b7a9	-7.1161695
91	0xc0e69f9a	-7.2069826
92	0xc0e4b969	-7.147633
93	0xc0def0ae	-6.96688
94	0xc0df8623	-6.985124
95	0xc0dc8ec4	-6.8924274
96	0xc0df0df3	-6.970453
97	0xc0e853cc	-7.260229
98	0xc0e21afa	-7.065793
99	0xc0e34091	-7.1016316
100	0xc0dd9a64	-6.9250965
101	0xc0dd865a	-6.9226503
102	0xc0e0b9a2	-7.0226603
103	0xc0e59430	-7.1743393
104	0xc0e3e33e	-7.1214895
105	0xc0df5719	-6.979382
106	0xc0e096fd	-7.018431
107	0xc0ddf3fd	-6.9360337
108	0xc0e20756	-7.0633955
109	0xc0dcee9b	-6.9041266
110	0xc0e3341e	-7.100112
111	0xc0db011a	-6.8438845
112	0xc0e289af	-7.079307
113	0xc0de17b9	-6.940396
114	0xc0e32279	-7.097958
115	0xc0e5a529	-7.176411
116	0xc0dc2d8e	-6.880561
117	0xc0dbf20a	-6.873296
118	0xc0e0f3e4	-7.029772
119	0xc0defe6c	-6.9685574
120	0xc0db551f	-6.8541408
121	0xc0dbbe52	-6.8669825
122	0xc0e55c75	-7.1675363
123	0xc0e41b33	-7.12832
124	0xc0db2356	-6.8480635
125	0xc0e1616e	-7.0431433
126	0xc0d70f9a	-6.7206545
127	0xc0e1a8b3	-7.051843
128	0xc0e5b9f3	-7.178949
129	0xc0dd7dd4	-6.92161
130	0xc0df78a3	-6.983476
131	0xc0def85a	-6.9678164
132	0xc0e322d3	-7.098001
133	0xc0e32ccf	-7.09922
134	0xc0de8b2d	-6.954489
135	0xc0e0292f	-7.0050273
136	0xc0dffa91	-6.9993367
137	0xc0e282b2	-7.078454
138	0xc0dbbd94	-6.866892
139	0xc0ddef3d	-6.935454
140	0xc0dd0079	-6.9063077
141	0xc0dc9141	-6.892731
142	0xc0e4f99f	-7.1554713
143	0xc0dd49f6	-6.9152784
144	0xc0e08ea2	-7.017411
145	0xc0df1397	-6.9711413
146	0xc0dd7c18	-6.921398
147	0xc0df9ed1	-6.988137
148	0xc0e3367d	-7.1004014
149	0xc0e5d23c	-7.1819134
150	0xc0ddf152	-6.935708
151	0xc0e27489	-7.0767255
152	0xc0e02fa7	-7.005817
153	0xc0e07d5c	-7.0153027
154	0xc0e00ee2	-7.0018167
155	0xc0dfd89b	-6.995191
156	0xc0e17657	-7.045696
157	0xc0daf936	-6.8429213
158	0xc0e29280	-7.0803833
159	0xc0e8d03f	-7.2754207
160	0xc0dc2b9f	-6.880325
161	0xc0e7206a	-7.222707
162	0xc0e2c285	-7.086245
163	0xc0dc8ee2	-6.8924417
164	0xc0e480a5	-7.1407037
165	0xc0e5f8e7	-7.1866336
166	0xc0e0309f	-7.005935
167	0xc0e1c1ac	-7.0548916
168	0xc0e342e6	-7.1019163
169	0xc0dd8663	-6.9226546
170	0xc0ddee3f	-6.935333
171	0xc0e1152b	-7.033834
172	0xc0dea522	-6.957658
173	0xc0de5009	-6.94727
174	0xc0e27386	-7.076602
175	0xc0dd5816	-6.9170027
176	0xc0ddd0bf	-6.9317317
177	0xc0e36799	-7.106396
178	0xc0debc01	-6.9604497
179	0xc0e2a284	-7.0823383
180	0xc0e6c4cb	-7.2115226
181	0xc0df6902	-6.9815683
182	0xc0e3a578	-7.113949
183	0xc0e43b6d	-7.132254
184	0xc0e3f92f	-7.124168
185	0xc0e08e12	-7.0173426
186	0xc0e2337b	-7.068784
187	0xc0dd76d5	-6.920756
188	0xc0e55c5e	-7.1675253
189	0xc0de9a57	-6.9563403
190	0xc0e2805e	-7.07817
191	0xc0e8839e	-7.2660666
192	0xc0dc9694	-6.893381
193	0xc0e077a6	-7.0146055
194	0xc0dcc6c9	-6.899266
195	0xc0e1b28a	-7.0530443
196	0xc0e1b0ee	-7.052848
197	0xc0df1329	-6.971089
198	0xc0e2c1c5	-7.0861535
199	0xc0e1c9ec	-7.0558987
200	0xc0dff1ad	-6.9982514
201	0xc0def9ce	-6.9679937
202	0xc0e153d0	-7.041481
203	0xc0dd84a6	-6.9224424
204	0xc0d93530	-6.7877426
205	0xc0de70c0	-6.9512634
206	0xc0e9d951	-7.307778
207	0xc0e35587	-7.1041903
208	0xc0e06053	-7.0117583
209	0xc0df56b9	-6.9793363
210	0xc0dfb75e	-6.9911337
211	0xc0df90e9	-6.986439
212	0xc0de281d	-6.9423966
213	0xc0d99e3d	-6.800566
214	0xc0ded0c5	-6.9629846
215	0xc0de9d3d	-6.956694
216	0xc0e0888a	-7.0166674
217	0xc0e05092	-7.0098352
218	0xc0dda7b9	-6.926724
219	0xc0ddb47d	-6.9282823
220	0xc0d685ce	-6.7038336
221	0xc0e46b3f	-7.1380916
222	0xc0e0a918	-7.0206413
223	0xc0e03990	-7.0070267
224	0xc0df8353	-6.984781
225	0xc0e5130b	-7.1585746
226	0xc0de4daa	-6.9469805
227	0xc0e8042d	-7.2505097
228	0xc0e0f8f4	-7.03039
229	0xc0ddd56e	-6.9323034
230	0xc0e417cb	-7.1279044
231	0xc0dd19a4	-6.90938
232	0xc0dd4823	-6.9150558
233	0xc0dadac9	-6.839207
234	0xc0e05d29	-7.011372
235	0xc0df6209	-6.980717
236	0xc0e831d2	-7.2560816
237	0xc0e46698	-7.1375237
238	0xc0e10f42	-7.0331125
239	0xc0e49372	-7.1429987
240	0xc0dfb538	-6.9908714
241	0xc0dde04b	-6.9336295
242	0xc0ddc86f	-6.930717
243	0xc0dc5574	-6.8854313
244	0xc0e04f63	-7.0096908
245	0xc0e0086e	-7.001029
246	0xc0e16b5b	-7.044355
247	0xc0e58b56	-7.173259
248	0xc0e368b8	-7.106533
249	0xc0e0eeef	-7.0291667
250	0xc0e714c0	-7.221283
251	0xc0dca3ee	-6.895011
252	0xc0e05506	-7.010379
253	0xc0dd8e85	-6.9236474
254	0xc0dea3d8	-6.9575005
255	0xc0df9e08	-6.988041

eps_w f4 [256, 4, 1]
0	0xbfb34d28	-1.4007921
1	0xbf863a38	-1.0486517
2	0x3f12cb35	0.5734132
3	0xc01dd4cb	-2.4661129
4	0xbf2d489e	-0.6768893
5	0x3ebdff6a	0.37108928
6	0x3f6fdb98	0.9369445
7	0x3cdb42be	0.026765224
8	0xbe7c2a22	-0.24625447
9	0xbee82a1f	-0.45344636
10	0xbf3825da	-0.71932757
11	0xbf74feca	-0.9570128
12	0xbf658799	-0.8966003
13	0x3f0904fa	0.5352322
14	0xbfc84f54	-1.5649209
15	0x3fa0b307	1.2554635
16	0xbf7614dd	-0.96125585
17	0x3ef60e33	0.48057708
18	0x3f7a931d	0.9788073
19	0xbf481043	-0.78149813
20	0x3f59b0e5	0.85035545
21	0xbe8d13fe	-0.27554315
22	0xbf0143bb	-0.50493973
23	0x3f14bc73	0.5810005
24	0xc03dcfe9	-2.9658148
25	0x3f6fb688	0.93637896
26	0x3d4c2ec5	0.04984929
27	0xbd976807	-0.073928885
28	0x3f604f3b	0.87620896
29	0x3bc06688	0.0058715977
30	0x3f2fbcab	0.6864726
31	0x3f6f1b4a	0.93401015
32	0xbf90fcbb	-1.1327127
33	0x3fd684da	1.6759293
34	0xbecb5171	-0.39710572
35	0xbfb052d1	-1.3775274
36	0xc00e7860	-2.226097
37	0xbf6bf31e	-0.9216784
38	0xbfcd6750	-1.6047153
39	0xbf93ee94	-1.1557183
40	0x3f863ab5	1.0486666
41	0x3ec48002	0.38378912
42	0x3f97d827	1.186284
43	0x3d84392f	0.064562194
44	0xbdb03514	-0.08603874
45	0x3f699edd	0.9125803
46	0xbee3009d	-0.44336405
47	0xbf434ff6	-0.76293886
48	0xbf9317a5	-1.1491591
49	0xc0142ab2	-2.315106
50	0x3f95c670	1.1701183
51	0x3f8fac9e	1.1224554
52	0xbda07503	-0.07834818
53	0xbf21802c	-0.630862
54	0xc001756d	-2.022792
55	0xc0165bcb	-2.3493526
56	0x3e044581	0.12917139
57	0x3fa25983	1.2683567
58	0xbeb5e1ef	-0.35523936
59	0x3fc74725	1.5568587
60	0xbf289b62	-0.65862095
61	0x3dcdac91	0.1004268
62	0xbf5bf923	-0.8592703
63	0xbf1148a4	-0.56751466
64	0xbf9b11d9	-1.2114822
65	0xbfa46690	-1.28438
66	0x3fca757d	1.5817105
67	0x3f1f3ee7	0.62205356
68	0xbf3a055d	-0.72664434
69	0xbf85270b	-1.040254
70	0x3f937cd0	1.1522465
71	0xbf4199ed	-0.756255
72	0x3f8bb5dc	1.0914874
73	0xbf194ddb	-0.59884423
74	0xbe27d4e1	-0.163898
75	0xbf9238ba	-1.1423562
76	0xbef2a556	-0.47391766
77	0x3ee105a0	0.43949604
78	0x3f5535d7	0.8328528
79	0x3e2bd550	0.16780591
80	0xbf5f3504	-0.8719027
81	0x3f7fbc6b	0.9989688
82	0xbdc9a3a1	-0.09845663
83	0x3e1122ff	0.14173506
84	0x3f87cd1a	1.0609467
85	0x3f247fbd	0.64257413
86	0xc03ccc65	-2.9499753
87	0xbf5a2942	-0.85219204
88	0xbe211f47	-0.15734588
89	0xbed3b36f	-0.41347834
90	0x3e0ccf09	0.13750853
91	0xbf6755ac	-0.903651
92	0x3fb476d2	1.4098761
93	0xc00c635b	-2.1935642
94	0x3f25bdeb	0.64742917
95	0xbfdb32d0	-1.7124882
96	0x3e3b2844	0.18277079
97	0xbf357fd2	-0.70898163
98	0xbf19141d	-0.59796315
99	0xbe7a9eee	-0.2447469
100	0xbff693d1	-1.926386
101	0x3ed739bc	0.42036235
102	0xbf48312f	-0.7820005
103	0x3f33a0fc	0.7016752
104	0x3f25bc96	0.64740884
105	0x3e47a806	0.1949769
106	0x3f1143c9	0.56744057
107	0xbf9f2f06	-1.2436225
108	0x3d5d529d	0.054033864
109	0x40051cec	2.0798903
110	0x3e87cbe8	0.26522756
111	0x3fb727eb	1.4309057
112	0x3e99e75e	0.30059332
113	0xbe7f6aee	-0.24943134
114	0xbea38984	-0.31940854
115	0x3f869d0d	1.0516678
116	0x3f494203	0.7861635
117	0xbf8d34ae	-1.1031702
118	0xbf3baefe	-0.7331389
119	0xbfa7a3eb	-1.3096899
120	0xbfa27630	-1.2692318
121	0x3f68a07c	0.9086988
122	0x3f8aff77	1.0859212
123	0xbf729b43	-0.9476816
124	0x3f29c2ae	0.6631268
125	0x3f9d9ee4	1.2314115
126	0xbd94b0c8	-0.07260281
127	0x3f3ca88f	0.736947
128	0xbd7aa3a9	-0.061191235
129	0xbf1e1fc9	-0.6176725
130	0x3e3891df	0.18024395
131	0x3f25e18e	0.64797294
132	0x3f89f769	1.0778629
133	0xbf5f8877	-0.87317604
134	0xbf83e032	-1.0302794
135	0xbf76556a	-0.9622408
136	0x3d24782a	0.04015366
137	0xbf0d52c3	-0.5520441
138	0x3df745fd	0.12073896
139	0x3f9e17c9	1.2351009
140	0xbfeaf600	-1.8356323
141	0x3f85b9ee	1.0447366
142	0x3f375fd8	0.7163062
143	0x3db4f866	0.08836441
144	0x3fd5bbe5	1.6697966
145	0xbfb079cd	-1.3787171
146	0x3e67c650	0.22634244
147	0xbf8ec1e9	-1.1152927
148	0x3f2f30dd	0.68433934
149	0xbf20985d	-0.6273249
150	0x3f3c4c70	0.73554134
151	0xbf15259a	-0.582605
152	0xbe59084a	-0.21194568
153	0xbfc94df8	-1.5726919
154	0xbf19fa1d	-0.6014727
155	0xbf3a88a6	-0.7286476
156	0xbf7162cb	-0.9429137
157	0xbf84d9c7	-1.037896
158	0x3f9f0b69	1.2425357
159	0x3edbdadd	0.42940417
160	0x3f9b125d	1.2114979
161	0x3f4112ed	0.75419503
162	0x3fc55aac	1.5418296
163	0x3f4289a8	0.75991297
164	0xbf1d2f0f	-0.6139993
165	0xbcbd3ba9	-0.023099737
166	0xbf5ee6cc	-0.8707092
167	0x3ee8bc8f	0.4545636
168	0xbfb99180	-1.4497528
169	0x40024536	2.0354743
170	0x3cd989d6	0.026554983
171	0x3fe16b9a	1.7610962
172	0xbec923c9	-0.39285114
173	0x3e3f3404	0.18672186
174	0xbea8e99c	-0.3299073
175	0x3f1d0cf4	0.6134789
176	0x3ec59731	0.38591912
177	0x3d47919d	0.048722852
178	0x3d98ef5a	0.07467528
179	0x3e12ea63	0.14347224
180	0x3fe7981f	1.8093299
181	0x3f966755	1.1750284
182	0x3ebdaefc	0.37047565
183	0x3f38efb5	0.72240764
184	0x3ef1db1e	0.47237486
185	0xbe998d14	-0.29990447
186	0xbe5854b3	-0.2112606
187	0xbeeabdbc	-0.4584788
188	0x3e6e2db7	0.23259626
189	0x3fbedd03	1.4911197
190	0x3f532833	0.82483214
191	0xbfc92e0a	-1.5717175
192	0x3ecc02c6	0.39845866
193	0xbf16cca4	-0.58906007
194	0x3f1fa4f2	0.6236106
195	0xbec6d15c	-0.38831604
196	0x3fb458fa	1.4089653
197	0x4013f3d6	2.3117576
198	0xbf81fc67	-1.0155152
199	0x3fabc64f	1.3419894
200	0x3fc360ed	1.5263954
201	0x3f31f712	0.69517624
202	0x3ee83356	0.45351666
203	0xbe0926b3	-0.13393669
204	0xbfcd4605	-1.6036993
205	0xbf97f150	-1.1870518
206	0xbf621445	-0.8831218
207	0xbfca96b3	-1.582724
208	0x3e6ca90c	0.23111361
209	0xbed540a0	-0.41650867
210	0x3f6c0d3f	0.9220771
211	0xbf7ebbb2	-0.9950515
212	0x3f6dcfba	0.9289509
213	0xbe46ff11	-0.19433238
214	0xbf977d3d	-1.1835095
215	0xbe3feb15	-0.1874202
216	0xbe9cd61c	-0.30632102
217	0xbf0a9dbf	-0.5414695
218	0x3e20c1f8	0.15698993
219	0x40299954	2.6499834
220	0x3f3be726	0.7339958
221	0xbdfbbf9b	-0.12292405
222	0xbe8b780c	-0.27240026
223	0xbe450bcb	-0.1924278
224	0x3f69ca23	0.9132406
225	0xbf915761	-1.1354791
226	0xbf8c0f9c	-1.0942264
227	0x3f7ea9dd	0.9947794
228	0xbf19b78c	-0.60045695
229	0x3f5d9967	0.865622
230	0x3d39ec94	0.045391634
231	0xbfb4b261	-1.4116937
232	0xbe98e081	-0.29858783
233	0xbf5f1bac	-0.871516
234	0x40125911	2.2866862
235	0xbe6a51ee	-0.22882816
236	0x3fa25217	1.2681302
237	0xbf27e2a5	-0.6558021
238	0xbfa231cd	-1.2671448
239	0xbe91d0ae	-0.28479522
240	0x3dbd49bf	0.092425816
241	0xbf90a428	-1.1300097
242	0x3eb6b47f	0.35684583
243	0x3e93617c	0.28785312
244	0x3d8d49ed	0.06898866
245	0x3f4a6b92	0.7907039
246	0xbfdf27b0	-1.7433987
247	0x3e510c9b	0.20414965
248	0xbd7b6cc1	-0.061383013
249	0x3e7fba60	0.2497344
250	0x3e135522	0.14387944
251	0x3f117c14	0.56829953
252	0xbde01f56	-0.10943477
253	0x3ecd5d0b	0.4011005
254	0xbe1ceb39	-0.15324105
255	0x3f81cb70	1.0140209
