results/saved_models/df_Electricity_seed_9999_model_LSTM.pkl (torch, 359880 bytes, 22 tensors)

weight_ih_mu f4 [3, 256]
0	0xbc7e6925	-0.015527998
1	0x3d6d135c	0.05787979
2	0xbd746c67	-0.059673693
3	0x3c63bd43	0.013900104
4	0x3f752041	0.9575234
5	0xbe5478b2	-0.20749167
6	0x3da68f80	0.08132839
7	0x3dc235b9	0.09482903
8	0xbdbfff07	-0.093748145
9	0x3e4c4b57	0.19950615
10	0xbe2f2b81	-0.17106439
11	0x3cb3c7d9	0.02194588
12	0x3e88af5c	0.2669629
13	0xbe80c7ee	-0.25152534
14	0x3e87ba96	0.2650954
15	0x3e602f69	0.21893086
16	0x3ebcf0aa	0.36902362
17	0x3d823f9d	0.063597895
18	0xbe5cf0fd	-0.21576305
19	0x3d305c9f	0.04305708
20	0xbe7706f0	-0.2412374
21	0xbe6ab19e	-0.22919318
22	0x3f41352a	0.75471747
23	0x3e482750	0.19546247
24	0x3cc1c620	0.023654044
25	0x3d55587d	0.052086342
26	0xbc9f71bd	-0.019463414
27	0xbc667bed	-0.014067632
28	0x3ebf75a7	0.3739445
29	0x3d771521	0.060322884
30	0xbeb73664	-0.35783684
31	0x3c9a9e21	0.01887423
32	0x3e3342a4	0.1750589
33	0xbd106a22	-0.035257466
34	0x3d82a892	0.063798085
35	0x3efa771a	0.48918992
36	0x3e1171b4	0.1420353
37	0x3dadd8d2	0.08488621
38	0x3e2ca655	0.16860326
39	0x3e46d328	0.19416487
40	0x3ec5d4c1	0.3863888
41	0x3ea4eb09	0.32210568
42	0xbec2e77c	-0.38067234
43	0x3f16828f	0.58792967
44	0xbed77b74	-0.42086375
45	0xbdc9dfa4	-0.09857109
46	0xbcafaf10	-0.021445781
47	0x3e5f5bf4	0.21812421
48	0x3eb500a5	0.35352054
49	0x3d9df9fc	0.07713696
50	0x3e9cadaf	0.3060126
51	0x3dc2fc61	0.09520794
52	0xbd7fcb1d	-0.062449563
53	0x3d9c20ea	0.07623465
54	0x3e4dd5da	0.20101109
55	0x3eb3ed90	0.35142183
56	0xbe645101	-0.22296526
57	0x3e963b32	0.29342037
58	0x3f0362d7	0.5132269
59	0x3e6f7ea8	0.2338816
60	0x3c2703d8	0.0101937875
61	0xbe9ea5b5	-0.309858
62	0x3ccc507b	0.02494072
63	0xbdc6c85d	-0.09706185
64	0x3dc737a6	0.09727411
65	0x3df0bd32	0.11754836
66	0xbd098c40	-0.03358102
67	0x3db0e33e	0.08637093
68	0x3f9cdd1a	1.2254975
69	0xbd2e519c	-0.042558298
70	0xbe581d13	-0.21104841
71	0x3ed01fdb	0.40649304
72	0xbe13b0e7	-0.14422952
73	0x3e3b8ffc	0.18316644
74	0xbc996101	-0.018723013
75	0xbc6319bc	-0.013861116
76	0x3e7f206d	0.24914713
77	0x3fdda695	1.7316462
78	0x3eb0ca44	0.34529316
79	0x3e350a07	0.17679606
80	0x3d969c25	0.07354001
81	0xbd109d6c	-0.03530638
82	0x3e22bcf5	0.15892394
83	0x3e332017	0.1749271
84	0x3aec3944	0.0018022438
85	0x3e0dff4b	0.13866918
86	0x3f595d84	0.8490832
87	0xbc475d6c	-0.01216827
88	0x3e966a34	0.29377902
89	0x3deb179a	0.11479111
90	0xbc14c76f	-0.009080752
91	0x3d2d5f82	0.04232741
92	0x3ede49a6	0.43415564
93	0x3eac1aa7	0.33614084
94	0xbea7e341	-0.32790568
95	0xbe11f681	-0.1425419
96	0x3e249e63	0.16076045
97	0x3edc06e8	0.4297402
98	0x3e7c87cd	0.24661179
99	0x3f239d2e	0.6391171
100	0x3ea26693	0.31718883
101	0x3e416649	0.18886675
102	0x3d965ed0	0.07342303
103	0x3dcc5379	0.09976859
104	0x3e72ae38	0.23699272
105	0x3f0d5a31	0.55215746
106	0xbe242d24	-0.16032845
107	0x3f9f805a	1.2461045
108	0xbeaabc1b	-0.33346638
109	0x3e156d02	0.14592364
110	0xbcb4e662	-0.022082511
111	0x3eba9d71	0.36448243
112	0x3ea06dd0	0.3133378
113	0xbddd7cde	-0.10814832
114	0x3e938b37	0.2881715
115	0x3da98b8c	0.082785696
116	0xbe73990a	-0.23788849
117	0x3da26c3b	0.079307996
118	0x3e8af2bc	0.27138317
119	0x3e0d890f	0.13821815
120	0xbe0fc28d	-0.14039059
121	0x3f7f54d8	0.99738836
122	0x3f86b558	1.0524092
123	0x3e9513ce	0.29116672
124	0x3da6e52f	0.08149182
125	0x3fe1efcb	1.7651304
126	0x3e892585	0.26786438
127	0xbe6ea4fe	-0.23305127
128	0xbaaf5c8f	-0.0013379025
129	0xbe05d00e	-0.13067648
130	0x3d23a9b3	0.03995676
131	0xbd00c03e	-0.031433336
132	0xbf67b94e	-0.9051713
133	0xbe1dc1f6	-0.15406021
134	0xbdd13ea1	-0.10217024
135	0x3e5a5151	0.21320082
136	0x3edfde37	0.43724224
137	0x3c0b14d3	0.008488852
138	0x3d0efe4b	0.03491048
139	0x3def6cc0	0.11690664
140	0xbe42658b	-0.18984048
141	0xbf2b3e9d	-0.66892415
142	0xbe298f3e	-0.16558549
143	0xbe3426b9	-0.17592897
144	0xbe3ad632	-0.18245772
145	0xbd21b90b	-0.03948311
146	0xbd8ce264	-0.06879118
147	0xbef52a73	-0.4788395
148	0x3d5d8caa	0.054089226
149	0x3e1c973f	0.15292071
150	0x3eb471bf	0.3524303
151	0xbd1da6ad	-0.038489033
152	0xbe1def2d	-0.1542327
153	0xbe8e666d	-0.2781252
154	0x3df5d112	0.120027676
155	0xbd3c78fc	-0.046013817
156	0xbed8e076	-0.4235875
157	0x3c8ee1e6	0.017441701
158	0xbe3c2aac	-0.18375653
159	0x3bc2da63	0.005946444
160	0xbee97f92	-0.4560514
161	0xbe73a795	-0.23794396
162	0xbe38a1fc	-0.18030542
163	0x3eb3855a	0.35062677
164	0xbe29a629	-0.16567291
165	0xbeb62828	-0.35577512
166	0xbd3cf2b9	-0.046129916
167	0x3e57cd6f	0.2107446
168	0x3e008023	0.1254888
169	0x3e18e0a1	0.14929439
170	0x3dea82c8	0.11450726
171	0xbf8f2cd6	-1.1185558
172	0xbf219b40	-0.6312752
173	0x3e0e234b	0.1388065
174	0x3dae154d	0.085001566
175	0x3e53e810	0.20693994
176	0xbe29cc17	-0.1658176
177	0xbe4014f1	-0.18757989
178	0x3e61e38e	0.22059461
179	0x3e16b251	0.1471646
180	0x3bfb3365	0.007666039
181	0xbe303d65	-0.1721092
182	0x3e2460ef	0.16052602
183	0xbe890d88	-0.26768136
184	0x3d7a5929	0.061120186
185	0xbf556841	-0.83362204
186	0xbef52548	-0.47880006
187	0xbd8a9a61	-0.06767727
188	0x3df5f836	0.12010233
189	0xbf697e5f	-0.9120845
190	0xbe365167	-0.1780449
191	0xbdb6fc5d	-0.08934853
192	0x3ddfcd25	0.109278
193	0x3e385469	0.1800095
194	0xbe30d4e7	-0.17268716
195	0x3e41ea6e	0.18937084
196	0x3f93b7b1	1.1540433
197	0xbeb131ff	-0.34608456
198	0xbe8e5670	-0.27800322
199	0x3f1364f0	0.57575893
200	0x3c3e7a56	0.011625847
201	0xbd64c584	-0.055852428
202	0x3d8bf630	0.06834066
203	0xbe0dd516	-0.13850817
204	0x3ed294f0	0.41129255
205	0x3ee59837	0.44842693
206	0x3ed86920	0.42267704
207	0x3e2df2c0	0.16987133
208	0x3da6dc8a	0.08147533
209	0xbdbf3485	-0.09336189
210	0xbd881214	-0.06644073
211	0x3e267837	0.16256796
212	0xbe009d6f	-0.12560056
213	0x3e190353	0.14942674
214	0x3f33afd1	0.7019015
215	0x3cdfee29	0.027335243
216	0xbd8c8129	-0.06860573
217	0x3cf90b1a	0.030400801
218	0xbe6e91be	-0.23297784
219	0xbb96c6c1	-0.00460133
220	0x3ec5d7dd	0.38641253
221	0x3e8670aa	0.2625783
222	0xbec193f9	-0.37808207
223	0x3d4d5c06	0.05013659
224	0x3f1dbce4	0.6161635
225	0x3e18ebe6	0.14933738
226	0x3ed690e8	0.4190743
227	0x3f2ce586	0.67537725
228	0x3ecd00f8	0.40039802
229	0x3e054794	0.13015586
230	0x3da82ad5	0.082112946
231	0x3eb0ebe5	0.34554973
232	0x3eaa7c13	0.33297786
233	0x3f321d11	0.695756
234	0xbe6347ee	-0.22195408
235	0x3fbebba9	1.4901019
236	0xbededf56	-0.43529767
237	0x3e437e18	0.1909107
238	0xbe8af0cc	-0.27136838
239	0x3ea23257	0.3167903
240	0x3e8e353f	0.27775
241	0xbd412e8b	-0.047163527
242	0x3e659a45	0.2242213
243	0x3e31dc06	0.17369089
244	0xbe15f35f	-0.1464362
245	0x3e44297f	0.19156455
246	0x3e6781c1	0.22608091
247	0x3d8d8bd2	0.06911434
248	0xbe7a5840	-0.24447727
249	0x3f8917f2	1.0710433
250	0x3f22b520	0.63557625
251	0x3f044fff	0.51684564
252	0x3e3fc968	0.18729174
253	0xbe310646	-0.1728755
254	0x3ea620f9	0.3244703
255	0xbe1fad8b	-0.15593545

weight_ih_rho f4 [3, 256]
0	0xc0c1c7b7	-6.0556293
1	0xc0c81b53	-6.2533355
2	0xc0bfec3f	-5.9975886
3	0xc0bebb33	-5.9603515
4	0xc0c531c8	-6.162327
5	0xc0bd1c81	-5.9097295
6	0xc0bd9757	-5.924724
7	0xc0b9f3a2	-5.8109903
8	0xc0bac21c	-5.836195
9	0xc0c16efe	-6.044799
10	0xc0be1249	-5.939732
11	0xc0bcca00	-5.899658
12	0xc0c1f439	-6.0610623
13	0xc0c3bba8	-6.1166573
14	0xc0ba9850	-5.831093
15	0xc0be0b14	-5.9388523
16	0xc0bcbe44	-5.898226
17	0xc0beaa45	-5.958285
18	0xc0c03da7	-6.007526
19	0xc0be15fb	-5.940183
20	0xc0bcca22	-5.8996744
21	0xc0c7fde0	-6.2497406
22	0xc0be6996	-5.950389
23	0xc0be71ae	-5.951377
24	0xc0bf4fe4	-5.9785023
25	0xc0bc09a2	-5.876176
26	0xc0c53b39	-6.1634793
27	0xc0c0ace7	-6.0211062
28	0xc0befef8	-5.968624
29	0xc0be9874	-5.95611
30	0xc0c42e59	-6.1306577
31	0xc0bf7105	-5.9825463
32	0xc0c42a62	-6.1301737
33	0xc0c5439f	-6.1645045
34	0xc0b85e36	-5.7615004
35	0xc0be0331	-5.9378896
36	0xc0c312ca	-6.0960436
37	0xc0bff654	-5.9988194
38	0xc0c7352e	-6.2252417
39	0xc0bc14b2	-5.8775263
40	0xc0bcc635	-5.899195
41	0xc0baef1c	-5.841688
42	0xc0c05cf8	-6.0113487
43	0xc0c091dd	-6.0178056
44	0xc0ba04da	-5.813092
45	0xc0be5758	-5.948162
46	0xc0bd4b3c	-5.915434
47	0xc0bb045c	-5.844282
48	0xc0bcf613	-5.9050384
49	0xc0c00461	-6.0005345
50	0xc0c17755	-6.045817
51	0xc0bdd91a	-5.9327517
52	0xc0bc0f9e	-5.8769064
53	0xc0c19a33	-6.050073
54	0xc0c03d98	-6.007519
55	0xc0bd7796	-5.920848
56	0xc0c5863d	-6.1726365
57	0xc0b58d19	-5.673474
58	0xc0b9483c	-5.7900677
59	0xc0c77da8	-6.234089
60	0xc0bc8de5	-5.892321
61	0xc0bfe0ca	-5.99619
62	0xc0bf579a	-5.9794436
63	0xc0c40f22	-6.1268473
64	0xc0bf2a2e	-5.973899
65	0xc0be19c9	-5.9406476
66	0xc0bb21c7	-5.847873
67	0xc0bfba6e	-5.9915075
68	0xc0c4b982	-6.147645
69	0xc0c3765b	-6.1081977
70	0xc0ba679b	-5.825147
71	0xc0c0461d	-6.0085588
72	0xc0c24156	-6.0704756
73	0xc0bd4759	-5.9149594
74	0xc0be791c	-5.952284
75	0xc0c121b5	-6.0353646
76	0xc0bf807b	-5.9844337
77	0xc0ccd735	-6.4012704
78	0xc0c0367d	-6.0066514
79	0xc0b774bb	-5.7329993
80	0xc0b4527b	-5.6350684
81	0xc0c74e88	-6.2283363
82	0xc0c1b29c	-6.053053
83	0xc0c03fc7	-6.0077853
84	0xc0bf1a56	-5.971965
85	0xc0c25afd	-6.073607
86	0xc0c4a47e	-6.1450796
87	0xc0bb6a7a	-5.8567476
88	0xc0be9b3a	-5.9564486
89	0xc0c0fcd4	-6.030863
90	0xc0a7b607	-5.24097
91	0xc0b9b2ae	-5.8030615
92	0xc0c93387	-6.28754
93	0xc0c46065	-6.136767
94	0xc0b86c4c	-5.76322
95	0xc0c6c9df	-6.2121425
96	0xc0b78df0	-5.7360764
97	0xc0c5ccb7	-6.1812396
98	0xc0bc0f0e	-5.8768377
99	0xc0be330d	-5.943732
100	0xc0c1b052	-6.0527735
101	0xc0bf68b4	-5.981531
102	0xc0baac30	-5.833519
103	0xc0bd5f6c	-5.917898
104	0xc0bfc766	-5.9930906
105	0xc0c7515b	-6.228681
106	0xc0bd75bf	-5.9206233
107	0xc0b4651f	-5.637344
108	0xc0c12bd6	-6.036601
109	0xc0ca1e5d	-6.3162065
110	0xc0c5c5e9	-6.180409
111	0xc0c1742d	-6.0454316
112	0xc0bf65d7	-5.9811816
113	0xc0c06c88	-6.0132484
114	0xc0b76a7b	-5.731748
115	0xc0bef5ba	-5.967496
116	0xc0bb7379	-5.857846
117	0xc0bb4443	-5.8520827
118	0xc0bf9ebc	-5.9881268
119	0xc0bd9324	-5.9242115
120	0xc0c78797	-6.2353015
121	0xc0cda7b4	-6.4267216
122	0xc0c5847e	-6.1724234
123	0xc0bf42ea	-5.976918
124	0xc0bd21be	-5.910369
125	0xc0c85aed	-6.2610993
126	0xc0bfb48c	-5.9907894
127	0xc0c2abe7	-6.083484
128	0xc0bbf7ff	-5.874023
129	0xc0c063bc	-6.0121746
130	0xc0bd919e	-5.9240255
131	0xc0bcce9d	-5.9002213
132	0xc0be0fc5	-5.939425
133	0xc0c693c5	-6.2055383
134	0xc0bff0ad	-5.9981294
135	0xc0ba6808	-5.825199
136	0xc0c3d3e0	-6.1196136
137	0xc0c21c91	-6.065987
138	0xc0c83c92	-6.257394
139	0xc0c33f46	-6.101474
140	0xc0c42a91	-6.130196
141	0xc0be96c5	-5.9559045
142	0xc0c35855	-6.1045327
143	0xc0c42941	-6.130036
144	0xc0c74624	-6.227312
145	0xc0bb5550	-5.854164
146	0xc0c50d25	-6.1578546
147	0xc0b49fec	-5.6445217
148	0xc0c430fe	-6.1309805
149	0xc0c1e6ff	-6.059448
150	0xc0b9a933	-5.801904
151	0xc0b924a3	-5.7857223
152	0xc0c43d3d	-6.1324754
153	0xc0c559a2	-6.1671915
154	0xc0c1a4fe	-6.0513906
155	0xc0c1b654	-6.053507
156	0xc0bf5405	-5.9790063
157	0xc0be2a21	-5.9426427
158	0xc0b7515b	-5.728681
159	0xc0c79de1	-6.2380223
160	0xc0cec4eb	-6.461538
161	0xc0c0ba68	-6.0227547
162	0xc0c29e46	-6.0818205
163	0xc0b959de	-5.79222
164	0xc0b85ef5	-5.7615914
165	0xc0c91bf2	-6.2846613
166	0xc0c7edc2	-6.247773
167	0xc0c7c2f8	-6.24255
168	0xc0c3d864	-6.120165
169	0xc0c40b89	-6.126408
170	0xc0bd8da0	-5.923538
171	0xc0c0d0c8	-6.025486
172	0xc0c5b48a	-6.1782885
173	0xc0be30a5	-5.943438
174	0xc0c3027d	-6.0940537
175	0xc0be357b	-5.9440284
176	0xc0b9876a	-5.79778
177	0xc0b8f614	-5.780039
178	0xc0c2ec11	-6.0913167
179	0xc0c485f8	-6.1413536
180	0xc0bfeeae	-5.9978857
181	0xc0c4d8cf	-6.151466
182	0xc0bf8063	-5.984422
183	0xc0c45662	-6.135545
184	0xc0c0634f	-6.0121226
185	0xc0cd1e82	-6.409974
186	0xc0bb73f8	-5.8579063
187	0xc0bfe884	-5.9971333
188	0xc0c2cb01	-6.0872808
189	0xc0c2253a	-6.0670443
190	0xc0c1a05b	-6.0508246
191	0xc0ba09fc	-5.813719
192	0xc0c1342b	-6.037618
193	0xc0c00ddf	-6.0016932
194	0xc0bce1ce	-5.902564
195	0xc0bbea4a	-5.8723497
196	0xc0bdb89f	-5.9287868
197	0xc0c6a85d	-6.208052
198	0xc0c0dca8	-6.0269356
199	0xc0bf09d4	-5.9699497
200	0xc0c07205	-6.0139184
201	0xc0c6e35a	-6.215253
202	0xc0c008b0	-6.0010605
203	0xc0ba7f23	-5.8280196
204	0xc0beb660	-5.9597626
205	0xc0c4b672	-6.147271
206	0xc0c61ec4	-6.1912556
207	0xc0c7f125	-6.2481866
208	0xc0be7c96	-5.9527082
209	0xc0c2f4dc	-6.09239
210	0xc0c2cc9a	-6.087476
211	0xc0be4e4f	-5.947059
212	0xc0c29af8	-6.081417
213	0xc0c373f6	-6.1079054
214	0xc0ba8aa3	-5.8294234
215	0xc0c1639f	-6.043411
216	0xc0bb63c9	-5.855931
217	0xc0bd6a3e	-5.919219
218	0xc0b5799f	-5.6710963
219	0xc0c13cdd	-6.0386796
220	0xc0c23e76	-6.0701246
221	0xc0bec1c0	-5.961151
222	0xc0bf7801	-5.983399
223	0xc0bbf684	-5.8738422
224	0xc0c07061	-6.013718
225	0xc0bf465a	-5.977338
226	0xc0c6c89c	-6.2119884
227	0xc0c35ee8	-6.105335
228	0xc0ba316c	-5.818533
229	0xc0c29300	-6.0804443
230	0xc0c4bef0	-6.148308
231	0xc0c1df38	-6.0584984
232	0xc0bb8d25	-5.8609796
233	0xc0c9d2ce	-6.306983
234	0xc0c13e06	-6.038821
235	0xc0c6cd80	-6.2125854
236	0xc0c5f796	-6.186473
237	0xc0c0254b	-6.0045524
238	0xc0bf313b	-5.9747596
239	0xc0c38163	-6.1095443
240	0xc0c24135	-6.07046
241	0xc0bdcb72	-5.9310846
242	0xc0c043d0	-6.008278
243	0xc0c02bd9	-6.0053525
244	0xc0bad73e	-5.8387747
245	0xc0ba2f13	-5.8182464
246	0xc0c0fd46	-6.030917
247	0xc0bfde25	-5.9958673
248	0xc0bcdb6e	-5.901786
249	0xc0c335ac	-6.1003017
250	0xc0c224b8	-6.0669823
251	0xc0c2ce36	-6.087672
252	0xc0c051c9	-6.0099835
253	0xc0b13ffc	-5.5390606
254	0xc0c0103b	-6.0019813
255	0xc0c09eaa	-6.019368

weight_hh_mu f4 [64, 256]
0	0x3cdd661f	0.027026234
1	0x3e2e9fcc	0.17053145
2	0x3e0b641a	0.13612404
3	0x3de8b79f	0.11363148
4	0xbec6d175	-0.38831678
5	0x3de0247b	0.10944458
6	0x3ddec175	0.10876743
7	0xbc590fd4	-0.013248403
8	0x3d8daa56	0.069172546
9	0x3db5d940	0.08879328
10	0xbd499051	-0.049209896
11	0x3da227cd	0.07917748
12	0xbdd9e7aa	-0.106398895
13	0xbe115559	-0.14192714
14	0xbd9199f3	-0.071094416
15	0xbc845136	-0.016152006
16	0x3c7506c5	0.014955227
17	0x3e78471f	0.2424588
18	0xbe8cc829	-0.2749646
19	0x3db76ae6	0.08955936
20	0x3ce22535	0.027605632
21	0xbe5b9294	-0.21442634
22	0x3e42b33a	0.19013682
23	0x3e249db8	0.1607579
24	0xbd66c38b	-0.056338828
25	0x3d2c8b15	0.042124826
26	0x3dad0d1b	0.08449765
27	0x3c81f58a	0.015864152
28	0xbdbd88f9	-0.09254641
29	0xbbb2b9c1	-0.0054542725
30	0x3e703b63	0.23460154
31	0x3e77f16e	0.24213192
32	0xbf498b8f	-0.78728575
33	0xbda85257	-0.0821883
34	0x3e1b66a5	0.15175875
35	0xbe1796aa	-0.14803568
36	0xbc24a01f	-0.0100479415
37	0xbe987f21	-0.29784492
38	0xbc3b2199	-0.0114215845
39	0xbd2b1af4	-0.04177375
40	0x3d00a4c0	0.031407118
41	0x3eb2d743	0.34929857
42	0x3eeed0a6	0.4664356
43	0xbde0dc7b	-0.10979553
44	0xbf1bb6c5	-0.6082576
45	0x3e017bec	0.12644929
46	0xbde5edf1	-0.11227024
47	0xbe260095	-0.1621116
48	0x3d38333c	0.044970736
49	0xbd5cd983	-0.053918373
50	0xbb7fac7f	-0.0039012728
51	0xbb342720	-0.002748914
52	0x3bf39bfb	0.007434366
53	0xbd6bb60c	-0.05754666
54	0xbe0c94a6	-0.1372858
55	0xbd8d2f3d	-0.068937756
56	0x3dcca825	0.099930085
57	0x3e3c2211	0.1837237
58	0x3e3a865d	0.18215318
59	0xbe03dda6	-0.12877521
60	0x3da635b3	0.08115711
61	0x3d6cbb47	0.05779579
62	0x3cc77978	0.024349913
63	0x3d901df4	0.07036963
64	0xbdbc545f	-0.0919578
65	0xbcb2c5d6	-0.021822851
66	0xbcfdf109	-0.030998724
67	0x3dc7a802	0.09748842
68	0xbe636c63	-0.22209315
69	0x3e3da1b5	0.18518718
70	0x3e0658e4	0.13119847
71	0xbc31a07d	-0.010841486
72	0x3dbda8af	0.092606895
73	0xbd66ebc0	-0.056377172
74	0x3d3c4464	0.04596366
75	0x3df5f454	0.120094925
76	0x3d807dbd	0.06273983
77	0x3e9c75f2	0.30558735
78	0x3d7c9563	0.061665904
79	0x3e334ab7	0.1750897
80	0x3dda2642	0.10651828
81	0x3e0036fc	0.12520975
82	0xbee3fc48	-0.44528413
83	0x3e1f5994	0.15561515
84	0xbd70927e	-0.058733456
85	0xbb7048e4	-0.003666454
86	0x3df64776	0.12025349
87	0x3da0a6dd	0.07844327
88	0xbb246d8c	-0.002508971
89	0x3e4831f8	0.19550312
90	0x3d475d40	0.048672915
91	0x3e4c1a90	0.19932008
92	0xbd41f03b	-0.047348242
93	0xbde34196	-0.11096494
94	0x3e412258	0.18860757
95	0xbc222ebe	-0.0098988395
96	0x3f1e5ef1	0.6186362
97	0xbd6325de	-0.055456035
98	0xbc6343bd	-0.0138711305
99	0x3dc0aa88	0.09407526
100	0xbc388d00	-0.011264086
101	0x3dc99703	0.09843256
102	0xbcbfdb04	-0.023419864
103	0x3d8884fe	0.06665991
104	0x3d4bd869	0.04976693
105	0x3e90a6cf	0.28252265
106	0x3e369c28	0.17833006
107	0xbe9dd187	-0.3082392
108	0x3ead8ffd	0.33898917
109	0x3ce31a86	0.027722608
110	0x3d781ced	0.06057446
111	0xbd4cb4f0	-0.049977243
112	0xbdddcf73	-0.108305834
113	0x3da62562	0.08112599
114	0xbe34fd99	-0.17674865
115	0xbc1dcbdc	-0.009631123
116	0xbc0634cd	-0.0081913
117	0x3d3ffb7b	0.04687069
118	0xbe2e6c6d	-0.17033549
119	0x3dcc6525	0.09980229
120	0x3e18a7cd	0.14907761
121	0xbcbaa257	-0.022782488
122	0x3f00d54c	0.50325465
123	0x3e22f1d5	0.15912564
124	0x3ebac426	0.36477774
125	0x3e8433ef	0.25820872
126	0x3e210295	0.15723641
127	0x3e524d1f	0.20537232
128	0xbea522c6	-0.32253093
129	0x3dc6c0cc	0.09704742
130	0x3e255911	0.16147257
131	0xbd00f72e	-0.03148573
132	0xbea2981c	-0.31756675
133	0x3e78fb73	0.2431467
134	0x39969821	0.00028723574
135	0xbd8c033a	-0.06836553
136	0x3d88f49f	0.06687283
137	0x3e2e7dbd	0.17040153
138	0x3e7a46da	0.2444109
139	0x3e5a2e10	0.21306634
140	0x3da840a0	0.08215451
141	0x3cf69dcb	0.030104538
142	0x3d412039	0.04714987
143	0x3cedbc3f	0.029020427
144	0xbd2a2ab7	-0.041544642
145	0xbd4f0221	-0.05053914
146	0x3e62e71c	0.22158474
147	0xbdf3ce89	-0.11904628
148	0xbd34a48e	-0.044102244
149	0xbc99241b	-0.018693974
150	0x3e36048f	0.17775176
151	0xbd137a6a	-0.036005415
152	0xbdb49b0f	-0.088186376
153	0xbb5beb3e	-0.0033556963
154	0x3e8fdf32	0.28099972
155	0x3d6d3395	0.05791052
156	0xbd50fb10	-0.05102068
157	0x3dbf4ab3	0.093404196
158	0x3d012f5e	0.031539313
159	0xbbaeda37	-0.005336072
160	0xbdfe84d0	-0.12427676
161	0xbca0762f	-0.019587604
162	0xbddcfe6a	-0.10790713
163	0xbdc73853	-0.0972754
164	0x3b7f538d	0.0038959712
165	0x3c795965	0.015219067
166	0x3cd6e623	0.026232785
167	0x3b3b3354	0.002856453
168	0x3d8ecace	0.06972276
169	0x3ccb3bf5	0.024808863
170	0xbe480108	-0.19531643
171	0xbdfddba0	-0.12395406
172	0xbdb56fb5	-0.08859197
173	0x3ba16238	0.0049250387
174	0xbdf4be43	-0.11950352
175	0xbd9a8709	-0.07545287
176	0x3dfbaaef	0.12288462
177	0x3d670df2	0.056409784
178	0x3ca22047	0.019790782
179	0x3ea610c8	0.32434678
180	0xbe810085	-0.2519571
181	0x3db627c2	0.08894302
182	0xbe13e3c5	-0.14442356
183	0xbe101d47	-0.14073668
184	0x3baca049	0.005268131
185	0xbdc357da	-0.09538241
186	0xbea93d1e	-0.3305444
187	0x3e1d7a49	0.1537868
188	0x3cc00ac0	0.023442626
189	0x3e15dc56	0.14634833
190	0x3d3fad5c	0.046796188
191	0x3e2f1c4e	0.17100641
192	0xbe2b6566	-0.16737899
193	0xbb4dca4c	-0.0031401096
194	0x3da529e7	0.08064633
195	0x3e321269	0.17389835
196	0xbe847eb0	-0.25877905
197	0xbcb7bc69	-0.022428708
198	0x3d8e5dd8	0.06951493
199	0x3da4313d	0.08017204
200	0x3e33d8fb	0.1756324
201	0x3cfbc818	0.03073506
202	0xbc583a46	-0.013197487
203	0xbdcdf8ef	-0.10057246
204	0xbd823788	-0.06358248
205	0xbe361170	-0.1778009
206	0xbdc633f5	-0.09677879
207	0xbbb63e00	-0.00556159
208	0xbd955b1c	-0.07292768
209	0xbd54c6e2	-0.051947482
210	0xbec0cb66	-0.3765518
211	0x3e1b9bd8	0.15196168
212	0x3e0fcce6	0.14043006
213	0x3bfaaa2c	0.0076496806
214	0x3ee0198d	0.43769494
215	0x3daccb60	0.08437228
216	0x3d93362d	0.071880676
217	0x3db5d8db	0.088792525
218	0x3dda70b2	0.10666026
219	0x3e0f5494	0.13997108
220	0xbd2159ca	-0.03939227
221	0x3dee47e7	0.11634808
222	0x3e6a3d90	0.22875047
223	0x3e081267	0.1328827
224	0xbf36a9a7	-0.7135262
225	0x3d8dcc75	0.06923763
226	0x3eab68a0	0.3347826
227	0xbc9d4b97	-0.019201083
228	0x3d8e7631	0.06956137
229	0xbe1920f9	-0.14953984
230	0x3e22c49c	0.15895313
231	0xbbc70133	-0.006073141
232	0xbc316a4b	-0.010828565
233	0x3e514dcb	0.20439832
234	0x3e9709a5	0.29499546
235	0xbd8545ad	-0.0650743
236	0xbf1ec399	-0.6201721
237	0x3dde6d5c	0.108607024
238	0x3dbed2ea	0.093175724
239	0x3e502dc3	0.20329957
240	0xbe0d3548	-0.13789856
241	0xbda97b11	-0.08275426
242	0x3d977792	0.07395853
243	0x3d4c18a4	0.049828187
244	0x3e5374aa	0.20649973
245	0x3dbbe296	0.09174077
246	0xbdcb12a9	-0.099156685
247	0x3d2cffc9	0.042236123
248	0xbde0aa9d	-0.10970042
249	0xbe430587	-0.19045077
250	0x3e4116c6	0.18856344
251	0x3d5b024a	0.05346898
252	0xbe1011d5	-0.14069302
253	0x3d88faa4	0.06688431
254	0x3ca88e13	0.020575559
255	0x3c91f939	0.017819034

weight_hh_rho f4 [64, 256]
0	0xc0c470e4	-6.1387806
1	0xc0c3f9e5	-6.1242547
2	0xc0bd734a	-5.9203234
3	0xc0c2a5ae	-6.0827246
4	0xc0bc96cf	-5.8934093
5	0xc0be13ec	-5.939932
6	0xc0bfd815	-5.995127
7	0xc0be6a61	-5.9504857
8	0xc0bd71bb	-5.920133
9	0xc0c4862c	-6.1413784
10	0xc0c12dd7	-6.0368457
11	0xc0bdd2ea	-5.9319963
12	0xc0bedf2d	-5.964743
13	0xc0c0d1dc	-6.0256176
14	0xc0c02648	-6.004673
15	0xc0c23685	-6.069155
16	0xc0bfdbca	-5.9955797
17	0xc0c1b8c3	-6.053804
18	0xc0c80e8d	-6.251776
19	0xc0bfbeb4	-5.992029
20	0xc0c1faa8	-6.0618477
21	0xc0c49bf6	-6.144038
22	0xc0bb3bb7	-5.8510394
23	0xc0ba5c08	-5.8237343
24	0xc0c14212	-6.039315
25	0xc0c42311	-6.1292806
26	0xc0bcba9e	-5.8977804
27	0xc0be00a1	-5.937577
28	0xc0c1a247	-6.0510592
29	0xc0b80293	-5.750314
30	0xc0b9eeec	-5.8104153
31	0xc0c0fe0e	-6.0310125
32	0xc0bb6b9f	-5.8568873
33	0xc0c45c21	-6.136246
34	0xc0bca945	-5.895663
35	0xc0c68ab4	-6.2044315
36	0xc0c31d9c	-6.0973644
37	0xc0c266a9	-6.0750318
38	0xc0c43e3d	-6.1325974
39	0xc0c0a321	-6.019913
40	0xc0be407c	-5.9453716
41	0xc0c008b3	-6.001062
42	0xc0be09b5	-5.938685
43	0xc0bc13ef	-5.8774333
44	0xc0bda235	-5.9260507
45	0xc0c06c1a	-6.013196
46	0xc0c1a75a	-6.0516787
47	0xc0c51611	-6.1589437
48	0xc0b55d0b	-5.667608
49	0xc0c88306	-6.265994
50	0xc0c668df	-6.2003016
51	0xc0bfc93a	-5.993314
52	0xc0bcd852	-5.9014063
53	0xc0b99730	-5.7997055
54	0xc0c04a73	-6.009088
55	0xc0c17e09	-6.046635
56	0xc0ba672a	-5.8250933
57	0xc0bc1faa	-5.8788652
58	0xc0c03f07	-6.007694
59	0xc0c0694f	-6.012855
60	0xc0bc3a5c	-5.882124
61	0xc0c446e2	-6.1336527
62	0xc0c62301	-6.191773
63	0xc0c057fe	-6.010741
64	0xc0c0d5ad	-6.0260835
65	0xc0bff605	-5.9987817
66	0xc0bfe7ec	-5.997061
67	0xc0bd236a	-5.910573
68	0xc0beaa99	-5.958325
69	0xc0be916a	-5.9552507
70	0xc0c22584	-6.0670795
71	0xc0c1165a	-6.0339785
72	0xc0bab4ea	-5.834584
73	0xc0bee2ba	-5.9651766
74	0xc0beec0f	-5.9663157
75	0xc0c1dbbc	-6.058073
76	0xc0c307d1	-6.094704
77	0xc0beaed0	-5.9588394
78	0xc0c6de7f	-6.21466
79	0xc0c583f9	-6.17236
80	0xc0be91da	-5.955304
81	0xc0c04f1c	-6.009657
82	0xc0bb6c20	-5.856949
83	0xc0bd96de	-5.9246664
84	0xc0bb78d8	-5.8585014
85	0xc0bdf2db	-5.9358954
86	0xc0bc8fa3	-5.892534
87	0xc0c668ba	-6.200284
88	0xc0bde5d5	-5.9343057
89	0xc0c038fa	-6.006955
90	0xc0bb565e	-5.854293
91	0xc0b70640	-5.719513
92	0xc0bfd3e3	-5.994615
93	0xc0c56a52	-6.1692286
94	0xc0c35343	-6.103914
95	0xc0bcfee4	-5.9061146
96	0xc0ba0178	-5.8126793
97	0xc0bd6c22	-5.91945
98	0xc0be9fc7	-5.957004
99	0xc0beafc7	-5.958957
100	0xc0c09424	-6.0180836
101	0xc0c74ec8	-6.228367
102	0xc0c406cb	-6.125829
103	0xc0c04d03	-6.009401
104	0xc0bb9ed5	-5.8631387
105	0xc0c374f4	-6.1080265
106	0xc0c3a399	-6.1137204
107	0xc0c0cd1c	-6.025038
108	0xc0c640b5	-6.195399
109	0xc0bde5af	-5.9342875
110	0xc0c226bd	-6.067229
111	0xc0c102fc	-6.0316143
112	0xc0bf34f9	-5.9752164
113	0xc0c44871	-6.133843
114	0xc0bea0ee	-5.9571447
115	0xc0bdf63b	-5.9363074
116	0xc0c1a781	-6.0516973
117	0xc0c15aff	-6.042358
118	0xc0be1528	-5.9400826
119	0xc0be32f1	-5.9437184
120	0xc0b98690	-5.797676
121	0xc0c0ae8d	-6.0213075
122	0xc0bd47bf	-5.915008
123	0xc0c0707b	-6.0137305
124	0xc0c1c6a2	-6.055497
125	0xc0be8e11	-5.954842
126	0xc0c6c8a3	-6.211992
127	0xc0c34f0a	-6.1033983
128	0xc0be3cb0	-5.944908
129	0xc0c16b0f	-6.0443187
130	0xc0bed4da	-5.963483
131	0xc0c67e08	-6.2028847
132	0xc0c73f72	-6.226495
133	0xc0be70cb	-5.9512687
134	0xc0c0e348	-6.0277443
135	0xc0c17689	-6.0457196
136	0xc0bd5ced	-5.9175935
137	0xc0c74f07	-6.228397
138	0xc0bfee91	-5.997872
139	0xc0c11820	-6.034195
140	0xc0bf32db	-5.974958
141	0xc0c59c27	-6.1753116
142	0xc0bfdfde	-5.9960775
143	0xc0bbe992	-5.872262
144	0xc0c2b738	-6.0848656
145	0xc0c20496	-6.06306
146	0xc0c4af3f	-6.1463923
147	0xc0bcface	-5.905616
148	0xc0bf326f	-5.9749064
149	0xc0bbb0e8	-5.865345
150	0xc0c3ab01	-6.1146245
151	0xc0c7819f	-6.234573
152	0xc0c2391b	-6.069471
153	0xc0c11706	-6.0340605
154	0xc0b764bb	-5.731046
155	0xc0c6ff4a	-6.218663
156	0xc0bbe2f7	-5.8714557
157	0xc0b9be67	-5.8044925
158	0xc0bf3738	-5.9754906
159	0xc0c6b5d0	-6.209694
160	0xc0bede96	-5.964671
161	0xc0b7856c	-5.735037
162	0xc0c049f7	-6.009029
163	0xc0c37e98	-6.1092033
164	0xc0bdda55	-5.932902
165	0xc0c44af0	-6.1341476
166	0xc0bd2191	-5.9103475
167	0xc0c62092	-6.191476
168	0xc0bcb624	-5.897234
169	0xc0b7bece	-5.7420416
170	0xc0b61654	-5.6902256
171	0xc0bc30eb	-5.8809714
172	0xc0bd65a7	-5.9186587
173	0xc0c4583e	-6.1357718
174	0xc0bfbf7d	-5.992125
175	0xc0c7bb96	-6.2416487
176	0xc0c38641	-6.1101384
177	0xc0be551e	-5.9478903
178	0xc0bde237	-5.933864
179	0xc0c79814	-6.237314
180	0xc0c3332e	-6.0999975
181	0xc0c2a8a3	-6.0830855
182	0xc0b9ae0b	-5.8024955
183	0xc0c220af	-6.0664897
184	0xc0befff7	-5.9687457
185	0xc0c3e38f	-6.121528
186	0xc0c30f7b	-6.0956397
187	0xc0c406ef	-6.1258464
188	0xc0be8254	-5.953409
189	0xc0bee69d	-5.965651
190	0xc0c1a8b1	-6.051842
191	0xc0c38060	-6.109421
192	0xc0c174cf	-6.045509
193	0xc0bd7f8f	-5.921821
194	0xc0c1fbd3	-6.0619903
195	0xc0bff015	-5.998057
196	0xc0b80965	-5.751147
197	0xc0c065a4	-6.0124073
198	0xc0c40dff	-6.1267085
199	0xc0becc05	-5.9624047
200	0xc0c44c15	-6.1342874
201	0xc0b7e36b	-5.746511
202	0xc0c08818	-6.016613
203	0xc0bd281a	-5.911145
204	0xc0be2fd9	-5.943341
205	0xc0bc3386	-5.8812895
206	0xc0c188a7	-6.047931
207	0xc0c42037	-6.1289325
208	0xc0c14d6e	-6.040702
209	0xc0bf50bb	-5.978605
210	0xc0c1d819	-6.057629
211	0xc0c12cba	-6.03671
212	0xc0be69b9	-5.9504056
213	0xc0bfe405	-5.9965844
214	0xc0bf9b4a	-5.987706
215	0xc0bbaa5e	-5.864547
216	0xc0bf141b	-5.9712043
217	0xc0c4123f	-6.1272273
218	0xc0bf417e	-5.9767447
219	0xc0c4f50b	-6.1549125
220	0xc0bfaf2d	-5.990134
221	0xc0bd57d4	-5.916971
222	0xc0c269a9	-6.075398
223	0xc0bd9c33	-5.9253173
224	0xc0c4f76d	-6.1552033
225	0xc0b9b967	-5.803882
226	0xc0c00d4e	-6.001624
227	0xc0c39177	-6.111507
228	0xc0bde4d6	-5.934184
229	0xc0c11310	-6.033577
230	0xc0becf92	-5.962838
231	0xc0c7b8d6	-6.241313
232	0xc0c385a8	-6.1100655
233	0xc0bf045e	-5.969283
234	0xc0bd9b17	-5.925182
235	0xc0bde198	-5.9337883
236	0xc0be45d1	-5.9460225
237	0xc0bfe542	-5.9967356
238	0xc0bfaafe	-5.989623
239	0xc0c1d523	-6.0572677
240	0xc0c18321	-6.047257
241	0xc0c0256a	-6.004567
242	0xc0c55f63	-6.167894
243	0xc0c4094d	-6.1261353
244	0xc0c0bcee	-6.0230627
245	0xc0bd8b98	-5.9232903
246	0xc0c28c35	-6.079615
247	0xc0c78b7f	-6.2357783
248	0xc0c130b8	-6.037197
249	0xc0c51bd4	-6.159647
250	0xc0c1c8ae	-6.055747
251	0xc0c25e10	-6.0739822
252	0xc0bf68b5	-5.9815316
253	0xc0ba05db	-5.813215
254	0xc0bc0d85	-5.8766503
255	0xc0bf5a54	-5.9797764

bias_mu f4 [256]
0	0x3e46d7e4	0.19418293
1	0x3cd0da93	0.02549485
2	0xbcbed320	-0.023294032
3	0xbde0e8a0	-0.1098187
4	0x3e6024ea	0.21889082
5	0xbca1862a	-0.019717295
6	0xbd3ea023	-0.046539437
7	0xbd8e5494	-0.06949726
8	0x3e7e3224	0.24823815
9	0xbe9526b6	-0.29131097
10	0xbd9ec6d1	-0.07752765
11	0x3de1086a	0.10987933
12	0xbc19a325	-0.009377276
13	0x3f068fcd	0.5256317
14	0xbe210d62	-0.15727761
15	0x3e3080b8	0.17236602
16	0x3dd405dc	0.1035268
17	0xbe6fd8ff	-0.23422621
18	0xbc598753	-0.013276893
19	0x3d2b2038	0.041778773
20	0xbd494e15	-0.04914673
21	0xbe2c1eed	-0.16808672
22	0x3da7809b	0.081788264
23	0x3d206b58	0.03916487
24	0xbdaf19ac	-0.085498184
25	0xbb975d75	-0.0046192952
26	0xbce861b5	-0.028366903
27	0x3e5133d8	0.20429933
28	0x3e0198d4	0.12655956
29	0xbd015ad1	-0.03158075
30	0x3da73d96	0.081660435
31	0x3cc8b650	0.024500996
32	0x3e507e91	0.20360781
33	0x3c460770	0.012086734
34	0xbe38590c	-0.18002719
35	0x3da7934f	0.08182394
36	0xbde09d4e	-0.109675035
37	0x3dfdceb4	0.12392941
38	0x3db76253	0.08954301
39	0xbe5233f1	-0.20527627
40	0x3de1a485	0.11017708
41	0x3d5b7c6e	0.053585462
42	0x3e787009	0.24261488
43	0x3ea68bec	0.32528627
44	0x3e402362	0.18763497
45	0x3df71afb	0.12065693
46	0x3d4f3da0	0.05059588
47	0x3a61a2d9	0.0008607335
48	0xbb2d960d	-0.0026487142
49	0x3b97c16d	0.0046312124
50	0xbbd50353	-0.0065006404
51	0xbd594feb	-0.05305473
52	0x3e8fce79	0.28087214
53	0x3e48aaed	0.19596453
54	0xbe6bdbe3	-0.23033099
55	0x3dd6eb3d	0.10494087
56	0xbd8eb5f7	-0.06968301
57	0x3e3bff2b	0.18359058
58	0xbd672317	-0.05642995
59	0x3e3d0c8f	0.18461822
60	0xbe911d7c	-0.28342807
61	0x3dd17efd	0.10229299
62	0x3dc37f09	0.095457144
63	0xbd7603c3	-0.06006218
64	0xbd22a1c9	-0.03970507
65	0xbd9ae375	-0.07562915
66	0xbd23e5b0	-0.04001397
67	0xbe123c80	-0.14280891
68	0x3e5651be	0.2092962
69	0xbd8995a0	-0.06717992
70	0x3d2e4721	0.042548303
71	0x3c44040a	0.011963854
72	0xbe062517	-0.13100086
73	0xbd59ee34	-0.053205684
74	0x3d6d7a98	0.057978243
75	0x3d2ab1a8	0.041673332
76	0x3d8c1640	0.06840181
77	0xbe7b05e7	-0.2451397
78	0x3d341744	0.0439675
79	0x3db5d0b3	0.08877697
80	0x3c6d299c	0.0144752525
81	0xbdbf8f8e	-0.09353553
82	0x3d143737	0.03618547
83	0xbdbc25fb	-0.09186932
84	0xbdf8e6c9	-0.12153394
85	0xbd793ba8	-0.06084791
86	0x3effab7d	0.49935523
87	0x3e49126c	0.19635934
88	0x3e89672c	0.26836526
89	0x3e36b533	0.1784256
90	0xbdf8798a	-0.12132557
91	0x3c0fa69d	0.008767751
92	0x3c8334f0	0.016016454
93	0xbca2baca	-0.019864459
94	0xbe1b85a3	-0.15187697
95	0xbe21c33a	-0.1579713
96	0xbdd931f1	-0.10605229
97	0xbdcb7195	-0.099337734
98	0xbe86d279	-0.26332453
99	0xbde569f8	-0.112018526
100	0x3e2121ea	0.15735593
101	0x3e3169b5	0.1732548
102	0x3d827c21	0.06371332
103	0xbdbf27a1	-0.093337305
104	0xbe1115a7	-0.14168416
105	0xbcde6e7c	-0.027152292
106	0x3d464c2a	0.04841248
107	0x3d82a785	0.06379608
108	0xbf04a2e1	-0.51811033
109	0xbce5aea6	-0.02803738
110	0xbdadce1b	-0.08486577
111	0x3d4f3aeb	0.050593298
112	0xbcb0f935	-0.021603206
113	0x3e38cb31	0.18046261
114	0xbe015190	-0.1262877
115	0x3e11265c	0.14174789
116	0xbe0694d9	-0.13142718
117	0xbda643be	-0.081183895
118	0xbd87e524	-0.06635502
119	0xbdb32f75	-0.08749286
120	0xbdedcb2d	-0.11611018
121	0xbe9615d0	-0.29313517
122	0xbd8aa565	-0.06769828
123	0xbddcf983	-0.10789778
124	0xbdfa3b18	-0.122183025
125	0xbe95c524	-0.2925197
126	0x3dd9e4e8	0.106393635
127	0xbe54c865	-0.2077957
128	0xbe25183a	-0.16122523
129	0x3d4e9478	0.05043456
130	0x3d81de8a	0.06341274
131	0x3d401f01	0.046904568
132	0x3e9e7b82	0.30953604
133	0xbd2c38f1	-0.04204649
134	0x3cdc2fa1	0.02687818
135	0x3e063db7	0.1310948
136	0x3a01146e	0.0004924004
137	0xbc8f0f06	-0.017463218
138	0x3e293979	0.1652583
139	0x3d6cf9cb	0.05785541
140	0xbdd29f01	-0.10284234
141	0xbca4bfd6	-0.020111006
142	0xbdefe7d8	-0.117141426
143	0xbd708417	-0.05871972
144	0xbd9ec3d9	-0.07752199
145	0x3cb79b8a	0.022413034
146	0xbe012416	-0.12611422
147	0x3e2ad697	0.16683422
148	0xbd1ae364	-0.037814513
149	0xbc5bfc63	-0.013426873
150	0xbe4f0d6e	-0.20219967
151	0xbbf1cb16	-0.007378946
152	0x3dcd0af5	0.100118555
153	0x3cd810d3	0.02637521
154	0xbcfe70fb	-0.031059733
155	0x3e2bf936	0.16794285
156	0x3b495e7a	0.0030726478
157	0xbe3861f0	-0.1800611
158	0xbdd48ea7	-0.10378771
159	0x3d57c0b0	0.052673995
160	0x3d546af3	0.051859807
161	0xbe5d23f4	-0.21595746
162	0xbcfe1bc1	-0.031019093
163	0x3c3f250c	0.0116665475
164	0xbda04be4	-0.07826975
165	0xbda27735	-0.07932893
166	0x3dff1f63	0.124571584
167	0x3df50beb	0.11965164
168	0x3da550b6	0.08072035
169	0x3dfe3029	0.124115296
170	0xbe0c0642	-0.13674262
171	0x3e4a133d	0.19733901
172	0x3cc3048e	0.023805883
173	0x3e238155	0.15967305
174	0x3d6abdc8	0.057309896
175	0x3e55367f	0.2082157
176	0xbe1764ba	-0.14784518
177	0xbdc38b1c	-0.095480174
178	0x3d7af40c	0.061267897
179	0x3e310f3c	0.17290968
180	0xbe3bbe05	-0.18334205
181	0xbde28a7d	-0.11061571
182	0x3e0a0835	0.13479693
183	0xbe21f038	-0.15814292
184	0xbda08650	-0.07838118
185	0x3d8fdb34	0.070242316
186	0x3deff7ee	0.11717211
187	0xbe2b6916	-0.16739306
188	0xbdadf97f	-0.08494853
189	0xbd26dd86	-0.040738605
190	0xbe52a10a	-0.20569244
191	0xbd593d68	-0.053037077
192	0xbdbdebaf	-0.09273469
193	0xbd8087fa	-0.062759355
194	0xbdada9f9	-0.08479685
195	0x3bec6428	0.007214088
196	0x3e0f91c9	0.14020456
197	0x3e2218ef	0.15829824
198	0xbe1d21aa	-0.15344873
199	0x3c3d73d6	0.011563262
200	0xbcee9605	-0.02912427
201	0x3bacb5ab	0.00527068
202	0xbdbf2230	-0.093326926
203	0x3e1aec1f	0.15129136
204	0xbd02a25c	-0.03189312
205	0x3f0f20d1	0.5590945
206	0x3df88fbc	0.1213679
207	0x3d42a6ab	0.04752223
208	0x3c96b8b3	0.018398618
209	0x3d857840	0.065170765
210	0x3db6ca16	0.089252636
211	0x3d87bb4c	0.06627521
212	0xbcb7b90e	-0.022427108
213	0xbd928f94	-0.071562916
214	0xbeb299f7	-0.3488309
215	0xbe810b59	-0.2520397
216	0xbd64fefd	-0.05590724
217	0x3d62a5e7	0.055333998
218	0xbdd01d9b	-0.10161897
219	0x3e37a947	0.17935668
220	0x3dfd77c8	0.12376362
221	0x3d8b5352	0.068030015
222	0xbd2793a4	-0.040912285
223	0x3cd7ebd0	0.026357561
224	0x3e4c9502	0.19978717
225	0x3de927aa	0.113845184
226	0xbdcfbe9b	-0.10143777
227	0xbd75a789	-0.059974227
228	0x3df12b0f	0.11775791
229	0xbd8b9b86	-0.06816773
230	0x3de0f788	0.10984713
231	0x3be92736	0.00711527
232	0x3d95feae	0.07323967
233	0xbe1d473a	-0.15359202
234	0x3d42e5e1	0.04758251
235	0xbd0cc499	-0.034367178
236	0x3e9ba1be	0.30396837
237	0x3c86dda9	0.016463118
238	0x3e1edfa3	0.15514998
239	0x3dbcd2db	0.09219905
240	0x3e3b6e05	0.18303688
241	0x3b5abb5b	0.0033375833
242	0x3c9a7049	0.01885237
243	0xbbfcfa98	-0.007720303
244	0x3d93e44e	0.0722128
245	0x3dae58a9	0.08513004
246	0xbda1b478	-0.0789575
247	0xbd90f194	-0.07077327
248	0xbe4aa4ed	-0.19789477
249	0x3e01430c	0.12623233
250	0x3cb6dd19	0.022322224
251	0x3e1abc6a	0.15110937
252	0xbe420181	-0.18945886
253	0x3d33a38e	0.04385715
254	0xbcbd1fa1	-0.02308637
255	0xbcf4e3f6	-0.029893856

bias_rho f4 [256]
0	0xc0c2acdd	-6.0836015
1	0xc0bf7b73	-5.9838195
2	0xc0c45cee	-6.136344
3	0xc0bc72ff	-5.8890376
4	0xc0c22f02	-6.0682383
5	0xc0cace63	-6.3376937
6	0xc0be1370	-5.9398727
7	0xc0c04344	-6.008211
8	0xc0bc3b3d	-5.882231
9	0xc0c0e733	-6.0282226
10	0xc0bc289e	-5.879958
11	0xc0bd7099	-5.919995
12	0xc0c0a1a0	-6.0197296
13	0xc0c4fafb	-6.1556373
14	0xc0c29f71	-6.081963
15	0xc0c5875d	-6.172774
16	0xc0be028b	-5.9378104
17	0xc0c1d71a	-6.0575075
18	0xc0c42782	-6.1298227
19	0xc0be1996	-5.9406233
20	0xc0c4263b	-6.129667
21	0xc0bd01ca	-5.9064684
22	0xc0c5b1fd	-6.177977
23	0xc0c5595c	-6.167158
24	0xc0bddc17	-5.9331164
25	0xc0c328c1	-6.098725
26	0xc0c339c8	-6.1008034
27	0xc0c2108a	-6.064519
28	0xc0c03683	-6.0066543
29	0xc0bfdc11	-5.9956136
30	0xc0bc6e37	-5.888454
31	0xc0bed7e8	-5.9638557
32	0xc0b90104	-5.781374
33	0xc0c20c11	-6.063973
34	0xc0c5d0be	-6.181731
35	0xc0c3f0c6	-6.1231413
36	0xc0bc1eda	-5.878766
37	0xc0c093a5	-6.018023
38	0xc0c0ccb4	-6.024988
39	0xc0c3d81e	-6.1201315
40	0xc0bc599e	-5.8859396
41	0xc0bf8bba	-5.9858065
42	0xc0c36198	-6.1056633
43	0xc0c6207e	-6.1914663
44	0xc0b9876d	-5.7977815
45	0xc0c1d4ef	-6.057243
46	0xc0bc2350	-5.8793106
47	0xc0ba6344	-5.8246174
48	0xc0bbd614	-5.8698826
49	0xc0c34ab2	-6.102868
50	0xc0c41b24	-6.128313
51	0xc0c64d55	-6.19694
52	0xc0b9440c	-5.7895565
53	0xc0c24bfc	-6.0717754
54	0xc0bd336b	-5.9125266
55	0xc0be02c1	-5.937836
56	0xc0c6d2b1	-6.213219
57	0xc0b84ac0	-5.7591248
58	0xc0c80bdb	-6.251447
59	0xc0b9d183	-5.806825
60	0xc0c3c06d	-6.1172395
61	0xc0ba1dea	-5.8161516
62	0xc0bcfbcf	-5.9057384
63	0xc0c06db1	-6.01339
64	0xc0bb1fd2	-5.8476343
65	0xc0c21789	-6.065373
66	0xc0bdf95c	-5.9366894
67	0xc0bc450a	-5.8834276
68	0xc0ad906c	-5.4238796
69	0xc0bb49d3	-5.8527617
70	0xc0c16290	-6.0432816
71	0xc0c4fc39	-6.155789
72	0xc0c066eb	-6.012563
73	0xc0c164eb	-6.043569
74	0xc0b55c3d	-5.6675096
75	0xc0c37d0a	-6.1090136
76	0xc0c4fc66	-6.1558104
77	0xc0c45a37	-6.1360126
78	0xc0bddf2e	-5.9334936
79	0xc0bd76d4	-5.9207554
80	0xc0bbd088	-5.8692055
81	0xc0c0e805	-6.0283227
82	0xc0c46d24	-6.138323
83	0xc0c09dd3	-6.0192657
84	0xc0c32422	-6.0981607
85	0xc0c51773	-6.1591125
86	0xc0bcd464	-5.9009266
87	0xc0c1c463	-6.055223
88	0xc0c5935c	-6.174238
89	0xc0c075a1	-6.014359
90	0xc0b6977a	-5.705991
91	0xc0c39d17	-6.112926
92	0xc0beff3b	-5.968656
93	0xc0c1f154	-6.060709
94	0xc0bee8dd	-5.9659257
95	0xc0c59fcd	-6.175757
96	0xc0b65d01	-5.698853
97	0xc0c1f330	-6.060936
98	0xc0c66758	-6.200115
99	0xc0c3f181	-6.1232305
100	0xc0bd2b6e	-5.9115515
101	0xc0c03951	-6.0069966
102	0xc0c0fa5a	-6.0305605
103	0xc0c2305d	-6.0684037
104	0xc0c3add0	-6.1149673
105	0xc0b60d45	-5.68912
106	0xc0c017f9	-6.0029263
107	0xc0c6b61e	-6.209731
108	0xc0c728cd	-6.2237306
109	0xc0b99a3b	-5.800077
110	0xc0c3b4d0	-6.115822
111	0xc0be036b	-5.937917
112	0xc0c59f40	-6.1756897
113	0xc0ba3d52	-5.8199854
114	0xc0c67c1a	-6.202649
115	0xc0bae7d6	-5.8408003
116	0xc0be0522	-5.9381266
117	0xc0c517d5	-6.159159
118	0xc0bbdd8c	-5.8707943
119	0xc0beac18	-5.9585075
120	0xc0b98f71	-5.79876
121	0xc0cf033c	-6.469145
122	0xc0bf1e9d	-5.972487
123	0xc0bb94a8	-5.8618965
124	0xc0c41c54	-6.128458
125	0xc0b40109	-5.6251264
126	0xc0ba6609	-5.8249555
127	0xc0bf584a	-5.9795275
128	0xc0c4dc1d	-6.1518693
129	0xc0c14316	-6.039439
130	0xc0c441d8	-6.1330376
131	0xc0bbdb3a	-5.870511
132	0xc0c3881c	-6.110365
133	0xc0bd8832	-5.9228754
134	0xc0c013e2	-6.002427
135	0xc0c5c0dc	-6.1797924
136	0xc0bd3eb8	-5.913906
137	0xc0c4dc42	-6.151887
138	0xc0c4626c	-6.1370144
139	0xc0c2f27e	-6.092101
140	0xc0c30674	-6.0945377
141	0xc0aba20c	-5.363531
142	0xc0bf7c49	-5.9839215
143	0xc0c68e72	-6.2048883
144	0xc0bd4ddf	-5.9157557
145	0xc0c375cb	-6.108129
146	0xc0c2aafa	-6.083371
147	0xc0c748b4	-6.227625
148	0xc0bc90ca	-5.8926744
149	0xc0c02da3	-6.005571
150	0xc0c89798	-6.268505
151	0xc0c0f4aa	-6.029866
152	0xc0c9bae4	-6.304064
153	0xc0c36799	-6.106396
154	0xc0c47758	-6.1395683
155	0xc0bc6692	-5.887521
156	0xc0c3a5c1	-6.1139836
157	0xc0bc7718	-5.889538
158	0xc0c3c63a	-6.1179476
159	0xc0be0336	-5.937892
160	0xc0cc701c	-6.388685
161	0xc0c187c6	-6.047824
162	0xc0c0012e	-6.000144
163	0xc0bd0042	-5.9062815
164	0xc0c2b324	-6.0843678
165	0xc0bf864f	-5.985145
166	0xc0c37d02	-6.1090097
167	0xc0bdf8ab	-5.936605
168	0xc0c25380	-6.072693
169	0xc0c5c0dc	-6.1797924
170	0xc0c1a935	-6.051905
171	0xc0c67b2b	-6.202535
172	0xc0c7642e	-6.230979
173	0xc0c0922c	-6.0178432
174	0xc0b67dae	-5.7028418
175	0xc0bedc33	-5.96438
176	0xc0c3642e	-6.105979
177	0xc0bc09dc	-5.8762035
178	0xc0c27506	-6.076785
179	0xc0bf5ed0	-5.980324
180	0xc0bae1ee	-5.8400793
181	0xc0c4c093	-6.1485076
182	0xc0c4dbda	-6.1518373
183	0xc0baeb9b	-5.8412604
184	0xc0c0560b	-6.0105033
185	0xc0cb6668	-6.356251
186	0xc0c19af1	-6.0501637
187	0xc0c5c731	-6.1805654
188	0xc0b9ac2c	-5.802267
189	0xc0c6e240	-6.2151184
190	0xc0c03109	-6.0059857
191	0xc0c2fcb8	-6.0933495
192	0xc0be9c14	-5.9565525
193	0xc0b81ff4	-5.7539005
194	0xc0bac434	-5.8364506
195	0xc0ba7aa6	-5.8274717
196	0xc0c7cef6	-6.244014
197	0xc0bda441	-5.9263005
198	0xc0c57440	-6.1704407
199	0xc0bcdbd2	-5.9018335
200	0xc0c85db2	-6.2614374
201	0xc0c45508	-6.13538
202	0xc0c4b8d3	-6.1475616
203	0xc0c506c9	-6.1570783
204	0xc0bedc94	-5.964426
205	0xc0c24ce3	-6.0718856
206	0xc0ba0fd8	-5.814434
207	0xc0c0e248	-6.027622
208	0xc0b7717d	-5.7326035
209	0xc0bf04ee	-5.969352
210	0xc0bf616f	-5.9806437
211	0xc0c269aa	-6.0753984
212	0xc0bcae47	-5.896274
213	0xc0bd2d85	-5.9118066
214	0xc0bca2a7	-5.894855
215	0xc0c0d9f8	-6.0266075
216	0xc0c15e45	-6.0427575
217	0xc0bde222	-5.933854
218	0xc0d01d69	-6.50359
219	0xc0c0125e	-6.002242
220	0xc0c20393	-6.0629363
221	0xc0bd5dbf	-5.9176936
222	0xc0c1957e	-6.0494986
223	0xc0bf03f0	-5.9692307
224	0xc0c81515	-6.2525735
225	0xc0c0053a	-6.000638
226	0xc0be17f8	-5.940426
227	0xc0bf6995	-5.9816384
228	0xc0c2b98c	-6.08515
229	0xc0c0d09e	-6.025466
230	0xc0bceab9	-5.9036527
231	0xc0c2d9b8	-6.089077
232	0xc0c4e1be	-6.1525564
233	0xc0cb4bdc	-6.35301
234	0xc0c1a232	-6.051049
235	0xc0c74b64	-6.227953
236	0xc0b378dc	-5.6085033
237	0xc0c4255f	-6.129562
238	0xc0bbdeca	-5.870946
239	0xc0be18c6	-5.940524
240	0xc0c07d97	-6.015331
241	0xc0c2f7d4	-6.0927525
242	0xc0c0f960	-6.0304413
243	0xc0c39f66	-6.113208
244	0xc0bb8e55	-5.8611245
245	0xc0c74c61	-6.2280736
246	0xc0be701a	-5.9511843
247	0xc0bc5f26	-5.886615
248	0xc0c23e74	-6.0701237
249	0xc0bd9f5b	-5.9257026
250	0xc0cc622e	-6.386985
251	0xc0c10349	-6.031651
252	0xc0c17cf9	-6.0465055
253	0xc0bf44ee	-5.9771643
254	0xc0bd2957	-5.9112964
255	0xc0bd67fe	-5.9189444

mu f4 [3, 256]
0	0xbc7e6925	-0.015527998
1	0x3d6d135c	0.05787979
2	0xbd746c67	-0.059673693
3	0x3c63bd43	0.013900104
4	0x3f752041	0.9575234
5	0xbe5478b2	-0.20749167
6	0x3da68f80	0.08132839
7	0x3dc235b9	0.09482903
8	0xbdbfff07	-0.093748145
9	0x3e4c4b57	0.19950615
10	0xbe2f2b81	-0.17106439
11	0x3cb3c7d9	0.02194588
12	0x3e88af5c	0.2669629
13	0xbe80c7ee	-0.25152534
14	0x3e87ba96	0.2650954
15	0x3e602f69	0.21893086
16	0x3ebcf0aa	0.36902362
17	0x3d823f9d	0.063597895
18	0xbe5cf0fd	-0.21576305
19	0x3d305c9f	0.04305708
20	0xbe7706f0	-0.2412374
21	0xbe6ab19e	-0.22919318
22	0x3f41352a	0.75471747
23	0x3e482750	0.19546247
24	0x3cc1c620	0.023654044
25	0x3d55587d	0.052086342
26	0xbc9f71bd	-0.019463414
27	0xbc667bed	-0.014067632
28	0x3ebf75a7	0.3739445
29	0x3d771521	0.060322884
30	0xbeb73664	-0.35783684
31	0x3c9a9e21	0.01887423
32	0x3e3342a4	0.1750589
33	0xbd106a22	-0.035257466
34	0x3d82a892	0.063798085
35	0x3efa771a	0.48918992
36	0x3e1171b4	0.1420353
37	0x3dadd8d2	0.08488621
38	0x3e2ca655	0.16860326
39	0x3e46d328	0.19416487
40	0x3ec5d4c1	0.3863888
41	0x3ea4eb09	0.32210568
42	0xbec2e77c	-0.38067234
43	0x3f16828f	0.58792967
44	0xbed77b74	-0.42086375
45	0xbdc9dfa4	-0.09857109
46	0xbcafaf10	-0.021445781
47	0x3e5f5bf4	0.21812421
48	0x3eb500a5	0.35352054
49	0x3d9df9fc	0.07713696
50	0x3e9cadaf	0.3060126
51	0x3dc2fc61	0.09520794
52	0xbd7fcb1d	-0.062449563
53	0x3d9c20ea	0.07623465
54	0x3e4dd5da	0.20101109
55	0x3eb3ed90	0.35142183
56	0xbe645101	-0.22296526
57	0x3e963b32	0.29342037
58	0x3f0362d7	0.5132269
59	0x3e6f7ea8	0.2338816
60	0x3c2703d8	0.0101937875
61	0xbe9ea5b5	-0.309858
62	0x3ccc507b	0.02494072
63	0xbdc6c85d	-0.09706185
64	0x3dc737a6	0.09727411
65	0x3df0bd32	0.11754836
66	0xbd098c40	-0.03358102
67	0x3db0e33e	0.08637093
68	0x3f9cdd1a	1.2254975
69	0xbd2e519c	-0.042558298
70	0xbe581d13	-0.21104841
71	0x3ed01fdb	0.40649304
72	0xbe13b0e7	-0.14422952
73	0x3e3b8ffc	0.18316644
74	0xbc996101	-0.018723013
75	0xbc6319bc	-0.013861116
76	0x3e7f206d	0.24914713
77	0x3fdda695	1.7316462
78	0x3eb0ca44	0.34529316
79	0x3e350a07	0.17679606
80	0x3d969c25	0.07354001
81	0xbd109d6c	-0.03530638
82	0x3e22bcf5	0.15892394
83	0x3e332017	0.1749271
84	0x3aec3944	0.0018022438
85	0x3e0dff4b	0.13866918
86	0x3f595d84	0.8490832
87	0xbc475d6c	-0.01216827
88	0x3e966a34	0.29377902
89	0x3deb179a	0.11479111
90	0xbc14c76f	-0.009080752
91	0x3d2d5f82	0.04232741
92	0x3ede49a6	0.43415564
93	0x3eac1aa7	0.33614084
94	0xbea7e341	-0.32790568
95	0xbe11f681	-0.1425419
96	0x3e249e63	0.16076045
97	0x3edc06e8	0.4297402
98	0x3e7c87cd	0.24661179
99	0x3f239d2e	0.6391171
100	0x3ea26693	0.31718883
101	0x3e416649	0.18886675
102	0x3d965ed0	0.07342303
103	0x3dcc5379	0.09976859
104	0x3e72ae38	0.23699272
105	0x3f0d5a31	0.55215746
106	0xbe242d24	-0.16032845
107	0x3f9f805a	1.2461045
108	0xbeaabc1b	-0.33346638
109	0x3e156d02	0.14592364
110	0xbcb4e662	-0.022082511
111	0x3eba9d71	0.36448243
112	0x3ea06dd0	0.3133378
113	0xbddd7cde	-0.10814832
114	0x3e938b37	0.2881715
115	0x3da98b8c	0.082785696
116	0xbe73990a	-0.23788849
117	0x3da26c3b	0.079307996
118	0x3e8af2bc	0.27138317
119	0x3e0d890f	0.13821815
120	0xbe0fc28d	-0.14039059
121	0x3f7f54d8	0.99738836
122	0x3f86b558	1.0524092
123	0x3e9513ce	0.29116672
124	0x3da6e52f	0.08149182
125	0x3fe1efcb	1.7651304
126	0x3e892585	0.26786438
127	0xbe6ea4fe	-0.23305127
128	0xbaaf5c8f	-0.0013379025
129	0xbe05d00e	-0.13067648
130	0x3d23a9b3	0.03995676
131	0xbd00c03e	-0.031433336
132	0xbf67b94e	-0.9051713
133	0xbe1dc1f6	-0.15406021
134	0xbdd13ea1	-0.10217024
135	0x3e5a5151	0.21320082
136	0x3edfde37	0.43724224
137	0x3c0b14d3	0.008488852
138	0x3d0efe4b	0.03491048
139	0x3def6cc0	0.11690664
140	0xbe42658b	-0.18984048
141	0xbf2b3e9d	-0.66892415
142	0xbe298f3e	-0.16558549
143	0xbe3426b9	-0.17592897
144	0xbe3ad632	-0.18245772
145	0xbd21b90b	-0.03948311
146	0xbd8ce264	-0.06879118
147	0xbef52a73	-0.4788395
148	0x3d5d8caa	0.054089226
149	0x3e1c973f	0.15292071
150	0x3eb471bf	0.3524303
151	0xbd1da6ad	-0.038489033
152	0xbe1def2d	-0.1542327
153	0xbe8e666d	-0.2781252
154	0x3df5d112	0.120027676
155	0xbd3c78fc	-0.046013817
156	0xbed8e076	-0.4235875
157	0x3c8ee1e6	0.017441701
158	0xbe3c2aac	-0.18375653
159	0x3bc2da63	0.005946444
160	0xbee97f92	-0.4560514
161	0xbe73a795	-0.23794396
162	0xbe38a1fc	-0.18030542
163	0x3eb3855a	0.35062677
164	0xbe29a629	-0.16567291
165	0xbeb62828	-0.35577512
166	0xbd3cf2b9	-0.046129916
167	0x3e57cd6f	0.2107446
168	0x3e008023	0.1254888
169	0x3e18e0a1	0.14929439
170	0x3dea82c8	0.11450726
171	0xbf8f2cd6	-1.1185558
172	0xbf219b40	-0.6312752
173	0x3e0e234b	0.1388065
174	0x3dae154d	0.085001566
175	0x3e53e810	0.20693994
176	0xbe29cc17	-0.1658176
177	0xbe4014f1	-0.18757989
178	0x3e61e38e	0.22059461
179	0x3e16b251	0.1471646
180	0x3bfb3365	0.007666039
181	0xbe303d65	-0.1721092
182	0x3e2460ef	0.16052602
183	0xbe890d88	-0.26768136
184	0x3d7a5929	0.061120186
185	0xbf556841	-0.83362204
186	0xbef52548	-0.47880006
187	0xbd8a9a61	-0.06767727
188	0x3df5f836	0.12010233
189	0xbf697e5f	-0.9120845
190	0xbe365167	-0.1780449
191	0xbdb6fc5d	-0.08934853
192	0x3ddfcd25	0.109278
193	0x3e385469	0.1800095
194	0xbe30d4e7	-0.17268716
195	0x3e41ea6e	0.18937084
196	0x3f93b7b1	1.1540433
197	0xbeb131ff	-0.34608456
198	0xbe8e5670	-0.27800322
199	0x3f1364f0	0.57575893
200	0x3c3e7a56	0.011625847
201	0xbd64c584	-0.055852428
202	0x3d8bf630	0.06834066
203	0xbe0dd516	-0.13850817
204	0x3ed294f0	0.41129255
205	0x3ee59837	0.44842693
206	0x3ed86920	0.42267704
207	0x3e2df2c0	0.16987133
208	0x3da6dc8a	0.08147533
209	0xbdbf3485	-0.09336189
210	0xbd881214	-0.06644073
211	0x3e267837	0.16256796
212	0xbe009d6f	-0.12560056
213	0x3e190353	0.14942674
214	0x3f33afd1	0.7019015
215	0x3cdfee29	0.027335243
216	0xbd8c8129	-0.06860573
217	0x3cf90b1a	0.030400801
218	0xbe6e91be	-0.23297784
219	0xbb96c6c1	-0.00460133
220	0x3ec5d7dd	0.38641253
221	0x3e8670aa	0.2625783
222	0xbec193f9	-0.37808207
223	0x3d4d5c06	0.05013659
224	0x3f1dbce4	0.6161635
225	0x3e18ebe6	0.14933738
226	0x3ed690e8	0.4190743
227	0x3f2ce586	0.67537725
228	0x3ecd00f8	0.40039802
229	0x3e054794	0.13015586
230	0x3da82ad5	0.082112946
231	0x3eb0ebe5	0.34554973
232	0x3eaa7c13	0.33297786
233	0x3f321d11	0.695756
234	0xbe6347ee	-0.22195408
235	0x3fbebba9	1.4901019
236	0xbededf56	-0.43529767
237	0x3e437e18	0.1909107
238	0xbe8af0cc	-0.27136838
239	0x3ea23257	0.3167903
240	0x3e8e353f	0.27775
241	0xbd412e8b	-0.047163527
242	0x3e659a45	0.2242213
243	0x3e31dc06	0.17369089
244	0xbe15f35f	-0.1464362
245	0x3e44297f	0.19156455
246	0x3e6781c1	0.22608091
247	0x3d8d8bd2	0.06911434
248	0xbe7a5840	-0.24447727
249	0x3f8917f2	1.0710433
250	0x3f22b520	0.63557625
251	0x3f044fff	0.51684564
252	0x3e3fc968	0.18729174
253	0xbe310646	-0.1728755
254	0x3ea620f9	0.3244703
255	0xbe1fad8b	-0.15593545
