results/saved_models/df_Electricity_seed_9999_model_CNN.pkl (torch, 167511 bytes, 18 tensors)

weight_mu f4 [256, 4, 1]
0.0076773907 -0.09328018 0.057240978 0.042950757 -0.048900127 -0.014005124 -0.0045687957 -0.11839266
-0.11697839 -0.09023933 0.027470741 0.23526074 -0.14634916 -0.015783766 -0.075836904 0.03733207
-0.72785634 -0.88039577 -0.1657443 2.2189257 -0.085134186 0.10418059 0.11442846 -0.067658655
-0.19206649 0.104166426 0.05993002 -0.009229691 -0.0091087455 0.026863256 -0.10471709 -0.10823721
0.20647879 0.08348828 -0.24114074 0.48571542 0.17286412 -0.04878307 -0.024809217 -0.1653604
-0.07247384 0.014087028 0.033537574 -0.104538046 -0.077821516 -0.20044743 0.14291479 0.006772797
-0.063481726 -0.009229495 -0.12146443 -0.15771715 -0.028274566 -0.0010031784 0.01246735 0.07864028
0.044192832 -0.14646727 -0.047584195 0.0393978 -0.15485184 -0.060483783 -0.085994534 -0.20631604
-0.25438654 -0.35700178 -0.27119488 1.6019446 -0.09008765 0.03685512 0.061558712 0.012920226
0.057696197 -0.038875524 0.15161683 0.13106596 -0.25582913 -0.204502 -0.07646226 0.36744827
-0.017018668 -0.17215534 -0.16636346 0.054916065 -0.17120881 -0.11289426 -0.017059395 0.40689948
-0.13590367 -0.245533 -0.27213943 -0.19208315 -0.081513286 -0.00088889553 0.006981943 -0.028472962
-0.106928274 -0.08601963 0.1947705 -0.1266147 -0.22181654 0.12333008 -0.8329438 -1.3709944
-0.12847899 -0.09955977 -0.04190323 0.0043453276 0.037284397 0.114659496 0.009295159 -0.10692061
0.02241552 -0.04233046 -0.014877266 0.010823898 -0.1999933 -0.28291133 -0.15299164 -0.20850423
-0.00039774604 -0.06858264 0.095290095 0.2087751 -0.043707523 -0.17341267 0.06569964 -0.046459906
-0.036714915 -0.14285968 -0.06804107 0.029451003 0.05648404 -0.12796812 0.01893509 -0.19022398
-0.05178808 0.018168086 -0.20808351 0.07131309 0.027613508 -0.052221294 -0.038187094 -0.0116656255
-0.07407626 0.2066601 -0.21898285 -0.12171042 -0.2797242 -0.14697246 0.018443096 -0.0183023
0.051343758 0.016801545 -0.13298447 -0.19728261 -0.12378019 -0.35429633 -0.14274938 0.90640324
-0.1311752 -0.21595766 -0.15757483 0.5716869 0.09317625 -0.017607398 -0.056110132 -0.13570066
-0.085081674 -0.05024836 0.2017984 -0.17419647 -0.24720745 0.06280871 0.070302196 0.26774946
-0.08486589 0.04341992 0.049220093 -0.24129143 -0.07420761 0.06256138 -0.154592 -0.1361666
-0.06444864 -0.08351214 -0.01753332 0.13236925 -0.17856771 -0.011339129 0.06885476 0.031623144
0.18143849 -0.15834711 0.1629893 -0.13653673 -0.11882303 0.0259374 0.03794018 -0.07146966
-0.023185989 -0.22596692 -0.046212338 0.008558552 0.07445222 -0.14265901 -0.10430289 -0.058249265
0.107257515 0.21670298 -0.20019834 0.20205584 -0.056468964 -0.10661482 0.061478376 0.20674592
-0.079096995 0.019729074 -0.005817033 -0.051693887 -0.18654655 -0.047858696 -0.02539844 0.19305445
0.019380016 0.1093192 -0.10256257 0.22719617 0.3330677 0.15478152 -0.80781066 -0.2197785
-0.42501417 -0.38548106 -0.10315777 0.3010583 0.013294014 0.107188456 -0.25396186 0.44878414
-0.02116111 -0.00070542307 -0.13110447 0.1369747 -0.08098488 0.10240748 -0.040725376 -0.024499897
0.013588861 0.023638962 -0.1512972 -0.0021471146 -0.032265607 0.1127793 -0.1160018 0.048796363
00000000: 9f92 fb3b ae09 bfbd 8475 6a3d 22ed 2f3d
00000010: 804b 48bd bf75 65bc d6b5 95bb da77 f2bd
00000020: 5e92 efbd 66cf b8bd 520a e13c 31e8 703e
00000030: 8edc 15be f54c 81bc 6150 9bbd 83e9 183d
00000040: cb54 3abf 9e61 61bf e0b8 29be e102 0e40
00000050: d55a aebd a25c d53d 7859 ea3d 9f90 8abd
00000060: 14ad 44be 3555 d53d 2e79 753d 2138 17bc
00000070: d93c 15bc 5510 dc3c ea75 d6bd 78ab ddbd
00000080: 2d6f 533e e7fb aa3d 99ed 76be b1af f83e
00000090: 4b03 313e c2d0 47bd b33c cbbc 3d54 29be
000000a0: 2a6d 94bd 47cd 663c b25e 093d 0b18 d6bd
000000b0: e360 9fbd 1742 4dbe 4158 123e 57ee dd3b
000000c0: b502 82bd 4f37 17bc 58c2 f8bd 9b80 21be
000000d0: 10a0 e7bc 157d 83ba db43 4c3c 280e a13d
000000e0: 8b03 353d 84fb 15be a5e7 42bd 965f 213d
000000f0: 7b91 1ebe d8bd 77bd e71d b0bd 8344 53be
00000100: f43e 82be f0c8 b6be 0eda 8abe 850c cd3f
00000110: e07f b8bd 65f5 163d fd24 7c3d 5baf 533c
00000120: d952 6c3d f13b 1fbd 7141 1b3e 2836 063e
00000130: 09fc 82be f968 51be 3f98 9cbd 2e22 bc3e
00000140: bc6a 8bbc 7d49 30be 2f5b 2abe abef 603d
00000150: 5d51 2fbe 1b35 e7bd 25c0 8bbc 2155 d03e
00000160: 552a 0bbe 016d 7bbe dc55 8bbe 72b1 44be
00000170: 70f0 a6bd c504 69ba c8c8 e43b 2140 e9bc
00000180: 36fd dabd 0f2b b0bd eb71 473e 49a7 01be
00000190: e023 63be 7b94 fc3d ce3b 55bf bf7c afbf
000001a0: ff8f 03be fee5 cbbd b9a2 2bbd 4063 8e3b
000001b0: 86b7 183d 99d2 ea3d b94a 183c 31f9 dabd
000001c0: c1a0 b73c b462 2dbd c7bf 73bc b856 313c
000001d0: 0bcb 4cbe c1d9 90be d7a9 1cbe 2282 55be
000001e0: 9288 d0b9 0e75 8cbd 7427 c33d 24c9 553e
000001f0: a906 33bd 1793 31be 888d 863d be4c 3ebd
00000200: 6162 16bd cf49 12be 1e59 8bbd 3b43 f13c
00000210: cf5b 673d 130a 03be c31d 9b3c 13ca 42be
00000220: bd1f 54bd 3dd5 943c d813 55be 990c 923d
00000230: b935 e23c ffe5 55bd 126a 1cbd 2e21 3fbc
00000240: 4bb5 97bd b59e 533e 0a3d 60be 5043 f9bd
00000250: 0338 8fbe f37f 16be fa15 973c b4ee 95bc
00000260: d54d 523d 65a3 893c 152d 08be 7404 4abe
00000270: 7880 fdbd 5466 b5be e52c 12be 0b0a 683f
00000280: cb52 06be 0124 5dbe 4c5b 21be 135a 123f
00000290: 31d3 be3d 643d 90bc bdd3 65bd 1df5 0abe
000002a0: 4d3f aebd 39d1 4dbd 3da4 4e3e 8f60 32be
000002b0: f323 7dbe daa1 803d 99fa 8f3d 7516 893e
000002c0: 2bce adbd 16d9 313d 029b 493d 1a15 77be
000002d0: 29fa 97bd 2e20 803d 5e4d 1ebe 426f 0bbe
000002e0: a6fd 83bd 6a08 abbd 09a2 8fbc ce8b 073e
000002f0: 74da 36be c1c7 39bc b903 8d3d 4587 013d
00000300: 03cb 393e bf25 22be abe6 263e 49d0 0bbe
00000310: 7d59 f3bd ac7a d43c 2a67 1b3d af5e 92bd
00000320: 8bf0 bdbc df63 67be 2649 3dbd 2b39 0c3c
00000330: 687a 983d 3415 12be c19c d5bd c896 6ebd
00000340: d4a9 db3d 63e7 5d3e cb00 4dbe bae7 4e3e
00000350: 004c 67bd df58 dabd c0d0 7b3d 34b5 533e
00000360: 9bfd a1bd de9e a13c cf9c bebb f8bc 53bd
00000370: 0f06 3fbe 7b07 44bd 6410 d0bc 11b0 453e
00000380: d7c2 9e3c bfe2 df3d 530c d2bd 1da6 683e
00000390: d987 aa3e 0c7f 1e3e aecc 4ebf 9d0d 61be
000003a0: 759b d9be c65d c5be 6244 d3bd 5024 9a3e
000003b0: 23cf 593c 9f85 db3d 4a07 82be 09c7 e53e
000003c0: 105a adbc 24ec 38ba 4040 06be 1943 0c3e
000003d0: 67db a5bd 03bb d13d a7cf 26bd 02b4 c8bc
000003e0: d0a3 5e3c 7fa6 c13c a7ed 1abe 9bb6 0cbb
000003f0: f128 04bd d5f8 e63d 5a92 edbd b2de 473d

weight_rho f4 [256, 4, 1]
-6.877293 -6.972386 -6.862385 -7.1635075 -7.0053825 -7.0655365 -6.9769874 -6.918898
-6.929987 -6.970908 -7.1079383 -6.9324937 -7.0210004 -6.9627376 -7.0195513 -7.1368175
-7.3506 -6.959316 -6.7096553 -6.991174 -7.0113077 -6.9774723 -6.9184046 -7.0139894
-6.9869437 -7.05367 -6.931536 -7.019694 -6.981847 -6.96623 -6.9632697 -7.1402135
-6.75795 -6.8908362 -6.9533677 -6.9364705 -7.0296483 -7.074667 -6.8591685 -6.9112716
-7.029809 -6.9506316 -6.987345 -6.8838515 -6.865631 -6.905878 -7.066806 -7.0132003
-7.060625 -7.0937543 -7.1240273 -7.0394998 -7.0260634 -7.074407 -7.0643353 -7.04115
-7.2559304 -6.9649887 -6.768248 -6.907195 -6.8335423 -7.186692 -7.234354 -6.9114614
-7.126539 -7.1540704 -7.256335 -6.988431 -7.043242 -7.138381 -6.98319 -6.9709697
-6.931896 -7.1160283 -6.963567 -6.8599634 -7.016371 -6.9530067 -7.023986 -6.955423
-6.991882 -7.052965 -7.117875 -6.9759097 -7.1371503 -7.174245 -6.931892 -6.843931
-7.2012677 -7.0218997 -6.892676 -6.958054 -6.935881 -7.002707 -6.925797 -6.76817
-7.068366 -7.148057 -7.161623 -7.0166674 -7.032237 -6.77992 -7.167873 -7.0016065
-6.8397384 -7.137093 -6.9629946 -7.0100465 -7.0466156 -7.291146 -7.0125666 -6.8342857
-6.863887 -6.8671627 -6.666221 -7.1391244 -7.2185583 -6.916071 -7.1395664 -6.8890557
-7.067531 -6.9395943 -7.1481886 -7.1546073 -6.979408 -7.0140653 -7.1901617 -6.9461393
-6.8327317 -7.0809207 -6.966597 -7.0332847 -6.892969 -6.966051 -6.8646803 -6.940557
-6.9963126 -7.0948076 -7.118872 -6.922677 -6.902834 -7.0541487 -7.070713 -6.9314985
-7.013475 -7.06679 -7.0709634 -6.7815104 -7.0357146 -6.999864 -7.02548 -6.808649
-6.7454534 -7.1864233 -7.179592 -7.0163617 -7.0880556 -7.1649585 -6.7129498 -6.8928113
-7.0430593 -6.900514 -7.0787973 -7.057793 -6.969583 -6.831432 -6.8567634 -6.891907
-6.9089694 -7.07286 -7.2295656 -6.830282 -7.0863056 -7.1944366 -7.1237087 -6.956815
-7.0816464 -7.2156777 -7.1278477 -7.0052023 -7.018975 -7.0466843 -7.0267925 -7.1989307
-6.91406 -7.0469275 -6.9849324 -7.0492997 -6.9247656 -7.0136414 -6.8381014 -7.0414004
-7.0612063 -6.9702916 -7.094349 -7.083549 -7.0644803 -6.8084564 -7.0052695 -7.172706
-7.065375 -6.9173117 -7.143938 -7.1273713 -6.9815645 -6.944389 -6.88511 -6.8745904
-7.015189 -6.8545957 -7.259496 -6.994041 -6.9713006 -7.002075 -6.9388385 -7.218007
-7.256782 -6.876866 -6.976678 -7.014392 -6.9436145 -7.048604 -6.939878 -7.0586157
-6.9274564 -7.090011 -7.0452747 -7.1914377 -7.1058464 -6.925616 -7.039324 -6.933497
-7.1046977 -7.065137 -6.9145 -7.0881724 -6.9372888 -6.9980597 -7.0326405 -6.8283195
-7.1852984 -6.7304463 -6.8480515 -6.942526 -6.9879866 -6.984168 -7.0563354 -7.0579658
-7.0545764 -6.925346 -7.1374717 -6.9884386 -7.200536 -6.983139 -6.9651446 -7.057463
00000000: c912 dcc0 c91d dfc0 a898 dbc0 743b e5c0
00000010: 182c e0c0 e018 e2c0 7b43 dfc0 9d67 ddc0
00000020: 74c2 ddc0 ae11 dfc0 3b74 e3c0 fdd6 ddc0
00000030: 09ac e0c0 bfce dec0 2aa0 e0c0 cf60 e4c0
00000040: 1d38 ebc0 b7b2 dec0 7fb5 d6c0 b3b7 dfc0
00000050: a25c e0c0 7447 dfc0 9263 ddc0 9a72 e0c0
00000060: 0b95 dfc0 aab7 e1c0 25cf ddc0 55a1 e0c0
00000070: 4a6b dfc0 5beb dec0 1bd3 dec0 a17c e4c0
00000080: 2041 d8c0 bb81 dcc0 fd81 dec0 91f7 ddc0
00000090: e1f2 e0c0 ac63 e2c0 4f7e dbc0 2329 ddc0
000000a0: 32f4 e0c0 936b dec0 5598 dfc0 8348 dcc0
000000b0: 40b3 dbc0 f4fc dcc0 4623 e2c0 236c e0c0
000000c0: a4f0 e1c0 0900 e3c0 08f8 e3c0 9543 e1c0
000000d0: 83d5 e0c0 8b61 e2c0 090f e2c0 1a51 e1c0
000000e0: 9530 e8c0 30e1 dec0 7d95 d8c0 be07 ddc0
000000f0: 61ac dac0 62f9 e5c0 d47f e7c0 b12a ddc0
00000100: 9c0c e4c0 25ee e4c0 e533 e8c0 3aa1 dfc0
00000110: 3d62 e1c0 9e6d e4c0 4b76 dfc0 2f12 dfc0
00000120: 18d2 ddc0 81b6 e3c0 8ad5 dec0 d284 dbc0
00000130: 1c86 e0c0 087f dec0 7ec4 e0c0 d392 dec0
00000140: 7fbd dfc0 e4b1 e1c0 a2c5 e3c0 a73a dfc0
00000150: 8963 e4c0 6a93 e5c0 0fd2 ddc0 7c01 dbc0
00000160: c970 e6c0 67b3 e0c0 cd90 dcc0 61a8 dec0
00000170: bdf2 ddc0 2d16 e0c0 21a0 ddc0 d994 d8c0
00000180: 0e30 e2c0 e2bc e4c0 042c e5c0 8a88 e0c0
00000190: 1608 e1c0 1bf5 d8c0 375f e5c0 290d e0c0
000001a0: 23df dac0 1163 e4c0 dad0 dec0 4d52 e0c0
000001b0: e07d e1c0 1151 e9c0 f266 e0c0 78b2 dac0
000001c0: f6a4 dbc0 ccbf dbc0 af51 d5c0 b573 e4c0
000001d0: 6efe e6c0 7450 ddc0 5477 e4c0 2573 dcc0
000001e0: 3729 e2c0 2811 dec0 f6bd e4c0 8bf2 e4c0
000001f0: 4f57 dfc0 3973 e0c0 ce15 e6c0 c646 dec0
00000200: bda5 dac0 e796 e2c0 5dee dec0 ab10 e1c0
00000210: 3493 dcc0 e4e9 dec0 76ab dbc0 0b19 dec0
00000220: cbe1 dfc0 aa08 e3c0 cdcd e3c0 9286 ddc0
00000230: 04e4 dcc0 96bb e1c0 4843 e2c0 d6ce ddc0
00000240: 636e e0c0 2523 e2c0 5545 e2c0 2202 d9c0
00000250: 9324 e1c0 e3fe dfc0 bbd0 e0c0 74e0 d9c0
00000260: c1da d7c0 2ef7 e5c0 38bf e5c0 0986 e0c0
00000270: 5ad1 e2c0 5747 e5c0 7cd0 d6c0 e991 dcc0
00000280: be60 e1c0 03d1 dcc0 8285 e2c0 71d9 e1c0
00000290: d306 dfc0 179b dac0 9b6a dbc0 818a dcc0
000002a0: 4716 ddc0 de54 e2c0 9a58 e7c0 ac91 dac0
000002b0: 04c3 e2c0 d338 e6c0 6cf5 e3c0 3a9e dec0
000002c0: d99c e2c0 d5e6 e6c0 5417 e4c0 9e2a e0c0
000002d0: 719b e0c0 707e e1c0 7cdb e0c0 a45d e6c0
000002e0: fb3f ddc0 6e80 e1c0 9184 dfc0 dd93 e1c0
000002f0: ae97 ddc0 c06f e0c0 bad1 dac0 2753 e1c0
00000300: 67f5 e1c0 a10c dfc0 e804 e3c0 6fac e2c0
00000310: 3910 e2c0 e0de d9c0 2b2b e0c0 cf86 e5c0
00000320: 8d17 e2c0 9e5a ddc0 249b e4c0 6d13 e4c0
00000330: fa68 dfc0 6f38 dec0 d252 dcc0 a5fc dbc0
00000340: 6e7c e0c0 d958 dbc0 cb4d e8c0 2fcf dfc0
00000350: e514 dfc0 0011 e0c0 f70a dec0 eaf9 e6c0
00000360: 8f37 e8c0 490f dcc0 f240 dfc0 e675 e0c0
00000370: 1732 dec0 2a8e e1c0 7b13 dec0 2ee0 e1c0
00000380: b9ad ddc0 5fe1 e2c0 e472 e1c0 4220 e6c0
00000390: 1863 e3c0 a59e ddc0 2442 e1c0 35df ddc0
000003a0: af59 e3c0 9a15 e2c0 9643 ddc0 4fd2 e2c0
000003b0: 45fe ddc0 1bf0 dfc0 640b e1c0 9881 dac0
000003c0: f7ed e5c0 d15f d7c0 3d23 dbc0 2c29 dec0
000003d0: 969d dfc0 4e7e dfc0 80cd e1c0 dbda e1c0
000003e0: 17bf e1c0 6f9c ddc0 2b66 e4c0 4aa1 dfc0
000003f0: ca6a e6c0 e075 dfc0 77e2 dec0 bdd6 e1c0

bias_mu f4 [256]
0.107360445 -0.043335102 0.012945363 -0.028576357 0.0151776895 -0.16716884 0.081072725 0.093075395
-0.0021068386 -0.03749642 -0.015892116 -0.09908454 0.016789364 -0.11091333 -0.045052327 -0.013631177
-0.3510742 -0.13845254 -0.35327178 0.1593632 -0.08184564 -0.02104512 0.0034913316 0.18332255
0.15938433 0.8880271 0.021056242 -0.009575844 -0.033801865 -0.06304937 -0.110300824 -0.02284458
-0.06214726 0.0151661085 0.03407624 0.036509994 -0.12680422 0.16192977 -0.03675457 -0.12478124
0.015232402 -0.0384532 -0.06914193 -0.082488306 0.22811836 -0.012682348 0.03624879 -0.09743464
-0.046259027 0.13050519 -0.01940494 -0.021274574 -0.04489155 -0.04632258 0.106074825 0.074380316
0.0015141114 0.34064537 0.2311724 0.11909672 -0.07844007 -0.13046615 -0.02340665 -0.052637264
0.19098815 0.13294306 0.16673759 -0.019622816 -0.043578032 0.03230941 -0.03923979 0.037844982
0.08755712 -0.20476966 -0.1142169 -0.023644762 -0.010722451 -0.046427444 0.010133754 -0.12768498
0.124089256 -0.04698129 0.15851538 0.042638376 -0.11469996 -0.24584457 -0.021464786 -0.1877907
0.092018954 -0.035703577 0.07249127 -0.18744218 -0.06670316 0.042762212 -0.25510156 0.05368396
0.087719075 -0.003722771 -0.095502 -0.20261541 -0.09101618 0.027296182 0.2719557 -0.022176819
0.13531607 -0.020262662 0.18180653 -0.012061981 -0.025865631 -0.07478939 -0.14714633 -0.24909042
0.022838904 0.07551153 0.010409184 -0.06846601 -0.18239003 -0.190015 0.16212802 -0.016009329
0.06425943 -0.11039201 -0.13106242 -0.14967607 0.007910301 -0.024798341 -0.11946343 -0.052950736
-0.04723472 -0.021072915 0.11036788 -0.07051119 -0.047141377 0.016440388 -0.08525018 -0.007904232
0.025663804 0.22812453 -0.033639275 0.050871193 -0.08022747 0.13483484 -0.7321758 0.022737749
1.7487884 -0.11048545 -0.15051684 -0.14999859 1.4149537 -0.0059165726 0.031368773 -0.15701239
0.13204625 -0.015670827 -0.06780106 -0.06850716 -0.1907404 0.15686199 -0.13043779 -0.079767354
-0.1962122 -0.08488724 -0.06714114 0.039786637 -0.086885974 -0.10190887 -0.07775712 0.05923365
0.07861956 -0.17852348 -0.06169912 -0.06686433 0.053144746 0.07833718 -0.14621972 -0.09586441
-0.027641015 -0.037830796 -0.10438884 -0.13644077 0.06625952 0.12853283 -0.06799914 -0.07237863
-0.08325977 0.033525784 -0.0839934 -0.08051676 0.1182208 -0.037340295 0.0017488993 0.18752383
-0.076345064 -0.07803079 0.05471795 -0.037838686 -0.053640723 -0.7103338 -0.028467137 0.034416243
-0.015542182 -0.07175933 0.16354665 -0.08965989 -0.116520606 -0.018729245 -0.09797579 2.3464892
0.11652019 -0.008370001 -0.14791903 -0.04218317 -0.06614176 -0.28405946 -0.016274115 0.15020509
-0.0077099646 0.013859568 0.02637323 -0.08301874 -0.18396476 0.19546907 0.13646774 -0.19637029
0.03409959 -0.075506255 -0.12917002 -0.18504195 0.016146054 -0.38846356 0.22894761 -0.061379176
-0.08002073 0.20415647 -0.002611605 -0.026291193 0.07707528 0.026738146 -0.048000224 -0.077193886
-0.091601215 1.7718486 -0.018476943 -0.08827264 -0.0485801 0.15665351 -0.06805927 -0.045268416
0.044023562 -0.089372605 -0.079513 -0.06813721 -0.104107656 -0.21312825 -0.028566813 -0.0655138
00000000: cbdf db3d 2680 31bd ca18 543c f718 eabc
00000010: d8ab 783c 4f2e 2bbe 7509 a63d 509e be3d
00000020: e312 0abb d995 19bd 2f30 82bc d6ec cabd
00000030: d989 893c 8726 e3bd ca88 38bd 4d55 5fbc
00000040: ffbf b3be 81c6 0dbe 0ae0 b4be 1b30 233e
00000050: b09e a7bd d166 acbc d3ce 643b e8b8 3b3e
00000060: a535 233e be55 633f 247e ac3c 00e4 1cbc
00000070: d373 0abd 0720 81bd 66e5 e1bd 8e24 bbbc
00000080: 208e 7ebd 457b 783c 8793 0b3d 818b 153d
00000090: f7d8 01be ebd0 253e f68b 16bd 4f8d ffbd
000000a0: 5391 793c 1a81 1dbd 499a 8dbd a1ef a8bd
000000b0: dc97 693e 9fc9 4fbc 9c79 143d d08b c7bd
000000c0: 1b7a 3dbd 27a3 053e 1cf7 9ebc 0448 aebc
000000d0: 34e0 37bd bfbc 3dbd c23d d93d b554 983d
000000e0: 2675 c63a 1269 ae3e 75b8 6c3e fbe8 f33d
000000f0: 30a5 a0bd eb98 05be 4ebf bfbc 2c9a 57bd
00000100: 6692 433e 3a22 083e 42bd 2a3e 07c0 a0bc
00000110: e17e 32bd df56 043d e7b9 20bd 5703 1b3d
00000120: 2651 b33d 23af 51be 8dea e9bd a9b2 c1bc
00000130: 38ad 2fbc b42a 3ebd 0c08 263c dabf 02be
00000140: 8222 fe3d 746f 40bd db51 223e 94a5 2e3d
00000150: d0e7 eabd aebe 7bbe ebd6 afbc 354c 40be
00000160: 6f74 bc3d ea3d 12bd 4e76 943d d8f0 3fbe
00000170: ab9b 88bd 6e27 2f3d ac9c 82be b6e3 5b3d
00000180: 0fa6 b33d bcf9 73bb 8d96 c3bd 6a7a 4fbe
00000190: b166 babd 3e9c df3c c73d 8b3e 29ac b5bc
000001a0: 4c90 0a3e e2fd a5bc 7e2b 3a3e 9d9f 45bc
000001b0: 29e4 d3bc 2e2b 99bd 87ad 16be 8f11 7fbe
000001c0: a718 bb3c caa5 9a3d 488b 2a3c e837 8cbd
000001d0: 74c4 3abe 4b93 42be e304 263e ff25 83bc
000001e0: 739a 833d 3515 e2bd 3a35 06be af44 19be
000001f0: 359a 013c e425 cbbc 3ea9 f4bd dfe2 58bd
00000200: 3279 41bd 1ba1 acbc 8e08 e23d 2c68 90bd
00000210: 5117 41bd fead 863c a597 aebd c080 01bc
00000220: e63c d23c 7a99 693e 56c9 09bd 505e 503d
00000230: 4d4e a4bd 2512 0a3e e06f 3bbf 8444 ba3c
00000240: 4cd8 df3f 3246 e2bd 1621 1abe 3b99 19be
00000250: 341d b53f cfdf c1bb 8b7c 003d dbc7 20be
00000260: 2237 073e 1b60 80bc 48db 8abd 7b4d 8cbd
00000270: 7451 43be 6ea0 203e 7c91 05be 115d a3bd
00000280: daeb 48be 5cd9 adbd 4b81 89bd 50f7 223d
00000290: 46f1 b1bd 99b5 d0bd 203f 9fbd fc9e 723d
000002a0: 4b03 a13d dcce 36be 37b8 7cbd 2af0 88bd
000002b0: 4eae 593d 3e6f a03d 9fba 15be 8f54 c4bd
000002c0: 696f e2bc 77f4 1abd d1c9 d5bd 21b7 0bbe
000002d0: 12b3 873d 1c9e 033e 2243 8bbd 3f3b 94bd
000002e0: 1984 aabd 5552 093d bb04 acbd f9e5 a4bd
000002f0: bf1d f23d 23f2 18bd 533b e53a 3f06 403e
00000300: cd5a 9cbd 9bce 9fbd ee1f 603d bdfc 1abd
00000310: 60b6 5bbd 70d8 35bf ea33 e9bc 0cf8 0c3d
00000320: a3a4 7ebc 8ef6 92bd c678 273e 9b9f b7bd
00000330: 5ba2 eebd 136e 99bc 88a7 c8bd e12c 1640
00000340: 23a2 ee3d 5422 09bc 1678 17be 42c8 2cbd
00000350: 5575 87bd 3e70 91be 4b51 85bc 5dcf 193e
00000360: dfa3 fcbb 3e13 633c ac0c d83c bb05 aabd
00000370: 4261 3cbe 0b29 483e 33be 0b3e 4b15 49be
00000380: 03ac 0b3d 06a3 9abd 2545 04be a37b 3dbe
00000390: bb44 843c b2e4 c6be 3e71 6a3e bb68 7bbd
000003a0: e9e1 a3bd 650e 513e 7627 2bbb a160 d7bc
000003b0: a5d9 9d3d f509 db3c e29b 44bd d417 9ebd
000003c0: 6b99 bbbd efcb e23f f55c 97bc 49c8 b4bd
000003d0: edfb 46bd c769 203e a962 8bbd 606b 39bd
000003e0: 0d52 343d fc08 b7bd b6d7 a2bd 868b 8bbd
000003f0: 6536 d5bd 4b3e 5abe f304 eabc 192c 86bd

bias_rho f4 [256]
-6.9718194 -7.091251 -6.934821 -6.959875 -7.1569586 -6.9075346 -6.9038486 -6.9624243
-7.2883487 -7.1976337 -6.937022 -7.024764 -7.169039 -6.9810696 -7.0711155 -6.9013877
-7.043613 -7.149863 -7.0182304 -6.7876997 -6.867386 -7.079647 -6.846231 -6.841078
-7.2107644 -6.9758043 -7.058674 -7.013439 -7.09351 -6.8595653 -7.1213555 -6.98767
-7.1922455 -7.0204883 -7.083393 -7.0973887 -6.826876 -7.0895014 -6.9651923 -7.212481
-7.0356336 -7.0458245 -7.0799937 -7.1125937 -7.0794024 -6.797056 -6.9612756 -7.0616493
-6.9360914 -6.8863144 -7.2325892 -7.0675855 -7.063039 -6.9813814 -7.0427513 -6.977504
-7.117889 -7.186766 -7.0447173 -6.8025203 -7.166976 -7.021195 -6.9306283 -6.9187193
-7.079483 -7.0787234 -7.1045103 -7.052786 -7.0432897 -6.944301 -6.8828797 -6.913346
-7.1240864 -7.025479 -6.867632 -6.912385 -7.0341964 -6.8519855 -7.0660124 -7.0096264
-7.2060456 -6.9583716 -6.8743544 -7.018437 -6.972476 -7.0335703 -6.859932 -7.004131
-6.875058 -7.012349 -6.998532 -6.955224 -7.143818 -7.1115813 -6.7805514 -7.015223
-7.0173254 -7.103953 -7.1065845 -6.887 -7.1435733 -6.985042 -7.1020656 -6.9062386
-7.0790815 -6.8392296 -6.9945736 -6.9101825 -6.904094 -7.069083 -7.1247168 -7.1352916
-7.1476336 -7.0456405 -7.0225797 -7.0489497 -6.9195347 -7.19994 -7.0450597 -6.9841833
-6.9005284 -6.934636 -6.9400415 -6.9871182 -7.06739 -7.0377917 -7.0434804 -7.1289973
-6.8962536 -7.0379386 -6.9111314 -6.95944 -7.0737953 -7.041395 -6.991934 -7.017653
-7.045634 -6.937499 -7.0187016 -7.022783 -6.8961706 -6.9025726 -6.695202 -7.0549164
-6.8783503 -7.1017056 -7.087338 -6.9922714 -7.1145015 -6.947817 -6.922295 -7.123055
-7.0436864 -6.9640775 -6.9412394 -6.981967 -7.049429 -6.8539333 -6.862875 -6.975174
-7.060673 -7.1175747 -7.049524 -6.891636 -7.100349 -6.924874 -7.0083356 -7.2816086
-7.1263437 -7.1545496 -6.960443 -6.8887305 -7.0352335 -7.0235877 -6.959773 -7.170602
-6.988895 -6.995763 -6.882389 -6.9234667 -6.8879514 -7.014458 -7.225858 -6.878738
-7.006443 -6.968512 -6.982966 -6.9253864 -6.822338 -7.070225 -6.981203 -7.2033386
-6.997438 -7.050495 -7.2835674 -7.012534 -6.9201536 -6.9697423 -7.1183295 -6.8796077
-6.982625 -7.0962844 -6.874041 -6.6827188 -7.001486 -7.036984 -7.023543 -6.980933
-6.918129 -7.0441055 -7.062155 -6.868111 -7.129206 -7.2104425 -6.9943414 -6.9436765
-6.938663 -7.026091 -6.9649324 -7.0046926 -6.9164844 -7.1907187 -6.9849343 -6.954549
-7.069982 -7.0227156 -7.0233526 -6.9221234 -7.0003448 -6.925792 -6.878282 -6.9146533
-7.124764 -7.050196 -7.104999 -7.0328135 -7.0482874 -6.925045 -7.0379686 -6.8950763
-6.9882402 -6.795908 -7.0907807 -7.019032 -7.0060325 -6.904413 -6.9806376 -6.9953885
-6.8763328 -7.021116 -7.0418205 -7.0995493 -6.926098 -7.0724573 -6.7845135 -6.9546347
00000000: 2519 dfc0 87eb e2c0 0eea ddc0 4cb7 dec0
00000010: ce05 e5c0 860a ddc0 54ec dcc0 2ecc dec0
00000020: 273a e9c0 0453 e6c0 16fc ddc0 deca e0c0
00000030: c468 e5c0 ec64 dfc0 9446 e2c0 2bd8 dcc0
00000040: 4765 e1c0 adcb e4c0 5895 e0c0 d634 d9c0
00000050: a0c1 dbc0 788c e2c0 5314 dbc0 1cea dac0
00000060: 95be e6c0 ca39 dfc0 a8e0 e1c0 186e e0c0
00000070: 09fe e2c0 8f81 dbc0 25e2 e3c0 fe9a dfc0
00000080: e026 e6c0 d7a7 e0c0 28ab e2c0 cf1d e3c0
00000090: c575 dac0 32dd e2c0 dbe2 dec0 a5cc e6c0
000000a0: e923 e1c0 6577 e1c0 4f8f e2c0 5e9a e3c0
000000b0: 778a e2c0 7c81 d9c0 c5c2 dec0 08f9 e1c0
000000c0: 76f4 ddc0 b05c dcc0 5f71 e7c0 a929 e2c0
000000d0: 6a04 e2c0 7a67 dfc0 385e e1c0 b647 dfc0
000000e0: bfc5 e3c0 fdf9 e5c0 536e e1c0 3fae d9c0
000000f0: de57 e5c0 a1ad e0c0 b5c7 ddc0 2666 ddc0
00000100: 208b e2c0 e784 e2c0 2658 e3c0 6cb0 e1c0
00000110: a162 e1c0 b737 dec0 8d40 dcc0 213a ddc0
00000120: 84f8 e3c0 b9d0 e0c0 a4c3 dbc0 4232 ddc0
00000130: 2318 e1c0 7743 dbc0 c61c e2c0 dc4e e0c0
00000140: ed97 e6c0 fbaa dec0 b6fa dbc0 0997 e0c0
00000150: 861e dfc0 0213 e1c0 9084 dbc0 d721 e0c0
00000160: 7a00 dcc0 2a65 e0c0 f9f3 dfc0 3291 dec0
00000170: 289a e4c0 1392 e3c0 47fa d8c0 b57c e0c0
00000180: ee8d e0c0 9553 e3c0 2469 e3c0 4e62 dcc0
00000190: 2798 e4c0 7785 dfc0 1f44 e3c0 e8ff dcc0
000001a0: d687 e2c0 f8da dac0 8cd3 dfc0 3720 ddc0
000001b0: 57ee dcc0 ee35 e2c0 aefd e3c0 4f54 e4c0
000001c0: 6ab9 e4c0 e375 e1c0 f9b8 e0c0 ff90 e1c0
000001d0: d46c ddc0 e965 e6c0 2171 e1c0 6e7e dfc0
000001e0: 21d1 dcc0 8ae8 ddc0 d214 dec0 7996 dfc0
000001f0: 0f28 e2c0 9735 e1c0 3164 e1c0 bf20 e4c0
00000200: 1cae dcc0 cb36 e1c0 fd27 ddc0 bcb3 dec0
00000210: 885c e2c0 1c53 e1c0 ecbd dfc0 9d90 e0c0
00000220: d575 e1c0 feff ddc0 3499 e0c0 a3ba e0c0
00000230: 6ead dcc0 e0e1 dcc0 183f d6c0 e0c1 e1c0
00000240: 721b dcc0 2c41 e3c0 79cb e2c0 b0c0 dfc0
00000250: ffa9 e3c0 8454 dec0 7183 ddc0 11f0 e3c0
00000260: e165 e1c0 b9d9 dec0 a21e dec0 466c dfc0
00000270: ec94 e1c0 6c53 dbc0 ac9c dbc0 a034 dfc0
00000280: 09f1 e1c0 2cc3 e3c0 b395 e1c0 4888 dcc0
00000290: 0f36 e3c0 9198 ddc0 4944 e0c0 f002 e9c0
000002a0: 020b e4c0 12f2 e4c0 f3bb dec0 7b70 dcc0
000002b0: a220 e1c0 3bc1 e0c0 76b6 dec0 9275 e5c0
000002c0: 07a5 dfc0 4add dfc0 883c dcc0 0a8d ddc0
000002d0: 196a dcc0 7176 e0c0 3b3a e7c0 9f1e dcc0
000002e0: c834 e0c0 0dfe dec0 7574 dfc0 c49c ddc0
000002f0: 9850 dac0 483f e2c0 0466 dfc0 c081 e6c0
00000300: 03eb dfc0 a89d e1c0 fc12 e9c0 ae66 e0c0
00000310: e671 ddc0 2108 dfc0 5bc9 e3c0 bf25 dcc0
00000320: aa71 dfc0 c314 e3c0 25f8 dbc0 d5d8 d5c0
00000330: 2c0c e0c0 f92e e1c0 ddc0 e0c0 ce63 dfc0
00000340: 5061 ddc0 5069 e1c0 2cfd e1c0 91c7 dbc0
00000350: 7522 e4c0 f2bb e6c0 a5d1 dfc0 9932 dec0
00000360: 8709 dec0 bdd5 e0c0 bae0 dec0 7126 e0c0
00000370: d753 ddc0 5e1a e6c0 9584 dfc0 aa8b dec0
00000380: 4b3d e2c0 16ba e0c0 4ebf e0c0 0982 ddc0
00000390: d302 e0c0 17a0 ddc0 e31a dcc0 d744 ddc0
000003a0: 11fe e3c0 359b e1c0 275c e3c0 cf0c e1c0
000003b0: 928b e1c0 f899 ddc0 0a37 e1c0 77a4 dcc0
000003c0: aa9f dfc0 1478 d9c0 ade7 e2c0 e99b e0c0
000003d0: 6b31 e0c0 f4f0 dcc0 6261 dfc0 39da dfc0
000003e0: eb0a dcc0 fbac e0c0 9856 e1c0 822f e3c0
000003f0: 98a2 ddc0 9251 e2c0 bc1a d9c0 5e8c dec0

mu f4 [256, 4, 1]
0.0076773907 -0.09328018 0.057240978 0.042950757 -0.048900127 -0.014005124 -0.0045687957 -0.11839266
-0.11697839 -0.09023933 0.027470741 0.23526074 -0.14634916 -0.015783766 -0.075836904 0.03733207
-0.72785634 -0.88039577 -0.1657443 2.2189257 -0.085134186 0.10418059 0.11442846 -0.067658655
-0.19206649 0.104166426 0.05993002 -0.009229691 -0.0091087455 0.026863256 -0.10471709 -0.10823721
0.20647879 0.08348828 -0.24114074 0.48571542 0.17286412 -0.04878307 -0.024809217 -0.1653604
-0.07247384 0.014087028 0.033537574 -0.104538046 -0.077821516 -0.20044743 0.14291479 0.006772797
-0.063481726 -0.009229495 -0.12146443 -0.15771715 -0.028274566 -0.0010031784 0.01246735 0.07864028
0.044192832 -0.14646727 -0.047584195 0.0393978 -0.15485184 -0.060483783 -0.085994534 -0.20631604
-0.25438654 -0.35700178 -0.27119488 1.6019446 -0.09008765 0.03685512 0.061558712 0.012920226
0.057696197 -0.038875524 0.15161683 0.13106596 -0.25582913 -0.204502 -0.07646226 0.36744827
-0.017018668 -0.17215534 -0.16636346 0.054916065 -0.17120881 -0.11289426 -0.017059395 0.40689948
-0.13590367 -0.245533 -0.27213943 -0.19208315 -0.081513286 -0.00088889553 0.006981943 -0.028472962
-0.106928274 -0.08601963 0.1947705 -0.1266147 -0.22181654 0.12333008 -0.8329438 -1.3709944
-0.12847899 -0.09955977 -0.04190323 0.0043453276 0.037284397 0.114659496 0.009295159 -0.10692061
0.02241552 -0.04233046 -0.014877266 0.010823898 -0.1999933 -0.28291133 -0.15299164 -0.20850423
-0.00039774604 -0.06858264 0.095290095 0.2087751 -0.043707523 -0.17341267 0.06569964 -0.046459906
-0.036714915 -0.14285968 -0.06804107 0.029451003 0.05648404 -0.12796812 0.01893509 -0.19022398
-0.05178808 0.018168086 -0.20808351 0.07131309 0.027613508 -0.052221294 -0.038187094 -0.0116656255
-0.07407626 0.2066601 -0.21898285 -0.12171042 -0.2797242 -0.14697246 0.018443096 -0.0183023
0.051343758 0.016801545 -0.13298447 -0.19728261 -0.12378019 -0.35429633 -0.14274938 0.90640324
-0.1311752 -0.21595766 -0.15757483 0.5716869 0.09317625 -0.017607398 -0.056110132 -0.13570066
-0.085081674 -0.05024836 0.2017984 -0.17419647 -0.24720745 0.06280871 0.070302196 0.26774946
-0.08486589 0.04341992 0.049220093 -0.24129143 -0.07420761 0.06256138 -0.154592 -0.1361666
-0.06444864 -0.08351214 -0.01753332 0.13236925 -0.17856771 -0.011339129 0.06885476 0.031623144
0.18143849 -0.15834711 0.1629893 -0.13653673 -0.11882303 0.0259374 0.03794018 -0.07146966
-0.023185989 -0.22596692 -0.046212338 0.008558552 0.07445222 -0.14265901 -0.10430289 -0.058249265
0.107257515 0.21670298 -0.20019834 0.20205584 -0.056468964 -0.10661482 0.061478376 0.20674592
-0.079096995 0.019729074 -0.005817033 -0.051693887 -0.18654655 -0.047858696 -0.02539844 0.19305445
0.019380016 0.1093192 -0.10256257 0.22719617 0.3330677 0.15478152 -0.80781066 -0.2197785
-0.42501417 -0.38548106 -0.10315777 0.3010583 0.013294014 0.107188456 -0.25396186 0.44878414
-0.02116111 -0.00070542307 -0.13110447 0.1369747 -0.08098488 0.10240748 -0.040725376 -0.024499897
0.013588861 0.023638962 -0.1512972 -0.0021471146 -0.032265607 0.1127793 -0.1160018 0.048796363
00000000: 9f92 fb3b ae09 bfbd 8475 6a3d 22ed 2f3d
00000010: 804b 48bd bf75 65bc d6b5 95bb da77 f2bd
00000020: 5e92 efbd 66cf b8bd 520a e13c 31e8 703e
00000030: 8edc 15be f54c 81bc 6150 9bbd 83e9 183d
00000040: cb54 3abf 9e61 61bf e0b8 29be e102 0e40
00000050: d55a aebd a25c d53d 7859 ea3d 9f90 8abd
00000060: 14ad 44be 3555 d53d 2e79 753d 2138 17bc
00000070: d93c 15bc 5510 dc3c ea75 d6bd 78ab ddbd
00000080: 2d6f 533e e7fb aa3d 99ed 76be b1af f83e
00000090: 4b03 313e c2d0 47bd b33c cbbc 3d54 29be
000000a0: 2a6d 94bd 47cd 663c b25e 093d 0b18 d6bd
000000b0: e360 9fbd 1742 4dbe 4158 123e 57ee dd3b
000000c0: b502 82bd 4f37 17bc 58c2 f8bd 9b80 21be
000000d0: 10a0 e7bc 157d 83ba db43 4c3c 280e a13d
000000e0: 8b03 353d 84fb 15be a5e7 42bd 965f 213d
000000f0: 7b91 1ebe d8bd 77bd e71d b0bd 8344 53be
00000100: f43e 82be f0c8 b6be 0eda 8abe 850c cd3f
00000110: e07f b8bd 65f5 163d fd24 7c3d 5baf 533c
00000120: d952 6c3d f13b 1fbd 7141 1b3e 2836 063e
00000130: 09fc 82be f968 51be 3f98 9cbd 2e22 bc3e
00000140: bc6a 8bbc 7d49 30be 2f5b 2abe abef 603d
00000150: 5d51 2fbe 1b35 e7bd 25c0 8bbc 2155 d03e
00000160: 552a 0bbe 016d 7bbe dc55 8bbe 72b1 44be
00000170: 70f0 a6bd c504 69ba c8c8 e43b 2140 e9bc
00000180: 36fd dabd 0f2b b0bd eb71 473e 49a7 01be
00000190: e023 63be 7b94 fc3d ce3b 55bf bf7c afbf
000001a0: ff8f 03be fee5 cbbd b9a2 2bbd 4063 8e3b
000001b0: 86b7 183d 99d2 ea3d b94a 183c 31f9 dabd
000001c0: c1a0 b73c b462 2dbd c7bf 73bc b856 313c
000001d0: 0bcb 4cbe c1d9 90be d7a9 1cbe 2282 55be
000001e0: 9288 d0b9 0e75 8cbd 7427 c33d 24c9 553e
000001f0: a906 33bd 1793 31be 888d 863d be4c 3ebd
00000200: 6162 16bd cf49 12be 1e59 8bbd 3b43 f13c
00000210: cf5b 673d 130a 03be c31d 9b3c 13ca 42be
00000220: bd1f 54bd 3dd5 943c d813 55be 990c 923d
00000230: b935 e23c ffe5 55bd 126a 1cbd 2e21 3fbc
00000240: 4bb5 97bd b59e 533e 0a3d 60be 5043 f9bd
00000250: 0338 8fbe f37f 16be fa15 973c b4ee 95bc
00000260: d54d 523d 65a3 893c 152d 08be 7404 4abe
00000270: 7880 fdbd 5466 b5be e52c 12be 0b0a 683f
00000280: cb52 06be 0124 5dbe 4c5b 21be 135a 123f
00000290: 31d3 be3d 643d 90bc bdd3 65bd 1df5 0abe
000002a0: 4d3f aebd 39d1 4dbd 3da4 4e3e 8f60 32be
000002b0: f323 7dbe daa1 803d 99fa 8f3d 7516 893e
000002c0: 2bce adbd 16d9 313d 029b 493d 1a15 77be
000002d0: 29fa 97bd 2e20 803d 5e4d 1ebe 426f 0bbe
000002e0: a6fd 83bd 6a08 abbd 09a2 8fbc ce8b 073e
000002f0: 74da 36be c1c7 39bc b903 8d3d 4587 013d
00000300: 03cb 393e bf25 22be abe6 263e 49d0 0bbe
00000310: 7d59 f3bd ac7a d43c 2a67 1b3d af5e 92bd
00000320: 8bf0 bdbc df63 67be 2649 3dbd 2b39 0c3c
00000330: 687a 983d 3415 12be c19c d5bd c896 6ebd
00000340: d4a9 db3d 63e7 5d3e cb00 4dbe bae7 4e3e
00000350: 004c 67bd df58 dabd c0d0 7b3d 34b5 533e
00000360: 9bfd a1bd de9e a13c cf9c bebb f8bc 53bd
00000370: 0f06 3fbe 7b07 44bd 6410 d0bc 11b0 453e
00000380: d7c2 9e3c bfe2 df3d 530c d2bd 1da6 683e
00000390: d987 aa3e 0c7f 1e3e aecc 4ebf 9d0d 61be
000003a0: 759b d9be c65d c5be 6244 d3bd 5024 9a3e
000003b0: 23cf 593c 9f85 db3d 4a07 82be 09c7 e53e
000003c0: 105a adbc 24ec 38ba 4040 06be 1943 0c3e
000003d0: 67db a5bd 03bb d13d a7cf 26bd 02b4 c8bc
000003e0: d0a3 5e3c 7fa6 c13c a7ed 1abe 9bb6 0cbb
000003f0: f128 04bd d5f8 e63d 5a92 edbd b2de 473d

rho f4 [256, 4, 1]
-6.877293 -6.972386 -6.862385 -7.1635075 -7.0053825 -7.0655365 -6.9769874 -6.918898
-6.929987 -6.970908 -7.1079383 -6.9324937 -7.0210004 -6.9627376 -7.0195513 -7.1368175
-7.3506 -6.959316 -6.7096553 -6.991174 -7.0113077 -6.9774723 -6.9184046 -7.0139894
-6.9869437 -7.05367 -6.931536 -7.019694 -6.981847 -6.96623 -6.9632697 -7.1402135
-6.75795 -6.8908362 -6.9533677 -6.9364705 -7.0296483 -7.074667 -6.8591685 -6.9112716
-7.029809 -6.9506316 -6.987345 -6.8838515 -6.865631 -6.905878 -7.066806 -7.0132003
-7.060625 -7.0937543 -7.1240273 -7.0394998 -7.0260634 -7.074407 -7.0643353 -7.04115
-7.2559304 -6.9649887 -6.768248 -6.907195 -6.8335423 -7.186692 -7.234354 -6.9114614
-7.126539 -7.1540704 -7.256335 -6.988431 -7.043242 -7.138381 -6.98319 -6.9709697
-6.931896 -7.1160283 -6.963567 -6.8599634 -7.016371 -6.9530067 -7.023986 -6.955423
-6.991882 -7.052965 -7.117875 -6.9759097 -7.1371503 -7.174245 -6.931892 -6.843931
-7.2012677 -7.0218997 -6.892676 -6.958054 -6.935881 -7.002707 -6.925797 -6.76817
-7.068366 -7.148057 -7.161623 -7.0166674 -7.032237 -6.77992 -7.167873 -7.0016065
-6.8397384 -7.137093 -6.9629946 -7.0100465 -7.0466156 -7.291146 -7.0125666 -6.8342857
-6.863887 -6.8671627 -6.666221 -7.1391244 -7.2185583 -6.916071 -7.1395664 -6.8890557
-7.067531 -6.9395943 -7.1481886 -7.1546073 -6.979408 -7.0140653 -7.1901617 -6.9461393
-6.8327317 -7.0809207 -6.966597 -7.0332847 -6.892969 -6.966051 -6.8646803 -6.940557
-6.9963126 -7.0948076 -7.118872 -6.922677 -6.902834 -7.0541487 -7.070713 -6.9314985
-7.013475 -7.06679 -7.0709634 -6.7815104 -7.0357146 -6.999864 -7.02548 -6.808649
-6.7454534 -7.1864233 -7.179592 -7.0163617 -7.0880556 -7.1649585 -6.7129498 -6.8928113
-7.0430593 -6.900514 -7.0787973 -7.057793 -6.969583 -6.831432 -6.8567634 -6.891907
-6.9089694 -7.07286 -7.2295656 -6.830282 -7.0863056 -7.1944366 -7.1237087 -6.956815
-7.0816464 -7.2156777 -7.1278477 -7.0052023 -7.018975 -7.0466843 -7.0267925 -7.1989307
-6.91406 -7.0469275 -6.9849324 -7.0492997 -6.9247656 -7.0136414 -6.8381014 -7.0414004
-7.0612063 -6.9702916 -7.094349 -7.083549 -7.0644803 -6.8084564 -7.0052695 -7.172706
-7.065375 -6.9173117 -7.143938 -7.1273713 -6.9815645 -6.944389 -6.88511 -6.8745904
-7.015189 -6.8545957 -7.259496 -6.994041 -6.9713006 -7.002075 -6.9388385 -7.218007
-7.256782 -6.876866 -6.976678 -7.014392 -6.9436145 -7.048604 -6.939878 -7.0586157
-6.9274564 -7.090011 -7.0452747 -7.1914377 -7.1058464 -6.925616 -7.039324 -6.933497
-7.1046977 -7.065137 -6.9145 -7.0881724 -6.9372888 -6.9980597 -7.0326405 -6.8283195
-7.1852984 -6.7304463 -6.8480515 -6.942526 -6.9879866 -6.984168 -7.0563354 -7.0579658
-7.0545764 -6.925346 -7.1374717 -6.9884386 -7.200536 -6.983139 -6.9651446 -7.057463
00000000: c912 dcc0 c91d dfc0 a898 dbc0 743b e5c0
00000010: 182c e0c0 e018 e2c0 7b43 dfc0 9d67 ddc0
00000020: 74c2 ddc0 ae11 dfc0 3b74 e3c0 fdd6 ddc0
00000030: 09ac e0c0 bfce dec0 2aa0 e0c0 cf60 e4c0
00000040: 1d38 ebc0 b7b2 dec0 7fb5 d6c0 b3b7 dfc0
00000050: a25c e0c0 7447 dfc0 9263 ddc0 9a72 e0c0
00000060: 0b95 dfc0 aab7 e1c0 25cf ddc0 55a1 e0c0
00000070: 4a6b dfc0 5beb dec0 1bd3 dec0 a17c e4c0
00000080: 2041 d8c0 bb81 dcc0 fd81 dec0 91f7 ddc0
00000090: e1f2 e0c0 ac63 e2c0 4f7e dbc0 2329 ddc0
000000a0: 32f4 e0c0 936b dec0 5598 dfc0 8348 dcc0
000000b0: 40b3 dbc0 f4fc dcc0 4623 e2c0 236c e0c0
000000c0: a4f0 e1c0 0900 e3c0 08f8 e3c0 9543 e1c0
000000d0: 83d5 e0c0 8b61 e2c0 090f e2c0 1a51 e1c0
000000e0: 9530 e8c0 30e1 dec0 7d95 d8c0 be07 ddc0
000000f0: 61ac dac0 62f9 e5c0 d47f e7c0 b12a ddc0
00000100: 9c0c e4c0 25ee e4c0 e533 e8c0 3aa1 dfc0
00000110: 3d62 e1c0 9e6d e4c0 4b76 dfc0 2f12 dfc0
00000120: 18d2 ddc0 81b6 e3c0 8ad5 dec0 d284 dbc0
00000130: 1c86 e0c0 087f dec0 7ec4 e0c0 d392 dec0
00000140: 7fbd dfc0 e4b1 e1c0 a2c5 e3c0 a73a dfc0
00000150: 8963 e4c0 6a93 e5c0 0fd2 ddc0 7c01 dbc0
00000160: c970 e6c0 67b3 e0c0 cd90 dcc0 61a8 dec0
00000170: bdf2 ddc0 2d16 e0c0 21a0 ddc0 d994 d8c0
00000180: 0e30 e2c0 e2bc e4c0 042c e5c0 8a88 e0c0
00000190: 1608 e1c0 1bf5 d8c0 375f e5c0 290d e0c0
000001a0: 23df dac0 1163 e4c0 dad0 dec0 4d52 e0c0
000001b0: e07d e1c0 1151 e9c0 f266 e0c0 78b2 dac0
000001c0: f6a4 dbc0 ccbf dbc0 af51 d5c0 b573 e4c0
000001d0: 6efe e6c0 7450 ddc0 5477 e4c0 2573 dcc0
000001e0: 3729 e2c0 2811 dec0 f6bd e4c0 8bf2 e4c0
000001f0: 4f57 dfc0 3973 e0c0 ce15 e6c0 c646 dec0
00000200: bda5 dac0 e796 e2c0 5dee dec0 ab10 e1c0
00000210: 3493 dcc0 e4e9 dec0 76ab dbc0 0b19 dec0
00000220: cbe1 dfc0 aa08 e3c0 cdcd e3c0 9286 ddc0
00000230: 04e4 dcc0 96bb e1c0 4843 e2c0 d6ce ddc0
00000240: 636e e0c0 2523 e2c0 5545 e2c0 2202 d9c0
00000250: 9324 e1c0 e3fe dfc0 bbd0 e0c0 74e0 d9c0
00000260: c1da d7c0 2ef7 e5c0 38bf e5c0 0986 e0c0
00000270: 5ad1 e2c0 5747 e5c0 7cd0 d6c0 e991 dcc0
00000280: be60 e1c0 03d1 dcc0 8285 e2c0 71d9 e1c0
00000290: d306 dfc0 179b dac0 9b6a dbc0 818a dcc0
000002a0: 4716 ddc0 de54 e2c0 9a58 e7c0 ac91 dac0
000002b0: 04c3 e2c0 d338 e6c0 6cf5 e3c0 3a9e dec0
000002c0: d99c e2c0 d5e6 e6c0 5417 e4c0 9e2a e0c0
000002d0: 719b e0c0 707e e1c0 7cdb e0c0 a45d e6c0
000002e0: fb3f ddc0 6e80 e1c0 9184 dfc0 dd93 e1c0
000002f0: ae97 ddc0 c06f e0c0 bad1 dac0 2753 e1c0
00000300: 67f5 e1c0 a10c dfc0 e804 e3c0 6fac e2c0
00000310: 3910 e2c0 e0de d9c0 2b2b e0c0 cf86 e5c0
00000320: 8d17 e2c0 9e5a ddc0 249b e4c0 6d13 e4c0
00000330: fa68 dfc0 6f38 dec0 d252 dcc0 a5fc dbc0
00000340: 6e7c e0c0 d958 dbc0 cb4d e8c0 2fcf dfc0
00000350: e514 dfc0 0011 e0c0 f70a dec0 eaf9 e6c0
00000360: 8f37 e8c0 490f dcc0 f240 dfc0 e675 e0c0
00000370: 1732 dec0 2a8e e1c0 7b13 dec0 2ee0 e1c0
00000380: b9ad ddc0 5fe1 e2c0 e472 e1c0 4220 e6c0
00000390: 1863 e3c0 a59e ddc0 2442 e1c0 35df ddc0
000003a0: af59 e3c0 9a15 e2c0 9643 ddc0 4fd2 e2c0
000003b0: 45fe ddc0 1bf0 dfc0 640b e1c0 9881 dac0
000003c0: f7ed e5c0 d15f d7c0 3d23 dbc0 2c29 dec0
000003d0: 969d dfc0 4e7e dfc0 80cd e1c0 dbda e1c0
000003e0: 17bf e1c0 6f9c ddc0 2b66 e4c0 4aa1 dfc0
000003f0: ca6a e6c0 e075 dfc0 77e2 dec0 bdd6 e1c0

eps_w f4 [256, 4, 1]
2.2378619 0.8160054 0.37156096 0.78412545 -0.5859084 -0.06820992 -0.92831576 0.40853873
0.26590544 0.18510322 -0.20431745 0.9897668 -0.7117957 0.51550126 0.9380045 1.4633688
-0.5751442 0.016267609 0.3380513 0.1859751 -0.5388766 -1.6659127 0.5019392 0.77967054
-0.52798843 -0.4755657 -0.6012361 -1.23834 -0.95547163 -0.9774408 -1.896964 -0.37312552
0.23436694 -1.6907362 -1.5072777 -0.41371292 -0.67395824 -0.39399806 -0.56820774 -1.5234355
0.4802495 -0.034691215 -1.9396248 -0.6639753 0.7960197 -0.16409315 -0.8257484 -1.1395586
-0.47783646 -0.09071008 0.5464861 -0.7408326 -1.113579 -1.0515612 0.8513262 0.007953064
-1.2800468 0.34765002 2.1407657 0.037549827 0.061155267 1.335526 -0.18507554 -1.2745327
1.2330574 0.5842945 -0.40546465 -0.7664199 -0.3268502 1.371085 -2.9720075 0.5092151
-2.8718472 -0.22343823 -0.53897697 0.8051152 1.0752869 0.084065415 0.104916945 1.0246521
-1.9633036 1.0150238 -0.89523107 0.05794723 0.68918353 -0.87790954 0.8017422 0.1970274
1.906827 1.1575139 1.1242939 0.88354456 -1.7094363 0.47575274 1.3384695 0.90013975
1.6406704 1.6851699 0.16679558 1.4762889 0.85142654 -1.102189 -0.022751583 -0.46303123
0.88326216 -0.48535234 1.5845361 -0.80106246 1.304526 -2.2279298 2.056326 -0.17468755
-1.9853549 -0.8537946 1.346507 0.6375865 0.47722483 -1.4318819 -2.0179925 -0.09283393
-2.3380833 -1.1782762 1.6370333 0.102370046 0.8016584 1.958327 -0.57883734 1.988989
-0.5398489 0.283333 -0.040461905 1.1133202 0.40526268 0.5676705 2.087402 0.31684682
-0.94857097 -0.032968834 1.6746402 0.17473473 0.7022722 -0.33008453 0.54154235 -0.6390864
1.0549728 -0.77499723 0.89223856 0.5878287 1.1220574 0.1564761 0.46001813 0.22352566
-1.1323878 0.15064134 0.38440812 0.7900359 -0.24376015 -1.4325904 0.07939575 -2.5650527
0.29726854 -0.3819002 -2.1033518 0.03915148 -0.23592672 0.15953416 -0.70942724 -0.55990773
-1.0083455 -0.1292685 0.9511082 -0.36889553 1.7433139 1.0424392 0.69090927 -1.340073
1.7321995 0.097770676 0.08309313 1.1190732 0.2819421 0.0026752541 1.3019725 0.3603173
0.60115665 0.3083956 -0.028946228 -0.6704492 0.41205242 0.091965556 0.7111503 2.5790544
-1.7068087 -0.5511794 0.61862975 -0.60490316 0.73387945 0.6335912 0.02345534 0.2435325
-0.7573926 -0.22113575 0.366913 0.72739524 -0.31220362 -1.4356655 -0.6483972 0.11782891
-0.5636169 -0.14828135 0.121743806 -1.1901588 -0.37406537 0.83749086 -0.49827805 -1.3056896
0.8060799 0.05658237 0.88924044 0.012372671 -0.29354286 0.95455945 0.1204675 1.5420355
-1.1246822 0.47445026 0.7716665 -0.009495498 0.39438748 1.2649008 1.3228655 1.6816335
-0.55371857 0.060481835 -0.22588544 -0.5562982 -0.3040713 -0.8950381 1.1872126 -0.07667823
-0.028007843 -0.09168404 1.4484426 1.9842592 -0.5001007 0.5844765 2.6616163 0.39535868
1.171217 1.2338973 0.8790742 -1.5602639 1.1297961 -0.10210764 -0.45935804 -1.425948
00000000: 2139 0f40 bbe5 503f 3d3d be3e 72bc 483f
00000010: 18fe 15bf a4b1 8bbd 1aa6 6dbf fd2b d13e
00000020: c224 883e b38b 3d3e 9838 51be 5b61 7d3f
00000030: 3e38 36bf e4f7 033f 1021 703f ab4f bb3f
00000040: a63c 13bf a643 853c 0f15 ad3e 4270 3e3e
00000050: d1f3 09bf a13c d5bf 167f 003f 7d98 473f
00000060: 402a 07bf 597d f3be 9cea 19bf ed81 9ebf
00000070: ca99 74bf 8f39 7abf b7cf f2bf 4f0a bfbe
00000080: e3fd 6f3e 0b6a d8bf 7aee c0bf 2ed2 d3be
00000090: 8788 2cbf 1dba c9be 1076 11bf efff c2bf
000000a0: 43e3 f53e 6018 0ebd a045 f8bf 49fa 29bf
000000b0: f2c7 4b3f 0908 28be 3f64 53bf 0edd 91bf
000000c0: fba6 f4be 35c6 b9bd 83e6 0b3f 35a7 3dbf
000000d0: c289 8ebf 8f99 86bf 84f0 593f 914d 023c
000000e0: 93d8 a3bf 2fff b13e 4e02 0940 d9cd 193d
000000f0: f27d 7a3d 84f2 aa3f 7184 3dbe e323 a3bf
00000100: d3d4 9d3f 5394 153f 1099 cfbe 1834 44bf
00000110: e958 a7be b77f af3f 5f35 3ec0 ec5b 023f
00000120: 58cc 37c0 fecc 64be 65fa 09bf 081c 4e3f
00000130: 00a3 893f 7d2a ac3d b2de d63d cd27 833f
00000140: 884d fbbf 4dec 813f dd2d 65bf 135a 6d3d
00000150: 556e 303f aebe 60bf fa3e 4d3f 8dc1 493e
00000160: e812 f43f 6a29 943f dde8 8f3f fa2f 623f
00000170: cfce dabf dd95 f33e f852 ab3f 8f6f 663f
00000180: 7d01 d23f a6b3 d73f 76cc 2a3e 09f7 bc3f
00000190: 17f7 593f 8714 8dbf 8761 babc 6e12 edbe
000001a0: 781d 623f 1a80 f8be 14d2 ca3f 6e12 4dbf
000001b0: b5fa a63f 6796 0ec0 d89a 0340 4be1 32be
000001c0: 1c20 febf 4892 5abf 575a ac3f de38 233f
000001d0: d056 f43e e847 b7bf ca26 01c0 b71f bebd
000001e0: 28a3 15c0 c1d1 96bf 4f8a d13f 63a7 d13d
000001f0: 7c39 4d3f 76aa fa3f af2e 14bf 3197 fe3f
00000200: 8a33 0abf 0611 913e 62bb 25bd 4781 8e3f
00000210: 977e cf3e db52 113f ff97 0540 bf39 a23e
00000220: 8cd5 72bf 540a 07bd 9c5a d63f a9ed 323e
00000230: 1cc8 333f d700 a9be 85a2 0a3f 2b9b 23bf
00000240: 5909 873f 3866 46bf bf69 643f f17b 163f
00000250: 949f 8f3f 453b 203e 7f87 eb3e e9e3 643e
00000260: 15f2 90bf b941 1a3e 24d1 c43e cb3f 4a3f
00000270: 439c 79be 1f5f b7bf 3d9a a23d d329 24c0
00000280: 9533 983e 6c88 c3be 519d 06c0 4d5d 203d
00000290: c696 71be ec5c 233e 069d 35bf 1d56 0fbf
000002a0: 7711 81bf f65e 04be d47b 733f e0df bcbe
000002b0: e924 df3f a66e 853f 6edf 303f 8387 abbf
000002c0: b7b8 dd3f fe3b c83d bb2c aa3d ca3d 8f3f
000002d0: b75a 903e 5153 2f3b 09a7 a63f 827b b83e
000002e0: 67e5 193f 07e6 9d3e a420 edbc 8fa2 2bbf
000002f0: 89f8 d23e 7058 bc3d f20d 363f 3a0f 2540
00000300: b578 dabf 181a 0dbf 855e 1e3f efda 1abf
00000310: 86df 3b3f 0833 223f 6a25 c03c 9560 793e
00000320: 7be4 41bf 6971 62be 05dc bb3e 9336 3a3f
00000330: 27d9 9fbe e3c3 b7bf 5cfd 25bf 4950 f13d
00000340: 3249 10bf 11d7 17be d154 f93d 2057 98bf
00000350: 7f85 bfbe cd65 563f 4d1e ffbe d620 a7bf
00000360: 415b 4e3f eac2 673d 43a5 633f beb6 4a3c
00000370: 404b 96be 025e 743f aab7 f63d 6b61 c53f
00000380: 96f5 8fbf 25eb f23e f08b 453f 0193 1bbc
00000390: 28ed c93e 45e8 a13f a853 a93f c43f d73f
000003a0: 80c0 0dbf cdbb 773d 834e 67be 8f69 0ebf
000003b0: 3caf 9bbe 3821 65bf 95f6 973f 7a09 9dbd
000003c0: b470 e5bc d8c4 bbbd 9166 b93f 35fc fd3f
000003d0: 9906 00bf 40a0 153f ec57 2a40 746c ca3e
000003e0: 70ea 953f 59f0 9d3f 020b 613f bab6 c7bf
000003f0: 299d 903f cf1d d1bd fa30 ebbe 7785 b6bf

sigma f4 [256, 4, 1]
0.0010303998 0.00093697454 0.0010458683 0.0007740342 0.0009065759 0.0008536721 0.000932675 0.0009884303
0.0009775356 0.00093835953 0.00081824604 0.0009750895 0.00089253334 0.00094605424 0.00089382706 0.00079496304
0.00064200093 0.00094929547 0.0012183418 0.00091954274 0.0009012225 0.00093222305 0.000988918 0.00089881
0.00092343934 0.0008638582 0.00097602315 0.0008936997 0.00092815585 0.00094275764 0.0009455512 0.00079226895
0.0011609341 0.001016546 0.00095495605 0.00097122137 0.00088485144 0.00084591645 0.0010492358 0.0009959937
0.00088470936 0.00095757126 0.00092306884 0.0010236676 0.0010424805 0.0010013775 0.00085258967 0.0008995193
0.00085787335 0.00082992995 0.0008051919 0.000876181 0.00088802783 0.0008461362 0.00085469766 0.0008747368
0.00070572615 0.00094392797 0.0011490467 0.0010000601 0.0010764565 0.0007563015 0.00072111306 0.0009958049
0.00080317265 0.0007813705 0.00070544094 0.0009220676 0.0008729097 0.0007937215 0.0009269105 0.00093830185
0.000975672 0.00081165583 0.00094527047 0.0010484026 0.0008966731 0.00095530064 0.0008898739 0.00095299643
0.0009188926 0.000864467 0.00081015885 0.00093368016 0.0007946986 0.00076577073 0.0009756762 0.0010653372
0.00074536214 0.00089173135 0.0010146787 0.0009504934 0.00097179366 0.00090900355 0.0009816381 0.0011491365
0.0008512611 0.00078608154 0.0007754937 0.0008964074 0.00088256475 0.0011357205 0.00077066384 0.000910004
0.0010698109 0.00079474406 0.0009458112 0.00090235943 0.00086997106 0.00068131456 0.0009000893 0.0010756571
0.0010442993 0.0010408858 0.0012723912 0.00079313194 0.0007325898 0.0009912275 0.0007927816 0.0010183568
0.0008519718 0.0009681937 0.0007859781 0.0007809513 0.00093042135 0.00089874194 0.0007536831 0.00096188055
0.0010773289 0.00084064505 0.0009424117 0.00088164106 0.0010143813 0.00094292616 0.0010434716 0.0009672625
0.00091483205 0.00082905655 0.00080935186 0.000984704 0.0010044288 0.00086344493 0.00084926636 0.00097605994
0.00089927233 0.0008526031 0.00084905385 0.0011339169 0.0008795023 0.0009115903 0.00088854606 0.0011035744
0.0011755242 0.0007565049 0.0007616884 0.0008966813 0.00083467097 0.0007729123 0.0012143371 0.0010145414
0.00087306905 0.0010067604 0.00084243115 0.00086030527 0.00093960325 0.0010787295 0.0010517611 0.0010154586
0.0009982882 0.0008474459 0.0007245731 0.0010799698 0.00083613227 0.00075046933 0.0008054484 0.0009516715
0.00084003544 0.00073470233 0.0008021229 0.00090673915 0.00089434226 0.00086991134 0.0008873809 0.00074710534
0.0009932216 0.0008696999 0.0009252976 0.00086764013 0.0009826506 0.0008991228 0.0010715628 0.000874518
0.0008573751 0.000938938 0.0008294368 0.0008384394 0.00085457385 0.0011037869 0.00090667827 0.0007669495
0.00085381005 0.0009899989 0.00078932475 0.0008025049 0.0009284178 0.0009635649 0.0010223809 0.0010331871
0.0008977328 0.0010540424 0.000703215 0.00091691164 0.00093799154 0.0009095778 0.00096892536 0.0007329936
0.00070512557 0.0010308399 0.00093296356 0.0008984485 0.00096431107 0.0008682437 0.0009679192 0.00085959816
0.0009800114 0.00083304103 0.00087113783 0.0007527224 0.0008199588 0.0009818159 0.0008763351 0.0009741122
0.0008209009 0.00085401314 0.0009927847 0.00083457347 0.00097042735 0.0009132358 0.000882209 0.0010820903
0.000757356 0.0011932877 0.0010609591 0.00096536084 0.0009224773 0.00092600484 0.00086155965 0.0008601568
0.0008630759 0.0009820808 0.0007944433 0.0009220606 0.00074590766 0.00092695776 0.0009437808 0.000860589
00000000: 7b0e 873a 4c9f 753a 8415 893a 8ee8 4a3a
00000010: 47a7 6d3a f7c8 5f3a c27e 743a 388e 813a
00000020: a720 803a 3efc 753a 907f 563a 269d 7f3a
00000030: e6f8 693a a000 783a b84f 6a3a 1165 503a
00000040: f44b 283a 24da 783a c4b0 9f3a 780d 713a
00000050: 0540 6c3a 6e60 743a 959e 813a 1e9e 6b3a
00000060: f712 723a 8b74 623a cedb 7f3a 2c47 6a3a
00000070: 7c4f 733a 6523 773a dede 773a 45b0 4f3a
00000080: 7c2a 983a a03d 853a 0456 7a3a 9099 7e3a
00000090: 60f5 673a 7ec0 5d3a 8386 893a 018c 823a
000000a0: d7eb 673a 8505 7b3a 1afa 713a 962c 863a
000000b0: d7a3 883a a740 833a 5380 5f3a b8cd 6b3a
000000c0: e8e2 603a a88f 593a 8413 533a 83af 653a
000000d0: 8aca 683a 3dcf 5d3a ca0d 603a 984e 653a
000000e0: 7b00 393a ef71 773a 9c9b 963a 7314 833a
000000f0: e317 8d3a 8942 463a 1409 3d3a ab85 823a
00000100: 018c 523a e3d4 4c3a 57ed 383a e9b6 713a
00000110: fad3 643a c011 503a e9fb 723a 5ff8 753a
00000120: 3dc4 7f3a 4dc5 543a 07cc 773a 8e6a 893a
00000130: b70e 6b3a 246d 7a3a 6d46 693a 82d2 793a
00000140: d7e1 703a 669d 623a d760 543a 37c2 743a
00000150: 5253 503a 01be 483a 85c4 7f3a c9a2 8b3a
00000160: 6864 433a 14c3 693a f8fe 843a 882a 793a
00000170: f8bf 7e3a 324a 6e3a 4faa 803a 9f9e 963a
00000180: 2a27 5f3a 0a11 4e3a 804a 4b3a e2fc 6a3a
00000190: eb5b 673a 75dc 943a 6006 4a3a 568d 6e3a
000001a0: e638 8c3a 5f56 503a 51f0 773a 518c 6c3a
000001b0: c50e 643a 3f9a 323a f8f3 6b3a 10fd 8c3a
000001c0: dfe0 883a 556e 883a 5dc6 a63a 2fea 4f3a
000001d0: 450b 403a 13ec 813a acd2 4f3a 627a 853a
000001e0: dc56 5f3a 61ce 7d3a 190a 4e3a c1b8 4c3a
000001f0: 85e7 733a 8d99 6b3a d192 453a b626 7c3a
00000200: 2935 8d3a bc5e 5c3a 2e0c 773a ee1d 673a
00000210: fdf4 843a b42e 773a 19c5 883a e38f 7d3a
00000220: 57d1 6f3a 0b55 593a af2a 543a 2f11 813a
00000230: 0aa7 833a cf58 623a 4da1 5e3a 46de 7f3a
00000240: 25bd 6b3a 3a81 5f3a 0a93 5e3a f09f 943a
00000250: 668e 663a caf7 6e3a 51ed 683a d0a5 903a
00000260: 0c14 9a3a 2f50 463a 0bac 473a 430f 6b3a
00000270: d2cd 5a3a 449d 4a3a 642a 9f3a 5cfa 843a
00000280: acde 643a 46f5 833a 99d6 5c3a 1c86 613a
00000290: b54f 763a 2864 8d3a 3fdb 893a 2319 853a
000002a0: fed8 823a 2227 5e3a 47f1 3d3a c68d 8d3a
000002b0: e32f 5b3a 25bb 443a ba24 533a 9879 793a
000002c0: d335 5c3a 0a99 403a 8e45 523a 3cb2 6d3a
000002d0: 4b72 6a3a c30a 643a 209f 683a 64d9 433a
000002e0: fd2e 823a 93fc 633a ac8f 723a 5872 633a
000002f0: 48cc 803a 1cb3 6b3a ae73 8c3a e93f 653a
00000300: 78c1 603a 1023 763a 906e 593a b7ca 5b3a
00000310: 7b05 603a f1ac 903a 26ae 6d3a 1c0d 493a
00000320: 39d2 5f3a dac2 813a b0ea 4e3a 315f 523a
00000330: 1061 733a bf97 7c3a 6901 863a 026c 873a
00000340: d455 6b3a cb27 8a3a f657 383a e65c 703a
00000350: 8ce3 753a bc70 6e3a 7bff 7d3a 5e26 403a
00000360: 2dd8 383a 3f1d 873a 2092 743a dc85 6b3a
00000370: d2c9 7c3a d99a 633a f5bb 7d3a a856 613a
00000380: ba73 803a 7060 5a3a 125d 643a 5852 453a
00000390: 81f2 563a 46b0 803a dab9 653a 905b 7f3a
000003a0: ba31 573a dadf 5f3a 5420 823a 47c7 5a3a
000003b0: 4764 7e3a 3866 6f3a 0b44 673a edd4 8d3a
000003c0: 4d89 463a 1768 9c3a e10f 8b3a 4510 7d3a
000003d0: 67d2 713a 22bf 723a 4ada 613a 257c 613a
000003e0: 0b40 623a 2ab9 803a 3042 503a 70b6 713a
000003f0: 0489 433a 15ff 723a 0f68 773a 2699 613a
