results/saved_models/df_NZTemp_seed_2210_model_CNN.pkl (torch, 31831 bytes, 18 tensors)

weight_mu f4 [64, 3, 1]
00000000: eacf 1f3e b552 863d a789 b83e b092 903d
00000010: 1f56 2abe 6279 dcbd 1330 b5bd c703 35be
00000020: 33b6 ad3a 62e7 8c3c 9482 053d 5de8 053f
00000030: 8edf cabc 1edc 003e 3fd2 423e 3b11 db3d
00000040: 9371 1ebe f435 b7bc 2f12 39be 59e8 a5bd
00000050: 6530 c83d b719 3c3d 29dc e4bc dc0d 6bbe
00000060: dcfd e2bd 7677 2dbe 938a 29bd 37b6 123e
00000070: 15b7 a2bd 0e76 7ebe ddd6 38be 38cc b03c
00000080: 8f8f 57bd 696b 14bd 35bf b5bc 9785 7ebc
00000090: 152c 74be dc95 5bbc f090 a53e acc7 bfbd
000000a0: 53b9 81bd 58be 00be a0f5 8dbd 7423 2c3e
000000b0: 2645 e83e fa7f 75be b92f fa3d 2ff4 f93e
000000c0: c0f8 7ebd 88b3 463e 185f f33e a02f 52be
000000d0: 7628 60be 2e3e 6abe af24 0e3d 3781 b7bd
000000e0: 2146 f1bd bde7 9e3d 889c 17bd cef3 633e
000000f0: 850b be3a e8a8 0d3e 3f6a 19bd a559 a53c
00000100: e9ac 8bbd 2b5d c63d 29fc 32bd 892c 9cbd
00000110: e54b ba3d f214 12be d294 5f3d 3009 d4bd
00000120: 9935 65be 6939 a23d 3f99 bbbc 575d 5fbd
00000130: bfb5 d0bd 2f53 07bc 56f7 253d dabe e8bd
00000140: fad7 afbd cfdc 493e 6af3 4b3d 6c73 d23e
00000150: 6ec4 9fbb ce7d 9abd f78a df3c 635f e5bd
00000160: a44b 623d fd6f 6bbe 3810 743c 9fb5 9d3d
00000170: 473d 1dbd defd 5dbe 34a6 993c 9dc4 813d
00000180: 23cd d53d 3cc9 763d 9117 48be c1ba a43d
00000190: 896d 3bbd 7a1c dc3c 1fbb 363d 3ee1 0b3c
000001a0: 467a 2cbe 5703 8abd 5048 133e e4df 0e3e
000001b0: 6ffb 44be f831 35bc 9740 2d3f e304 a1bd
000001c0: 2f4f 4c3d f857 cc39 afbc d0bd c561 023e
000001d0: 3313 c83e e93e 0d3e c494 93bd ccef a5bd
000001e0: 9d5d 82be dec0 e83d 4519 0d3f d1df 93bc
000001f0: a805 ddbc e8bb ecbc 4756 85bd 5ff7 b9bb
00000200: e203 6bbd 784f 623d 4bfb 993c 12d6 d23e
00000210: f473 07be 48bd 23bc 2835 2b3f a67f 8abd
00000220: 66a1 15be 83aa ab3d afe6 063e 3978 2d3e
00000230: 73cf db3e 02be 81bd 627d e2bc 6132 82bd
00000240: bf09 5abd cd77 9abd 79fb 1cbe 0b93 46be
00000250: c50e fdbd 4b5b ce3d 0a9f 6fbd 172c 53bd
00000260: 9118 933c 9eb5 49bd 0274 c7be 1d0a d1bd
00000270: 2ecc b8bd 1360 80bd 57f3 40be 515f 0d3d
00000280: eaa3 5fbd f543 8b3d 4038 df3c 0f0b a43c
00000290: dcb6 913d 0c77 34be 8e2a 983c 6354 0a3f
000002a0: 2b89 06bd 1a63 e2bd ced7 a5bc 41c5 0abe
000002b0: e402 a0bd fb13 05bd bd42 a9be c5d3 46be
000002c0: 8589 233f 6a59 efbd b2a4 70bd c04f e6bd
000002d0: cf11 36bc d888 97bd 28ad 403d 9eac de3d
000002e0: 1043 663e daf0 c83e 4eec df3d 5ac1 753e
000002f0: 2fd9 b2be 237a 50be de88 263e 7817 f73e
0.15606657 0.06558744 0.3604252 0.070592284 -0.16634415 -0.107653394 -0.0884706 -0.17677222
0.0013253152 0.017200176 0.032595232 0.52307683 -0.024764802 0.12583968 0.19025515 0.10696646
-0.15473013 -0.022364594 -0.18073343 -0.081009574 0.097748555 0.04592296 -0.027937012 -0.22954506
-0.11083576 -0.16940102 -0.04139192 0.14327322 -0.079450764 -0.24849722 -0.18050714 0.021581754
-0.052627143 -0.036235247 -0.022185901 -0.01553478 -0.23844941 -0.0134024285 0.3233714 -0.09364256
-0.06334176 -0.1257261 -0.06931615 0.168104 0.45365256 -0.239746 0.122161336 0.4881911
-0.062248945 0.19404423 0.47533488 -0.2052598 -0.21890435 -0.22875282 0.034702953 -0.08960193
-0.11780954 0.07759044 -0.037014514 0.22260973 0.0014499283 0.13833964 -0.03745484 0.020184347
-0.06820089 0.09685739 -0.04369751 -0.07625682 0.09096507 -0.14265803 0.054585285 -0.10353315
-0.22383727 0.07921106 -0.022900222 -0.054532375 -0.10190915 -0.008259579 0.04051908 -0.11364527
-0.08586116 0.19713138 0.049792685 0.41103685 -0.004875711 -0.075435266 0.027287943 -0.11199834
0.055247918 -0.22991939 0.014896445 0.07700657 -0.038388517 -0.21678874 0.01875601 0.06336329
0.10439517 0.060250506 -0.1954024 0.08043433 -0.045758758 0.026869047 0.044612046 0.008537589
-0.16843519 -0.06738918 0.14383054 0.13952595 -0.1923654 -0.011059277 0.6767668 -0.0786226
0.049880203 0.00038975454 -0.101922385 0.12732609 0.39077148 0.1379353 -0.07206109 -0.08102378
-0.25462046 0.113649115 0.55116683 -0.01805106 -0.026980236 -0.028898194 -0.06510597 -0.005675241
-0.05737675 0.05525157 0.018796584 0.41178948 -0.13227826 -0.009993859 0.66877985 -0.06762628
-0.1461235 0.08382132 0.13173936 0.16940393 0.4293171 -0.06335069 -0.027647678 -0.06357265
-0.05323195 -0.075423814 -0.15330304 -0.1939203 -0.12356333 0.100760065 -0.05850128 -0.05155572
0.01795605 -0.04924547 -0.38955694 -0.10207007 -0.09023319 -0.06268325 -0.18842827 0.03451473
-0.05459968 0.06800071 0.027248502 0.020024804 0.07114956 -0.17623538 0.01857498 0.54035014
-0.032845657 -0.110540584 -0.020244505 -0.13551809 -0.07813051 -0.032489758 -0.3305873 -0.19416721
0.63881713 -0.11686976 -0.058750816 -0.1124568 -0.011112644 -0.07399148 0.047040135 0.10872768
0.2248652 0.39246255 0.109337434 0.23999539 -0.34931323 -0.20359091 0.16263148 0.48260093

weight_rho f4 [64, 3, 1]
00000000: f999 e3c0 4dd6 e2c0 ebd9 d9c0 9714 e5c0
00000010: a575 e2c0 26af e2c0 b110 e3c0 44d5 dac0
00000020: c492 e1c0 7ff0 e5c0 4ce9 e5c0 4883 dec0
00000030: 3105 e1c0 074f dec0 4f1e dac0 3246 ddc0
00000040: 926a e0c0 4cb2 d8c0 f496 e0c0 db9f dbc0
00000050: 693c e2c0 157d e0c0 32e4 e2c0 2bd2 dec0
00000060: 9531 dac0 1c94 dfc0 ee3a dfc0 8f4e e8c0
00000070: b461 e1c0 df67 e7c0 3b43 e4c0 5746 e1c0
00000080: 0e99 e8c0 961d e6c0 99f1 e0c0 c3ce ddc0
00000090: 4eba e5c0 b24d e3c0 b0df e3c0 eb43 dec0
000000a0: 7720 dfc0 f621 ddc0 003e ddc0 a172 dec0
000000b0: 03a1 e0c0 c298 e1c0 beb3 e5c0 56ed dec0
000000c0: b96e e8c0 a02c d8c0 9dd6 e5c0 59f8 e2c0
000000d0: e4bc d8c0 4f16 e3c0 1754 e0c0 953b e2c0
000000e0: aaef e0c0 62bc e4c0 8bfe d7c0 cbc6 dcc0
000000f0: ebf4 e2c0 d021 dbc0 a4a4 e2c0 5d4b dcc0
00000100: ec14 dec0 4e12 e1c0 2dc3 ddc0 99b1 e7c0
00000110: ef9c e0c0 9355 dcc0 e604 e1c0 0042 e1c0
00000120: fa0d e1c0 7f29 e2c0 33c1 e4c0 53de d9c0
00000130: d3cf e0c0 d966 e3c0 d088 e1c0 c351 e4c0
00000140: e428 e3c0 8b3e e1c0 74b4 e0c0 c063 ddc0
00000150: 108e e0c0 7ddb dbc0 d995 dec0 caeb ddc0
00000160: bcd6 dbc0 2e48 dec0 3dec ddc0 4416 e2c0
00000170: 15b5 e4c0 7496 e1c0 8685 dcc0 e9fd e1c0
00000180: 49d6 d9c0 be5e dec0 06f6 e3c0 0241 dcc0
00000190: 18c9 dcc0 38b8 dcc0 6236 dec0 fd16 e6c0
000001a0: 1167 e0c0 1534 ddc0 dc5c dac0 03c6 ddc0
000001b0: c384 e3c0 3b69 d1c0 3318 dcc0 f365 e0c0
000001c0: a7e0 dbc0 796d e3c0 9207 dfc0 3c7a ddc0
000001d0: 2ec1 e3c0 e14b dac0 1190 dfc0 746e dec0
000001e0: e927 ddc0 8f38 ddc0 5881 ddc0 480f e2c0
000001f0: e6b2 dec0 792e e4c0 9786 e0c0 e426 ddc0
00000200: 29a2 dec0 8887 dfc0 d0d6 e1c0 45f8 e0c0
00000210: aec4 e1c0 9c00 e5c0 6468 e4c0 3954 ddc0
00000220: c163 dec0 cbc0 ddc0 3638 e3c0 37a7 e1c0
00000230: 5bc5 d8c0 b4c2 ddc0 9648 dac0 e655 d8c0
00000240: 6b30 e1c0 31ba e3c0 6d2d ddc0 c59b e2c0
00000250: 3ba2 e1c0 0c27 dac0 2480 e5c0 b619 e3c0
00000260: 3526 e4c0 8eb7 dbc0 3ff0 dfc0 b7e2 e2c0
00000270: 9748 e2c0 c9ee e0c0 6458 e4c0 b7d5 e7c0
00000280: eec0 d7c0 16d8 dfc0 f855 e3c0 0205 dec0
00000290: 1ac2 e0c0 942f e3c0 71c4 d9c0 f14d dfc0
000002a0: 34c2 ddc0 5401 dec0 0671 e0c0 cca0 ddc0
000002b0: fa55 e0c0 7d09 e3c0 4ec8 e4c0 cbea e1c0
000002c0: 4d25 e7c0 d7ae e4c0 70a3 e1c0 d4fc dec0
000002d0: c367 e4c0 ccc8 dec0 d252 dec0 6f76 e6c0
000002e0: ca73 e8c0 368d ddc0 18ec dec0 0be2 e7c0
000002f0: c3f5 e1c0 bbfd e0c0 7bfa ecc0 5315 e7c0
-7.1125455 -7.08866 -6.8078513 -7.1587634 -7.076861 -7.0838804 -7.0957875 -6.8385334
-7.0491657 -7.1856074 -7.1847286 -6.9535255 -7.0318837 -6.947147 -6.8162 -6.914819
-7.013009 -6.7717648 -7.018427 -6.8632636 -7.0698743 -7.015269 -7.090356 -6.9631553
-6.8185525 -6.9868298 -6.9759436 -7.2595897 -7.0431767 -7.2314296 -7.133207 -7.0398364
-7.2686834 -7.1911116 -7.029492 -6.9314895 -7.1789923 -7.1032343 -7.1210556 -6.945791
-6.972713 -6.9103956 -6.9138184 -6.951493 -7.0196548 -7.049897 -7.178191 -6.9664717
-7.263516 -6.7554474 -7.182448 -7.092816 -6.773058 -7.096473 -7.010265 -7.069773
-7.029256 -7.147996 -6.749822 -6.8992667 -7.092397 -6.8478775 -7.0825977 -6.8841996
-6.940054 -7.0334845 -6.930075 -7.2404294 -7.019157 -6.885446 -7.031848 -7.0393066
-7.032956 -7.0675654 -7.148584 -6.808389 -7.025369 -7.1063046 -7.0479507 -7.1349807
-7.0987415 -7.0388846 -7.022028 -6.9184265 -7.0173416 -6.870543 -6.955792 -6.935033
-6.8699627 -6.946311 -6.9350877 -7.065218 -7.1471047 -7.049616 -6.8912992 -7.062245
-6.807408 -6.949065 -7.123782 -6.8829355 -6.8995476 -6.8974876 -6.9441385 -7.190306
-7.0125813 -6.9126077 -6.8238354 -6.9304214 -7.1099563 -6.5440955 -6.877954 -7.012445
-6.8711734 -7.1071134 -6.969674 -6.921171 -7.1173315 -6.8217626 -6.986336 -6.950983
-6.911122 -6.913154 -6.922039 -7.0643654 -6.959338 -7.130673 -7.0164294 -6.9109974
-6.957295 -6.9852943 -7.057472 -7.0303063 -7.0552588 -7.1563244 -7.137743 -6.916531
-6.949677 -6.9297843 -7.1006117 -7.051662 -6.7740912 -6.9300175 -6.8213606 -6.7604856
-7.0371604 -7.1164784 -6.911795 -7.081515 -7.0510535 -6.8172665 -7.171892 -7.0968885
-7.129664 -6.8661566 -6.998077 -7.090175 -7.071361 -7.0291486 -7.13579 -7.244838
-6.742301 -6.9951277 -7.104244 -6.9381113 -7.023694 -7.099558 -6.8052297 -6.9782643
-6.9299564 -6.937662 -7.013797 -6.9258785 -7.010495 -7.094908 -7.1494513 -7.0599113
-7.2233033 -7.1463428 -7.051201 -6.968363 -7.137666 -6.9620113 -6.94761 -7.201957
-7.2641344 -6.9234877 -6.96632 -7.246343 -7.06125 -7.030973 -7.405576 -7.221353

bias_mu f4 [64]
00000000: 9846 703d db8e a9bd 4e13 bbbd 253c 53be
00000010: 7a6b 033e d439 3fbd ddac 62bd 7f29 e9bd
00000020: d895 12bc 0cd6 3f3e b2d9 75bd 5d08 90bd
00000030: d252 4c3c f14e 02bd 5220 09be 6bec 46be
00000040: f98b a6bd 4c4f 583d 7a45 c7bd 47f8 ae3d
00000050: a845 23be 0de5 e9bd 97c0 5dbd 6015 98bd
00000060: 0b41 b3bd df8b 26bd ab79 533b 2c01 493d
00000070: af5e e6bc 5b5c 8cbd 6fc9 f0bd 5469 11be
00000080: 4aff c53d c29b e8bd b3de 51bd 8f88 333b
00000090: 037f 73be b396 f4bd e1ac 35be bdd1 d3bd
000000a0: e15d 64be 8f1d c9bc cfea e6bd 023c d03b
000000b0: 6ccd 13bd 0939 12bd 4fc6 ab3d f63e 49bd
000000c0: 8507 8dbe a764 fbbd 16c7 f3bd c6e8 1fbd
000000d0: 4b3a 08be 5ead 15be 336e 95be 7605 47be
000000e0: 1a2c e0bc 450f 56bd bcee 163d 4510 0cbd
000000f0: 0d9a b8bd 2407 f63c 9dde 2c3d a3a8 d6bc
0.058661073 -0.08279201 -0.091345415 -0.20628412 0.12833968 -0.04668601 -0.055340637 -0.11384868
-0.008946858 0.18733996 -0.060022064 -0.07032845 0.012470918 -0.031813566 -0.13391235 -0.19426124
-0.081321664 0.05281 -0.097300485 0.08543449 -0.1594454 -0.11420641 -0.054138746 -0.07425952
-0.0875264 -0.040660735 0.0032268565 0.049073383 -0.02812132 -0.06853553 -0.117571704 -0.14200336
0.09667833 -0.113578334 -0.051237773 0.0027394628 -0.2377892 -0.11942806 -0.1774173 -0.10342739
-0.22301437 -0.024550227 -0.11275255 0.0063548097 -0.036084577 -0.035698924 0.08387434 -0.04913231
-0.275448 -0.12275057 -0.11903207 -0.03904035 -0.13303487 -0.14616916 -0.29185638 -0.19435677
-0.02736478 -0.052260656 0.03684877 -0.034195203 -0.09013758 0.030032702 0.042204488 -0.02620346

bias_rho f4 [64]
00000000: 8b60 e4c0 cdf7 e3c0 ae5b e3c0 a79a e7c0
00000010: f34b dfc0 a410 dec0 27cf dfc0 ed17 dcc0
00000020: 7314 e0c0 60f1 dbc0 c71c e4c0 cf88 d6c0
00000030: 989e dfc0 5037 d7c0 2440 d9c0 e32d ecc0
00000040: ec63 e2c0 fd20 e4c0 db91 e2c0 bafb dec0
00000050: e4ac e0c0 39fc dfc0 11e0 dfc0 59bb e1c0
00000060: 7a23 e0c0 4c28 e0c0 ff1a dec0 3c86 e1c0
00000070: f1ac e4c0 df7c e2c0 4396 ddc0 5f7d dcc0
00000080: 1510 dbc0 6bd9 dec0 ff3b e2c0 422c e8c0
00000090: 9da6 e4c0 c154 dec0 ae19 dec0 7dbc dac0
000000a0: 176b e6c0 8247 ddc0 9fd9 e4c0 cfb1 e1c0
000000b0: 1421 e5c0 6491 e0c0 32ad dbc0 4d3b e1c0
000000c0: f5b8 e1c0 2579 dec0 f79c e0c0 a277 dbc0
000000d0: 504f e0c0 5bcc e0c0 75b5 e5c0 b090 d6c0
000000e0: cc35 e5c0 73ad dbc0 bbbd e5c0 4f1b e2c0
000000f0: a10a e1c0 c983 e3c0 b447 e8c0 bc6f e3c0
-7.136785 -7.123999 -7.1049414 -7.2376285 -6.978021 -6.9395313 -6.994037 -6.8779206
-7.0024962 -6.8732147 -7.128513 -6.7042003 -6.9881096 -6.725502 -6.7890797 -7.3806014
-7.0746975 -7.129027 -7.0803046 -6.9682283 -7.021105 -6.999539 -6.996102 -7.0541196
-7.0043306 -7.004919 -6.9407954 -7.047636 -7.146111 -7.077743 -6.9245925 -6.890304
-6.845713 -6.9640403 -7.0698237 -7.2554026 -7.1453385 -6.947846 -6.9406347 -6.835509
-7.2005725 -6.914979 -7.151565 -7.052955 -7.160288 -7.017748 -6.864892 -7.038489
-7.053828 -6.952288 -7.0191607 -6.8583536 -7.0096817 -7.0249457 -7.1784005 -6.705162
-7.162817 -6.864923 -7.1794105 -7.0658336 -7.0325475 -7.109837 -7.258753 -7.1073895

mu f4 [64, 3, 1]
00000000: eacf 1f3e b552 863d a789 b83e b092 903d
00000010: 1f56 2abe 6279 dcbd 1330 b5bd c703 35be
00000020: 33b6 ad3a 62e7 8c3c 9482 053d 5de8 053f
00000030: 8edf cabc 1edc 003e 3fd2 423e 3b11 db3d
00000040: 9371 1ebe f435 b7bc 2f12 39be 59e8 a5bd
00000050: 6530 c83d b719 3c3d 29dc e4bc dc0d 6bbe
00000060: dcfd e2bd 7677 2dbe 938a 29bd 37b6 123e
00000070: 15b7 a2bd 0e76 7ebe ddd6 38be 38cc b03c
00000080: 8f8f 57bd 696b 14bd 35bf b5bc 9785 7ebc
00000090: 152c 74be dc95 5bbc f090 a53e acc7 bfbd
000000a0: 53b9 81bd 58be 00be a0f5 8dbd 7423 2c3e
000000b0: 2645 e83e fa7f 75be b92f fa3d 2ff4 f93e
000000c0: c0f8 7ebd 88b3 463e 185f f33e a02f 52be
000000d0: 7628 60be 2e3e 6abe af24 0e3d 3781 b7bd
000000e0: 2146 f1bd bde7 9e3d 889c 17bd cef3 633e
000000f0: 850b be3a e8a8 0d3e 3f6a 19bd a559 a53c
00000100: e9ac 8bbd 2b5d c63d 29fc 32bd 892c 9cbd
00000110: e54b ba3d f214 12be d294 5f3d 3009 d4bd
00000120: 9935 65be 6939 a23d 3f99 bbbc 575d 5fbd
00000130: bfb5 d0bd 2f53 07bc 56f7 253d dabe e8bd
00000140: fad7 afbd cfdc 493e 6af3 4b3d 6c73 d23e
00000150: 6ec4 9fbb ce7d 9abd f78a df3c 635f e5bd
00000160: a44b 623d fd6f 6bbe 3810 743c 9fb5 9d3d
00000170: 473d 1dbd defd 5dbe 34a6 993c 9dc4 813d
00000180: 23cd d53d 3cc9 763d 9117 48be c1ba a43d
00000190: 896d 3bbd 7a1c dc3c 1fbb 363d 3ee1 0b3c
000001a0: 467a 2cbe 5703 8abd 5048 133e e4df 0e3e
000001b0: 6ffb 44be f831 35bc 9740 2d3f e304 a1bd
000001c0: 2f4f 4c3d f857 cc39 afbc d0bd c561 023e
000001d0: 3313 c83e e93e 0d3e c494 93bd ccef a5bd
000001e0: 9d5d 82be dec0 e83d 4519 0d3f d1df 93bc
000001f0: a805 ddbc e8bb ecbc 4756 85bd 5ff7 b9bb
00000200: e203 6bbd 784f 623d 4bfb 993c 12d6 d23e
00000210: f473 07be 48bd 23bc 2835 2b3f a67f 8abd
00000220: 66a1 15be 83aa ab3d afe6 063e 3978 2d3e
00000230: 73cf db3e 02be 81bd 627d e2bc 6132 82bd
00000240: bf09 5abd cd77 9abd 79fb 1cbe 0b93 46be
00000250: c50e fdbd 4b5b ce3d 0a9f 6fbd 172c 53bd
00000260: 9118 933c 9eb5 49bd 0274 c7be 1d0a d1bd
00000270: 2ecc b8bd 1360 80bd 57f3 40be 515f 0d3d
00000280: eaa3 5fbd f543 8b3d 4038 df3c 0f0b a43c
00000290: dcb6 913d 0c77 34be 8e2a 983c 6354 0a3f
000002a0: 2b89 06bd 1a63 e2bd ced7 a5bc 41c5 0abe
000002b0: e402 a0bd fb13 05bd bd42 a9be c5d3 46be
000002c0: 8589 233f 6a59 efbd b2a4 70bd c04f e6bd
000002d0: cf11 36bc d888 97bd 28ad 403d 9eac de3d
000002e0: 1043 663e daf0 c83e 4eec df3d 5ac1 753e
000002f0: 2fd9 b2be 237a 50be de88 263e 7817 f73e
0.15606657 0.06558744 0.3604252 0.070592284 -0.16634415 -0.107653394 -0.0884706 -0.17677222
0.0013253152 0.017200176 0.032595232 0.52307683 -0.024764802 0.12583968 0.19025515 0.10696646
-0.15473013 -0.022364594 -0.18073343 -0.081009574 0.097748555 0.04592296 -0.027937012 -0.22954506
-0.11083576 -0.16940102 -0.04139192 0.14327322 -0.079450764 -0.24849722 -0.18050714 0.021581754
-0.052627143 -0.036235247 -0.022185901 -0.01553478 -0.23844941 -0.0134024285 0.3233714 -0.09364256
-0.06334176 -0.1257261 -0.06931615 0.168104 0.45365256 -0.239746 0.122161336 0.4881911
-0.062248945 0.19404423 0.47533488 -0.2052598 -0.21890435 -0.22875282 0.034702953 -0.08960193
-0.11780954 0.07759044 -0.037014514 0.22260973 0.0014499283 0.13833964 -0.03745484 0.020184347
-0.06820089 0.09685739 -0.04369751 -0.07625682 0.09096507 -0.14265803 0.054585285 -0.10353315
-0.22383727 0.07921106 -0.022900222 -0.054532375 -0.10190915 -0.008259579 0.04051908 -0.11364527
-0.08586116 0.19713138 0.049792685 0.41103685 -0.004875711 -0.075435266 0.027287943 -0.11199834
0.055247918 -0.22991939 0.014896445 0.07700657 -0.038388517 -0.21678874 0.01875601 0.06336329
0.10439517 0.060250506 -0.1954024 0.08043433 -0.045758758 0.026869047 0.044612046 0.008537589
-0.16843519 -0.06738918 0.14383054 0.13952595 -0.1923654 -0.011059277 0.6767668 -0.0786226
0.049880203 0.00038975454 -0.101922385 0.12732609 0.39077148 0.1379353 -0.07206109 -0.08102378
-0.25462046 0.113649115 0.55116683 -0.01805106 -0.026980236 -0.028898194 -0.06510597 -0.005675241
-0.05737675 0.05525157 0.018796584 0.41178948 -0.13227826 -0.009993859 0.66877985 -0.06762628
-0.1461235 0.08382132 0.13173936 0.16940393 0.4293171 -0.06335069 -0.027647678 -0.06357265
-0.05323195 -0.075423814 -0.15330304 -0.1939203 -0.12356333 0.100760065 -0.05850128 -0.05155572
0.01795605 -0.04924547 -0.38955694 -0.10207007 -0.09023319 -0.06268325 -0.18842827 0.03451473
-0.05459968 0.06800071 0.027248502 0.020024804 0.07114956 -0.17623538 0.01857498 0.54035014
-0.032845657 -0.110540584 -0.020244505 -0.13551809 -0.07813051 -0.032489758 -0.3305873 -0.19416721
0.63881713 -0.11686976 -0.058750816 -0.1124568 -0.011112644 -0.07399148 0.047040135 0.10872768
0.2248652 0.39246255 0.109337434 0.23999539 -0.34931323 -0.20359091 0.16263148 0.48260093

rho f4 [64, 3, 1]
00000000: f999 e3c0 4dd6 e2c0 ebd9 d9c0 9714 e5c0
00000010: a575 e2c0 26af e2c0 b110 e3c0 44d5 dac0
00000020: c492 e1c0 7ff0 e5c0 4ce9 e5c0 4883 dec0
00000030: 3105 e1c0 074f dec0 4f1e dac0 3246 ddc0
00000040: 926a e0c0 4cb2 d8c0 f496 e0c0 db9f dbc0
00000050: 693c e2c0 157d e0c0 32e4 e2c0 2bd2 dec0
00000060: 9531 dac0 1c94 dfc0 ee3a dfc0 8f4e e8c0
00000070: b461 e1c0 df67 e7c0 3b43 e4c0 5746 e1c0
00000080: 0e99 e8c0 961d e6c0 99f1 e0c0 c3ce ddc0
00000090: 4eba e5c0 b24d e3c0 b0df e3c0 eb43 dec0
000000a0: 7720 dfc0 f621 ddc0 003e ddc0 a172 dec0
000000b0: 03a1 e0c0 c298 e1c0 beb3 e5c0 56ed dec0
000000c0: b96e e8c0 a02c d8c0 9dd6 e5c0 59f8 e2c0
000000d0: e4bc d8c0 4f16 e3c0 1754 e0c0 953b e2c0
000000e0: aaef e0c0 62bc e4c0 8bfe d7c0 cbc6 dcc0
000000f0: ebf4 e2c0 d021 dbc0 a4a4 e2c0 5d4b dcc0
00000100: ec14 dec0 4e12 e1c0 2dc3 ddc0 99b1 e7c0
00000110: ef9c e0c0 9355 dcc0 e604 e1c0 0042 e1c0
00000120: fa0d e1c0 7f29 e2c0 33c1 e4c0 53de d9c0
00000130: d3cf e0c0 d966 e3c0 d088 e1c0 c351 e4c0
00000140: e428 e3c0 8b3e e1c0 74b4 e0c0 c063 ddc0
00000150: 108e e0c0 7ddb dbc0 d995 dec0 caeb ddc0
00000160: bcd6 dbc0 2e48 dec0 3dec ddc0 4416 e2c0
00000170: 15b5 e4c0 7496 e1c0 8685 dcc0 e9fd e1c0
00000180: 49d6 d9c0 be5e dec0 06f6 e3c0 0241 dcc0
00000190: 18c9 dcc0 38b8 dcc0 6236 dec0 fd16 e6c0
000001a0: 1167 e0c0 1534 ddc0 dc5c dac0 03c6 ddc0
000001b0: c384 e3c0 3b69 d1c0 3318 dcc0 f365 e0c0
000001c0: a7e0 dbc0 796d e3c0 9207 dfc0 3c7a ddc0
000001d0: 2ec1 e3c0 e14b dac0 1190 dfc0 746e dec0
000001e0: e927 ddc0 8f38 ddc0 5881 ddc0 480f e2c0
000001f0: e6b2 dec0 792e e4c0 9786 e0c0 e426 ddc0
00000200: 29a2 dec0 8887 dfc0 d0d6 e1c0 45f8 e0c0
00000210: aec4 e1c0 9c00 e5c0 6468 e4c0 3954 ddc0
00000220: c163 dec0 cbc0 ddc0 3638 e3c0 37a7 e1c0
00000230: 5bc5 d8c0 b4c2 ddc0 9648 dac0 e655 d8c0
00000240: 6b30 e1c0 31ba e3c0 6d2d ddc0 c59b e2c0
00000250: 3ba2 e1c0 0c27 dac0 2480 e5c0 b619 e3c0
00000260: 3526 e4c0 8eb7 dbc0 3ff0 dfc0 b7e2 e2c0
00000270: 9748 e2c0 c9ee e0c0 6458 e4c0 b7d5 e7c0
00000280: eec0 d7c0 16d8 dfc0 f855 e3c0 0205 dec0
00000290: 1ac2 e0c0 942f e3c0 71c4 d9c0 f14d dfc0
000002a0: 34c2 ddc0 5401 dec0 0671 e0c0 cca0 ddc0
000002b0: fa55 e0c0 7d09 e3c0 4ec8 e4c0 cbea e1c0
000002c0: 4d25 e7c0 d7ae e4c0 70a3 e1c0 d4fc dec0
000002d0: c367 e4c0 ccc8 dec0 d252 dec0 6f76 e6c0
000002e0: ca73 e8c0 368d ddc0 18ec dec0 0be2 e7c0
000002f0: c3f5 e1c0 bbfd e0c0 7bfa ecc0 5315 e7c0
-7.1125455 -7.08866 -6.8078513 -7.1587634 -7.076861 -7.0838804 -7.0957875 -6.8385334
-7.0491657 -7.1856074 -7.1847286 -6.9535255 -7.0318837 -6.947147 -6.8162 -6.914819
-7.013009 -6.7717648 -7.018427 -6.8632636 -7.0698743 -7.015269 -7.090356 -6.9631553
-6.8185525 -6.9868298 -6.9759436 -7.2595897 -7.0431767 -7.2314296 -7.133207 -7.0398364
-7.2686834 -7.1911116 -7.029492 -6.9314895 -7.1789923 -7.1032343 -7.1210556 -6.945791
-6.972713 -6.9103956 -6.9138184 -6.951493 -7.0196548 -7.049897 -7.178191 -6.9664717
-7.263516 -6.7554474 -7.182448 -7.092816 -6.773058 -7.096473 -7.010265 -7.069773
-7.029256 -7.147996 -6.749822 -6.8992667 -7.092397 -6.8478775 -7.0825977 -6.8841996
-6.940054 -7.0334845 -6.930075 -7.2404294 -7.019157 -6.885446 -7.031848 -7.0393066
-7.032956 -7.0675654 -7.148584 -6.808389 -7.025369 -7.1063046 -7.0479507 -7.1349807
-7.0987415 -7.0388846 -7.022028 -6.9184265 -7.0173416 -6.870543 -6.955792 -6.935033
-6.8699627 -6.946311 -6.9350877 -7.065218 -7.1471047 -7.049616 -6.8912992 -7.062245
-6.807408 -6.949065 -7.123782 -6.8829355 -6.8995476 -6.8974876 -6.9441385 -7.190306
-7.0125813 -6.9126077 -6.8238354 -6.9304214 -7.1099563 -6.5440955 -6.877954 -7.012445
-6.8711734 -7.1071134 -6.969674 -6.921171 -7.1173315 -6.8217626 -6.986336 -6.950983
-6.911122 -6.913154 -6.922039 -7.0643654 -6.959338 -7.130673 -7.0164294 -6.9109974
-6.957295 -6.9852943 -7.057472 -7.0303063 -7.0552588 -7.1563244 -7.137743 -6.916531
-6.949677 -6.9297843 -7.1006117 -7.051662 -6.7740912 -6.9300175 -6.8213606 -6.7604856
-7.0371604 -7.1164784 -6.911795 -7.081515 -7.0510535 -6.8172665 -7.171892 -7.0968885
-7.129664 -6.8661566 -6.998077 -7.090175 -7.071361 -7.0291486 -7.13579 -7.244838
-6.742301 -6.9951277 -7.104244 -6.9381113 -7.023694 -7.099558 -6.8052297 -6.9782643
-6.9299564 -6.937662 -7.013797 -6.9258785 -7.010495 -7.094908 -7.1494513 -7.0599113
-7.2233033 -7.1463428 -7.051201 -6.968363 -7.137666 -6.9620113 -6.94761 -7.201957
-7.2641344 -6.9234877 -6.96632 -7.246343 -7.06125 -7.030973 -7.405576 -7.221353

eps_w f4 [64, 3, 1]
00000000: 6a60 a83f d032 84bf 30c9 693f df06 b53f
00000010: e455 a93e 26c3 e7bd 3248 543f 3809 f3bf
00000020: e791 4d3f 4779 90bc 9056 0d3f 6508 903f
00000030: 4c37 433f 230b 993f d7c5 323f 98d2 9dbf
00000040: 51df f0bd 277a 333f 9342 c3be a2cb db3e
00000050: 91e4 873f c294 26bf 3ae8 8c3e 5fa6 2cbf
00000060: 11ce b13e f07c 8dbe 2daa 57bd 39ec bbbf
00000070: e7f2 8ebe bcc6 ee3d 9a37 8a3e 12f7 67bf
00000080: 9c2d 94be 62e3 5d3e 6f5d c0bf 6018 423e
00000090: d9b6 a5bf e736 55bf 92a7 84bf 1cb9 b0be
000000a0: e9fb 3abf 08ef d2bf 0986 583f 4b27 57bf
000000b0: f5c2 c3be a1f5 9abf d906 94bf fc2d 353f
000000c0: bbe9 323f 20ec cf3d d041 6abf d186 4c3f
000000d0: 1f91 373f c4f8 723f 52d2 593f f15f 423f
000000e0: 1fd7 babf 9c83 de3e 1da2 4dbe ec25 11bf
000000f0: a924 ec3f 78ba 423f 6b0f 0e40 16ea ebbd
00000100: c61d 843f baf9 14be 122c 13bf 4dc0 003f
00000110: aedd 303f da68 a83f 1b4e 903f efae 37bf
00000120: 3b2a 463d 9907 3ec0 cba6 90bf b362 2bbf
00000130: 62ab 943e 5238 2bbf a6a6 bd3f b441 dfbe
00000140: 8f8d 743f 72b2 2d3e a167 0abf 3a60 6abf
00000150: 79da 143f 5f73 af3f c4f8 df3e 8848 3d3f
00000160: c3c7 12be 77eb 13bf 0d6c 6d3f 4e44 31bd
00000170: 89c0 25c0 ac17 7b3e 82ab 5ebf 6920 f63d
00000180: 3c25 1240 b277 c13e 108d 81bf 05f1 6f3f
00000190: 518e 0ebe 7328 b53f e4a7 e03f 019b 0dbf
000001a0: 3a12 d03f 273f 00bf 816a 803f a84c cbbe
000001b0: 63a5 243f a20e 313f fbec 3dbf 85bf 52bd
000001c0: 6fd2 ddbe f901 1fbf adeb babe 3e47 c43e
000001d0: 87ca b3bf 4808 0dbf 5317 b23f 6e1a b4bd
000001e0: d5ca a83f 4541 32bc 23f5 793f b4c1 4ebf
000001f0: aa1b aa3f dc7d a1bf 5192 91bf 7078 dbbf
00000200: a866 a93f 972a 0c3f 44d2 9abf 3ee7 a0be
00000210: 5718 3abf 3eaa d03f 0631 6fbf 7f36 283f
00000220: e1b0 9a3e 9df3 f0bf 87fc 5ebf 77f3 d43e
00000230: db2b 24be 5464 ab3f 5c51 e9bf e28a a7bd
00000240: 1015 073e 46ee a03f 62bf 6bbe 6149 263f
00000250: 8fe4 87be 48fa 563f 2f46 69bf 5ee1 073f
00000260: e3e9 2bc0 6561 0fbf 157b 5bbe b0f6 d83f
00000270: 7418 913b 41ed f5bf 4e9a cfbf 1a31 8f3f
00000280: 02df ca3e 8c3b 64bf 8c92 113f e637 683e
00000290: 9c87 b3be b4d9 333f e304 2fbf 827a 053f
000002a0: 40a9 cfbf bd36 2bbe 08f2 59bf 2ddc 7bbe
000002b0: fa0a 03be 4bab c63f 550a 963f a706 c53e
000002c0: 1872 263f deb1 c0bf 439c b13f 5d8b 8bbe
000002d0: b6a8 bfbe 4751 0ebf 7c10 92bf aea6 13bf
000002e0: 68aa a3bf 35a8 243f 3bd4 f23c 2c85 0bbf
000002f0: 0757 f63d 8596 c1bf 96b6 4cbf a9f5 4dbe
1.3154423 -1.0328007 0.9132261 1.4142722 0.33073342 -0.113165185 0.8292266 -1.8987188
0.80300754 -0.017635955 0.5521021 1.1252562 0.7625625 1.1956524 0.6983313 -1.2329893
-0.11761344 0.70108265 -0.3813673 0.42928797 1.0616628 -0.65070736 0.27520925 -0.6744136
0.3472753 -0.27634382 -0.052652527 -1.4681464 -0.27919695 0.11658999 0.26995546 -0.90611374
-0.28941047 0.21668771 -1.5028514 0.18954611 -1.2946426 -0.832869 -1.0363638 -0.34516227
-0.73040634 -1.6479197 0.8457952 -0.8404433 -0.38234678 -1.210621 -1.156459 0.7077329
0.69887894 0.10152459 -0.9150667 0.79893214 0.7170581 0.94910836 0.8508655 0.75927645
-1.45969 0.43459785 -0.20081373 -0.5669849 1.8448688 0.7606578 2.219691 -0.11519258
1.0321586 -0.14548388 -0.5748912 0.5029343 0.69088256 1.3156998 1.1273836 -0.717513
0.048380118 -2.9692137 -1.1300901 -0.6694748 0.29037005 -0.6688281 1.4816482 -0.43604815
0.955285 0.16962603 -0.54064375 -0.9155308 0.5814586 1.3707083 0.4374448 0.739388
-0.14334016 -0.57781166 0.92743 -0.04327803 -2.5898764 0.24520749 -0.8698045 0.120179005
2.2835226 0.37786633 -1.0121174 0.9372714 -0.13921477 1.4152969 1.7551236 -0.5531464
1.6255562 -0.5009636 1.0032502 -0.39706922 0.6431486 0.6916295 -0.7418973 -0.05145218
-0.4332461 -0.62112385 -0.3650793 0.38335603 -1.4046181 -0.5509076 1.3913368 -0.087941036
1.31869 -0.010879819 0.97639674 -0.8076432 1.3289692 -1.2616534 -1.1372777 -1.714613
1.3234453 0.54752487 -1.2095418 -0.31426424 -0.7269339 1.6301954 -0.9343418 0.65708154
0.30213073 -1.8824345 -0.87104076 0.41592 -0.16032355 1.3389993 -1.8227954 -0.08180787
0.13191628 1.2572715 -0.23022225 0.6495572 -0.26541564 0.8397565 -0.91122717 0.5307826
-2.6861503 -0.5600799 -0.21433671 1.6950283 0.004427964 -1.9213029 -1.6218965 1.118686
0.39623266 -0.8915336 0.5686424 0.22677574 -0.350644 0.70254064 -0.6836683 0.5214006
-1.6223526 -0.167201 -0.85134935 -0.24595709 -0.12797156 1.5521024 1.1721903 0.38481638
0.65017843 -1.5054281 1.3875812 -0.27254763 -0.37433404 -0.5559277 -1.1411281 -0.5767621
-1.2786379 0.64319164 0.029642215 -0.5450008 0.12028318 -1.512406 -0.79966104 -0.20113243

sigma f4 [64, 3, 1]
00000000: 4383 553a 01ac 5a3a 59c3 903a 79df 4b3a
00000010: 2244 5d3a 14b8 5b3a 931e 593a 2864 8c3a
00000020: 247a 633a 9b79 463a 42a6 463a e84b 7a3a
00000030: d770 673a bce5 7b3a 6b8f 8f3a ba15 823a
00000040: 42d9 6b3a 5614 963a 2c93 6a3a b6f6 883a
00000050: 1ad1 5e3a 0951 6b3a 2c4d 5a3a 20e6 773a
00000060: 1a39 8f3a 061a 723a 19c0 743a 8e53 383a
00000070: cdd7 643a c296 3d3a f625 513a ba9b 653a
00000080: 89a8 363a d162 453a a9fe 673a dede 7f3a
00000090: b4ca 473a 5f82 573a 44b4 533a 333d 7c3a
000000a0: be8a 753a 46a9 823a 0b37 823a 3bce 7a3a
000000b0: 8549 6a3a 944f 633a adf3 473a 1c14 773a
000000c0: b59a 373a 088c 983a 551a 473a edc3 593a
000000d0: b6e2 953a 7ef8 583a 197f 6c3a ded6 5e3a
000000e0: ad0c 683a 4214 4e3a 3268 993a 6b1f 843a
000000f0: 42db 593a 1216 8b3a 3e00 5c3a a320 863a
00000100: 89b0 7d3a 1e12 673a c31d 803a 12e4 3b3a
00000110: 5e67 6a3a e3f5 853a f672 673a ddba 653a
00000120: 5e31 673a e654 5f3a 42f5 4d3a 6faf 903a
00000130: e9f3 683a 4ed9 563a e8c0 633a 1bc7 503a
00000140: b17a 583a add3 653a 69bb 693a db9d 813a
00000150: 5ad4 6a3a 88f8 873a ebba 793a 49f7 7e3a
00000160: ba0c 883a a31b 7c3a b5f3 7e3a 35db 5f3a
00000170: 4743 4e3a f25f 633a d82d 853a c585 603a
00000180: c7d3 903a 356a 7b3a c220 533a 0c4c 863a
00000190: ed15 843a 9e5b 843a eea7 7c3a 838b 453a
000001a0: 13f3 6b3a 675f 823a 0578 8e3a 6a12 803a
000001b0: e910 563a 346c bc3a a6f7 863a 4ffb 6b3a
000001c0: 9be2 873a ddac 563a f749 763a f342 813a
000001d0: 647e 543a a8c3 8e3a 9b38 723a f3ee 7a3a
000001e0: 0291 823a 2e4d 823a 4326 813a 120c 603a
000001f0: b7d8 783a bfad 513a 300b 6b3a 2a95 823a
00000200: f35a 793a 3779 723a a098 613a 55ce 673a
00000210: 8c18 623a e05e 4c3a bb33 503a c8dc 813a
00000220: dd42 7b3a 4d27 803a 3113 583a 04e9 623a
00000230: 1bbb 953a a81f 803a 58d2 8e3a e2c7 973a
00000240: 2a39 663a cdac 543a 847a 823a 3d3d 5c3a
00000250: 5b0c 633a 4268 8f3a 0137 493a 70e1 583a
00000260: eae3 513a 7991 883a 2b65 6f3a 4557 5a3a
00000270: 657c 5e3a 0c13 683a e59b 503a 8c10 3b3a
00000280: 8290 9a3a 191a 703a b44a 573a c22e 7e3a
00000290: d957 693a 7d4d 583a 9424 913a ed2e 743a
000002a0: a721 803a fa4b 7e3a bca9 6b3a a0a7 803a
000002b0: 2971 6c3a 724f 593a 90c7 4d3a 000c 613a
000002c0: a022 3f3a 826b 4e3a cc03 633a a89c 763a
000002d0: d237 503a ba2e 783a e6c7 7b3a f041 433a
000002e0: a87d 373a 6df6 803a b21d 773a 8fc8 3a3a
000002f0: f2be 603a cea6 673a fb4b 1f3a 1c82 3f3a
0.00081448647 0.00083416706 0.0011044546 0.00077771355 0.00084406335 0.0008381617 0.0008282449 0.0010711001
0.0008677563 0.0007571221 0.0007577875 0.0009548054 0.0008828765 0.0009609123 0.0010952776 0.0009924688
0.00089969125 0.0011450152 0.0008948322 0.0010449502 0.00084997865 0.0008976614 0.00083275395 0.00094565935
0.0010927052 0.0009235445 0.0009336486 0.00070314936 0.00087296666 0.00072322425 0.0007978374 0.0008758862
0.0006967863 0.00075296784 0.0008849898 0.0009760688 0.00076214527 0.0008221026 0.0008075873 0.00096221565
0.00093666825 0.000996866 0.0009934617 0.0009567474 0.0008937347 0.0008671221 0.0007627558 0.0009425299
0.0007003949 0.0011638412 0.00075951713 0.0008307088 0.0011435363 0.00082767743 0.00090216246 0.00085006456
0.00088519865 0.0007861295 0.0011704026 0.0010080164 0.0008310565 0.0010611436 0.000839237 0.0010233115
0.000967749 0.00088146504 0.0009774495 0.0007167469 0.00089417945 0.0010220375 0.0008829081 0.00087635015
0.0008819307 0.0008519426 0.00078566757 0.0011038611 0.0008886443 0.0008195833 0.0008688108 0.00079642393
0.00082580285 0.0008767199 0.0008916171 0.0009888964 0.00089580345 0.0010373751 0.0009526449 0.00097261794
0.0010379769 0.00096171553 0.0009725646 0.00085394393 0.00078683015 0.000867366 0.0010160757 0.0008564855
0.0011049443 0.0009590716 0.00080538925 0.0010246052 0.0010077335 0.0010098105 0.00096380606 0.00075357425
0.00090007595 0.0009946645 0.0010869509 0.0009771113 0.0008165972 0.0014375509 0.0010297194 0.00090019865
0.0010367216 0.0008189211 0.0009395177 0.0009861871 0.0008105992 0.001089205 0.0009240002 0.00095723494
0.0009961429 0.0009941214 0.0009853322 0.00085467205 0.0009492742 0.00079986075 0.00089662056 0.0009962667
0.00095121487 0.000924963 0.0008605812 0.00088426966 0.00086248736 0.000779612 0.0007942279 0.0009907717
0.00095848535 0.0009777338 0.0008242606 0.0008655938 0.001142356 0.0009775059 0.0010896428 0.0011579955
0.0008782322 0.00081129075 0.0009954725 0.0008401459 0.0008661204 0.0010941105 0.0007675738 0.0008273339
0.0008006679 0.0010419331 0.00091322017 0.0008329044 0.0008487164 0.0008852936 0.00079578004 0.00071359496
0.0011792334 0.00091591623 0.0008212731 0.00096962985 0.0008901335 0.0008251293 0.0011073523 0.0009314854
0.0009775654 0.00097006524 0.0008989831 0.0009815581 0.0009019548 0.00082897313 0.00078498665 0.0008584857
0.00072912313 0.0007874296 0.00086599286 0.0009407499 0.0007942888 0.0009467412 0.00096046773 0.0007448485
0.000699962 0.0009839066 0.0009426727 0.00071252225 0.0008573375 0.00088368065 0.00060766906 0.00073054596

w f4 [64, 3, 1]
00000000: c7e8 203e 058f 843d db0d b93e 5ad3 923d
00000010: f10c 2abe 1dab dcbd fec7 b3bd e818 37be
00000020: b685 043b 61cb 8c3c 4739 073d c62e 063f
00000030: a65b c5bc 4d09 023e c09a 433e a88f d83d
00000040: 508d 1ebe 77a2 b0bc a56b 39be 29fd a4bd
00000050: 8209 ca3d 3ab5 393d 88fb e2bc 0cb5 6bbe
00000060: e836 e2bd 5dba 2dbe 1fbe 29bd 99a7 113e
00000070: de36 a3bd f35f 7ebe 679e 38be cf4b aa3c
00000080: 0363 58bd 53c0 13bd 70a4 c0bc 9a7d 7bbc
00000090: be2e 75be b7cd 66bc 3c23 a53e cc75 c0bd
000000a0: 0420 83bd fb6c 02be 163d 8cbd aa50 2b3e
000000b0: 5c18 e83e 2a93 76be 4061 f83d 9e4b fa3e
000000c0: 7bf7 7cbd 81d2 463e ff03 f33e a581 51be
000000d0: 8251 5fbe 4070 69be 9749 113d d22e b6bd
000000e0: 92eb f3bd dd9a 9f3d fb92 18bd fb5d 633e
000000f0: 6c80 433b 807c 0e3e e9c8 11bd 7062 a43c
00000100: 37a1 89bd ef19 c63d 6249 35bd 8b6f 9bbd
00000110: c98f bb3d 71b4 10be 8ca8 633d db52 d5bd
00000120: 6a2a 65be 2c0b 9d3d 41df c2bc 3f64 62bd
00000130: 762e d0bd 564e 10bc 233d 2b3d ed74 e9bd
00000140: 613a aebd cb03 4a3e f3f9 493d c1fc d13e
00000150: 08b3 8ebb 4d94 97bd e9f4 e23c 59e6 e3bd
00000160: a1af 613d a901 6cbe b66b 813c 3fa2 9d3d
00000170: 0f96 25bd 1dc6 5dbe c468 923c 94fa 813d
00000180: 00f8 da3d 3d45 783d 41ed 48be 3fb2 a63d
00000190: a400 3cbd b0d1 e73c e4a8 3d3d e70c 053c
000001a0: b9fa 2abe 9608 8bbd 2d66 143e 2f7a 0e3e
000001b0: c271 44be c5e7 24bc 860e 2d3f 2c1d a1bd
000001c0: 3678 4a3d 4858 f9b8 8370 d1bd e0c4 023e
000001d0: f77d c73e 9ca1 0c3e bef2 90bd ee1b a6bd
000001e0: 70b1 81be 32bb e83d 5258 0d3f 6b87 99bc
000001f0: fbaf d2bc 3e00 f5bc e66c 87bd e4f0 f1bb
00000200: dadb 65bd 8362 643d 5974 913c a5b1 d23e
00000210: 4f18 08be a8ea 0ebc 8604 2b3f 542a 89bd
00000220: 7c55 15be 8de5 a73d 792a 063e 99d6 2d3e
00000230: 72b7 db3e 8e1f 7ebd bdc2 f2bc 0c64 82bd
00000240: 4490 59bd 0561 98bd 8d37 1dbe fc03 46be
00000250: 4b87 fdbd 003d d03d 737c 72bd a05f 51bd
00000260: 317a 813c 8819 4cbd aa8d c7be ed25 cebd
00000270: 36ca b8bd d8db 83bd af45 42be 62a4 103d
00000280: f7b9 5dbd d797 893d a40b e33c 33d8 a53c
00000290: 3813 913d 16df 33be e2f6 913c 3774 0a3f
000002a0: 2a08 0dbd 24b8 e2bd db1c acbc 8b04 0bbe
000002b0: 683f a0bd a89d ffbc 22ca a8be 2b7d 46be
000002c0: 96a8 233f eac6 f1bd b0b8 6bbd 2dd6 e6bd
000002d0: e6f0 3abc c99c 98bd e62f 3c3d 62cb dd3d
000002e0: 7258 653e cd43 c93e f4fa df3d 8e5b 753e
000002f0: abcb b2be 7dd8 51be 7c09 263e 3604 f73e
0.15713798 0.06472591 0.36143383 0.07169218 -0.16606499 -0.10774825 -0.0877838 -0.17880595
0.00202213 0.017186822 0.03301361 0.5241512 -0.024091553 0.1269886 0.19102001 0.10574275
-0.15483594 -0.021561844 -0.1810747 -0.08056099 0.09865095 0.045338847 -0.02770783 -0.23018283
-0.11045629 -0.16965623 -0.04144108 0.1422409 -0.079694495 -0.24841289 -0.18029176 0.020788101
-0.0528288 -0.036072087 -0.02351591 -0.01534977 -0.23943612 -0.014087132 0.32253444 -0.09397468
-0.06402591 -0.12736885 -0.06847589 0.1672999 0.45331085 -0.24079576 0.12127924 0.48885816
-0.061759453 0.19416238 0.47463986 -0.20459612 -0.21808437 -0.22796726 0.03547057 -0.08895649
-0.11910166 0.0779321 -0.037249546 0.2220382 0.0029831184 0.1391468 -0.035591993 0.02006647
-0.067202024 0.09672915 -0.044259436 -0.075896345 0.09158284 -0.14131333 0.05558066 -0.10416194
-0.22379461 0.076681465 -0.023788096 -0.055271383 -0.10165112 -0.008807739 0.04180635 -0.11399255
-0.08507229 0.1972801 0.049310636 0.41013148 -0.0043548383 -0.07401333 0.027704673 -0.1112792
0.055099133 -0.23047508 0.01579843 0.076969616 -0.04042631 -0.21657605 0.017872222 0.06346622
0.106918335 0.060612906 -0.19621755 0.081394665 -0.04589905 0.028298229 0.046303645 0.008120752
-0.16697206 -0.06788747 0.14492102 0.13913797 -0.1918402 -0.010065024 0.67600286 -0.07866892
0.04943105 -0.00011889689 -0.10226538 0.12770414 0.3896329 0.13733524 -0.070775494 -0.08110796
-0.25330687 0.1136383 0.5521289 -0.01874133 -0.02571868 -0.029907342 -0.066125676 -0.0073834527
-0.05611787 0.05575801 0.017755674 0.41151157 -0.13290523 -0.008722939 0.6680378 -0.066975266
-0.14583391 0.0819808 0.1310214 0.16976394 0.42913395 -0.06204181 -0.029633874 -0.06366739
-0.053116098 -0.0744038 -0.15353222 -0.19337457 -0.12379321 0.10167885 -0.059200715 -0.051116586
0.015805336 -0.049829036 -0.3897527 -0.100658275 -0.09022944 -0.06438416 -0.18971895 0.035313018
-0.054132428 0.06718414 0.027715512 0.020244693 0.07083744 -0.1756557 0.017817918 0.5408358
-0.034431614 -0.11070278 -0.021009853 -0.13575952 -0.07824594 -0.031203106 -0.32966715 -0.19383685
0.63929117 -0.11805518 -0.05754918 -0.112713195 -0.011409974 -0.074517794 0.045944117 0.10829808
0.2239702 0.3930954 0.109365374 0.23960707 -0.3492101 -0.2049274 0.16214556 0.482454

mu f4 [64]
00000000: 9846 703d db8e a9bd 4e13 bbbd 253c 53be
00000010: 7a6b 033e d439 3fbd ddac 62bd 7f29 e9bd
00000020: d895 12bc 0cd6 3f3e b2d9 75bd 5d08 90bd
00000030: d252 4c3c f14e 02bd 5220 09be 6bec 46be
00000040: f98b a6bd 4c4f 583d 7a45 c7bd 47f8 ae3d
00000050: a845 23be 0de5 e9bd 97c0 5dbd 6015 98bd
00000060: 0b41 b3bd df8b 26bd ab79 533b 2c01 493d
00000070: af5e e6bc 5b5c 8cbd 6fc9 f0bd 5469 11be
00000080: 4aff c53d c29b e8bd b3de 51bd 8f88 333b
00000090: 037f 73be b396 f4bd e1ac 35be bdd1 d3bd
000000a0: e15d 64be 8f1d c9bc cfea e6bd 023c d03b
000000b0: 6ccd 13bd 0939 12bd 4fc6 ab3d f63e 49bd
000000c0: 8507 8dbe a764 fbbd 16c7 f3bd c6e8 1fbd
000000d0: 4b3a 08be 5ead 15be 336e 95be 7605 47be
000000e0: 1a2c e0bc 450f 56bd bcee 163d 4510 0cbd
000000f0: 0d9a b8bd 2407 f63c 9dde 2c3d a3a8 d6bc
0.058661073 -0.08279201 -0.091345415 -0.20628412 0.12833968 -0.04668601 -0.055340637 -0.11384868
-0.008946858 0.18733996 -0.060022064 -0.07032845 0.012470918 -0.031813566 -0.13391235 -0.19426124
-0.081321664 0.05281 -0.097300485 0.08543449 -0.1594454 -0.11420641 -0.054138746 -0.07425952
-0.0875264 -0.040660735 0.0032268565 0.049073383 -0.02812132 -0.06853553 -0.117571704 -0.14200336
0.09667833 -0.113578334 -0.051237773 0.0027394628 -0.2377892 -0.11942806 -0.1774173 -0.10342739
-0.22301437 -0.024550227 -0.11275255 0.0063548097 -0.036084577 -0.035698924 0.08387434 -0.04913231
-0.275448 -0.12275057 -0.11903207 -0.03904035 -0.13303487 -0.14616916 -0.29185638 -0.19435677
-0.02736478 -0.052260656 0.03684877 -0.034195203 -0.09013758 0.030032702 0.042204488 -0.02620346

rho f4 [64]
00000000: 8b60 e4c0 cdf7 e3c0 ae5b e3c0 a79a e7c0
00000010: f34b dfc0 a410 dec0 27cf dfc0 ed17 dcc0
00000020: 7314 e0c0 60f1 dbc0 c71c e4c0 cf88 d6c0
00000030: 989e dfc0 5037 d7c0 2440 d9c0 e32d ecc0
00000040: ec63 e2c0 fd20 e4c0 db91 e2c0 bafb dec0
00000050: e4ac e0c0 39fc dfc0 11e0 dfc0 59bb e1c0
00000060: 7a23 e0c0 4c28 e0c0 ff1a dec0 3c86 e1c0
00000070: f1ac e4c0 df7c e2c0 4396 ddc0 5f7d dcc0
00000080: 1510 dbc0 6bd9 dec0 ff3b e2c0 422c e8c0
00000090: 9da6 e4c0 c154 dec0 ae19 dec0 7dbc dac0
000000a0: 176b e6c0 8247 ddc0 9fd9 e4c0 cfb1 e1c0
000000b0: 1421 e5c0 6491 e0c0 32ad dbc0 4d3b e1c0
000000c0: f5b8 e1c0 2579 dec0 f79c e0c0 a277 dbc0
000000d0: 504f e0c0 5bcc e0c0 75b5 e5c0 b090 d6c0
000000e0: cc35 e5c0 73ad dbc0 bbbd e5c0 4f1b e2c0
000000f0: a10a e1c0 c983 e3c0 b447 e8c0 bc6f e3c0
-7.136785 -7.123999 -7.1049414 -7.2376285 -6.978021 -6.9395313 -6.994037 -6.8779206
-7.0024962 -6.8732147 -7.128513 -6.7042003 -6.9881096 -6.725502 -6.7890797 -7.3806014
-7.0746975 -7.129027 -7.0803046 -6.9682283 -7.021105 -6.999539 -6.996102 -7.0541196
-7.0043306 -7.004919 -6.9407954 -7.047636 -7.146111 -7.077743 -6.9245925 -6.890304
-6.845713 -6.9640403 -7.0698237 -7.2554026 -7.1453385 -6.947846 -6.9406347 -6.835509
-7.2005725 -6.914979 -7.151565 -7.052955 -7.160288 -7.017748 -6.864892 -7.038489
-7.053828 -6.952288 -7.0191607 -6.8583536 -7.0096817 -7.0249457 -7.1784005 -6.705162
-7.162817 -6.864923 -7.1794105 -7.0658336 -7.0325475 -7.109837 -7.258753 -7.1073895

eps_w f4 [64]
00000000: 9e6e 653f 7847 aabe b01e 35bf 9380 babd
00000010: beda aabf 8006 fd3e 4cf4 8cbe 1c1e fa3e
00000020: 3eff b7bf e148 31be 5077 bf3e c425 223f
00000030: 6060 6d3f ddc2 af3e d62e 3c3f 03e2 d7bf
00000040: 82e2 f0bf 9afb 8c3f c2ce 6cbb e55a ee3e
00000050: b107 293e c307 79be f607 8cbe bb8e 073e
00000060: bcf4 403f 0729 f03e 8af3 19be 036e fa3e
00000070: 4ecb 773e e1ec 743f a14a ea3f 0338 823f
00000080: 33e9 85bf e1f5 f53e d379 423f 4039 08c0
00000090: d8cd 7e3f 68a9 f1bd 11ba 02bf d53b 043e
000000a0: 20eb ac3f 4fb0 5a3e bbcc f7be 4c27 80be
000000b0: 60bb 9f3f fc0b aebf 022c 433e 9bc8 173e
000000c0: c2cc 103f 7724 b0be 0a64 c8bf 49ae 8a3f
000000d0: c58a 353e 496a 04bf 2808 453f 42c8 283f
000000e0: e968 863f 42d6 a83e 8e45 febd 225e 8dbf
000000f0: 78df 0f3f 448a 3fbf 1f15 de3e 4894 313f
0.89621913 -0.3325765 -0.7074995 -0.09106555 -1.3348005 0.49419022 -0.27530134 0.48851097
-1.4374769 -0.17312957 0.37395716 0.63338876 0.9272518 0.34328356 0.73508966 -1.6865848
-1.8819125 1.1014283 -0.003613398 0.46553722 0.1650684 -0.24319367 -0.27349824 0.13238041
0.75373435 0.469063 -0.15034309 0.48912057 0.24198648 0.9567395 1.8304025 1.0173343
-1.0461792 0.48039153 0.7596714 -2.1284943 0.9953284 -0.1179989 -0.51065165 0.12913449
1.3509254 0.21356319 -0.48398384 -0.2502998 1.2479057 -1.3597407 0.19059756 0.14822619
0.56562436 -0.3440282 -1.565553 1.0834438 0.17728718 -0.5172468 0.7696557 0.6593057
1.0500766 0.32975966 -0.1241561 -1.1044352 0.5620036 -0.7482035 0.4337549 0.69366884

sigma f4 [64]
00000000: cc66 503a 0915 533a 5024 573a ef6a 3c3a
00000010: 1f3e 743a 77d2 7d3a 225d 703a cef8 863a
00000020: 0c57 6e3a b49b 873a c621 523a 3f90 a03a
00000030: caca 713a 6f2e 9d3a 3181 933a f552 233a
00000040: c3be 5d3a 2406 523a 7c81 5c3a 24a5 763a
00000050: a6f2 693a ad0b 6f3a 46de 6f3a 7f5a 623a
00000060: 47e7 6d3a 77c3 6d3a 6c80 7d3a 40d3 633a
00000070: c177 4e3a 3512 5d3a fdd1 803a c64f 853a
00000080: 2d63 8b3a 03ae 773a fcd3 5e3a 7a19 393a
00000090: 96a0 4e3a b2b8 7b3a d88a 7d3a f7d0 8c3a
000000a0: 2e87 433a 6410 823a 6058 4d3a fb9d 623a
000000b0: 0090 4b3a f1bb 6a3a b0bd 883a f4ea 653a
000000c0: 666b 623a 359b 7a3a 2467 6a3a 32a3 893a
000000d0: 65a2 6c3a 280d 693a f7e8 473a c268 a03a
000000e0: 6b0c 4b3a 9abc 883a 54b5 473a f5b7 5f3a
000000f0: 8b49 673a 7117 563a 0b7b 383a b39d 563a
0.0007949888 0.0008052146 0.000820701 0.0007187565 0.0009317118 0.0009682546 0.00091691513 0.0010297538
0.00090919505 0.0010346086 0.0008015897 0.001225002 0.00092236383 0.0011991988 0.0011253712 0.0006230318
0.00084589067 0.0008011779 0.00084116287 0.0009408763 0.0008924402 0.00091188663 0.0009150248 0.0008634701
0.00090752955 0.0009069959 0.00096703204 0.00086908415 0.0007876121 0.0008433194 0.0009828206 0.0010170869
0.0010634415 0.0009448232 0.0008500216 0.0007060986 0.00078822055 0.0009602412 0.00096718734 0.0010743429
0.0007458803 0.0009923098 0.00078332983 0.0008644757 0.0007765293 0.0008954397 0.0010432508 0.00087706675
0.00086372194 0.0009559871 0.0008941761 0.0010500907 0.0009026884 0.0008890205 0.0007625962 0.0012238252
0.0007745686 0.0010432184 0.00076182676 0.00085341866 0.00088229094 0.0008166945 0.0007037378 0.0008186951

w f4 [64]
00000000: b031 733d 421b aabd bb43 bcbd 4e4d 53be
00000010: 7625 023e 1544 3dbd 8eb5 63bd c121 e8bd
00000020: 94ff 27bc 17a7 3f3e 609f 74bd 9171 8ebd
00000030: 0e56 5a3c 479f 00bd 7647 08be e1ff 47be
00000040: 95ce a9bd 9aec 5b3d 1247 c7bd ecdd af3d
00000050: 0a1f 23be 5259 eabd 01c7 5ebd 72d9 97bd
00000060: 69da b1bd c4cd 24bd 7cf2 493b e8be 4a3d
00000070: fcce e4bc 57b5 8abd 431a edbd 155a 10be
00000080: feb7 c33d cbad e7bd 9839 4fbd 4213 a23a
00000090: 5ab1 72be 1bd2 f4bd 5a2e 36be 0089 d3bd
000000a0: bc55 63be 2161 c7bc 93b1 e7bd e624 c93b
000000b0: 51d5 0fbd bf35 17bd 8f2e ac3d a4b6 48bd
000000c0: 7cc7 8cbe 1511 fcbd 07a5 f6bd cb3f 1bbd
000000d0: 5710 08be ea25 16be 4521 95be f231 46be
000000e0: 5f82 d9bc 8ca6 54bd 8e8b 163d 9aec 0fbd
000000f0: 1596 b7bd ab05 f13c b11e 2e3d a801 d2bc
0.059373558 -0.0830598 -0.09192606 -0.20634958 0.12709603 -0.046207506 -0.055593066 -0.11334563
-0.010253806 0.18716083 -0.059722304 -0.06955255 0.013326181 -0.0314019 -0.1330851 -0.19531204
-0.082913555 0.053692438 -0.097303525 0.0858725 -0.15929809 -0.11442818 -0.054389004 -0.07414521
-0.086842366 -0.040235296 0.0030814698 0.04949847 -0.02793073 -0.06772869 -0.11577275 -0.14096864
0.09556578 -0.11312445 -0.050592035 0.0012365358 -0.23700467 -0.11954137 -0.17791119 -0.10328865
-0.22200674 -0.024338307 -0.113131665 0.006138432 -0.035115544 -0.03691649 0.08407318 -0.049002305
-0.27495944 -0.12307946 -0.12043195 -0.037902635 -0.13287483 -0.146629 -0.29126945 -0.1935499
-0.026551424 -0.051916644 0.036754183 -0.03513775 -0.08964173 0.029421648 0.04250974 -0.025635555

weight f4 [1, 9]
00000000: ca20 d1bc 0859 cc3d 20bc 02bf 7db0 9dbe
00000010: 78d4 183e e7ca 663d 26b7 d9be 2427 f23d
00000020: 3bcf 673e
-0.02552833 0.09977919 -0.51068306 -0.30798712 0.149248 0.056345847 -0.42522544 0.11823872
0.22637646

weight f4 [64, 64]
00000000: 8a21 743d ce2b 3c3e b90a 073e 8713 793c
00000010: 8d44 823d b5f7 243c 3392 df3d 7577 1d3e
00000020: 2809 83bd 723e 383c c2d4 a93d a8e6 093d
00000030: 60bd 083c 61e0 3bbd 66d1 49bd f007 353e
00000040: ea9e c93d 2933 0f3e 3c0a 553d c962 da3d
00000050: 3c21 8b3c 62f9 223e 5400 333e bbc0 d93d
00000060: d078 fc3c bedd 21bc 007c fd3b 3cbe cf3d
00000070: 6fe3 d13d ad93 8abc a0c6 363e 9180 343d
00000080: b3ab 12bc 34ee 6b3d e014 163e d2c0 a83d
00000090: 9723 84bd d0c8 38bd 433e b13d c142 033e
000000a0: 3822 2abd c165 68bc 1533 4c3d 58b5 933d
000000b0: 1b7b 3d3d 7a34 293e e3fb c9bc bc45 8e3d
000000c0: 5809 af3d 09a2 293e 44fa 723d f4fe 26bc
000000d0: 1f5c 2c3d 5b80 2ebd 91f6 0b3d 4d35 07bc
000000e0: dc5f 6d3d 6d46 3fbb 6a85 92bb 58da a23d
000000f0: a89d 313e 5abb 98bc dfb9 923c cc76 2b3e
00000100: 84fe 9f3d 600f e23d ecae 993d 9499 f53d
00000110: 6024 613c fcbe 30bd b071 be3c 92d0 b5bd
00000120: d04b dabc f0d5 a13c 4283 bdbd 8acc 9dbd
00000130: f6fc c4bd 543c f93d d887 d2bc d8d6 a33c
00000140: 5839 553d c438 6d3d a859 03bd 4420 4fbd
00000150: ac2c 34bd 7035 253d f06b 013c 00f0 2138
00000160: c058 af3b 769d dabd 1092 ce3c 68d4 a1bc
00000170: 987e f0bd f0bc 92bc 40a5 09bc 808a 1a3b
00000180: 4c53 5b3d 9ea8 d4bd 7e0b bf3d 7ac2 fd3d
00000190: d8e0 bfbd ac65 033d 68d0 2abd b841 89bd
000001a0: 94d1 e83d 3eac b1bd 9e83 bf3d 983d 843c
000001b0: 8009 b9ba 1057 433c b8f0 f1bc 6059 f23d
000001c0: de3b 9c3d 7837 f7bc d0af 11bd 0a7d f23d
000001d0: a450 08bd 4247 8e3d 528c b63d dc01 473d
000001e0: dc3f 55bd 843b 2b3d cc98 7d3d 4eda f8bd
000001f0: a07f b13b 4405 acbd 8c63 bebd 4800 75bd
00000200: 7b22 abbd 8968 7fbe f7d7 08be 0613 993e
00000210: 0cc0 8dbd ffb3 10bd 2a02 1cbd 0f82 57be
00000220: 456e 35be cd63 14be 3418 90bc 0765 01bc
00000230: 47db 143e 53c4 f0bd 04a7 3b3e cc35 733e
00000240: 57ab 263e 7241 e4bc c06f 92bd ab22 513d
00000250: cb98 29be bdd5 67be 9304 57be b97f 36bd
00000260: ddd6 c8bd c38a 43be 3922 44be 62aa 91bd
00000270: 530c 53be b546 51be 0b6d a3bd dbc8 35be
00000280: 9d7b 5ebe 973a a7bd 3f42 20be 066d c3bc
00000290: 4c1b ba3e cd65 16be a933 1e3e 4b82 d2bd
000002a0: fd43 993e c71a 45be 094c 61be 6acb be3d
000002b0: bd3a 743e 1483 0abe 3652 30bd a19c 1fbe
000002c0: d349 e9bd d990 ccbd 4f8b 02be c9e1 b6bd
000002d0: 964e babb f964 e9bd 3e06 a3bc bb6b 923e
000002e0: 139f 4bbe 1d49 1dbe 5d38 723e 4163 17bd
000002f0: 50c3 74bd 574f 0a3d 6f2f aabe d557 843e
00000300: 9710 19bd dab8 f63c 1960 d13c a0f8 243e
00000310: b372 203c ac2d cd3d a25e 123e e4dc 073d
00000320: 1607 3b3e 86e7 5fbd cb82 e23d 7a74 1fbc
00000330: 2a59 923d f91f 293d eb95 01bd 3931 423e
00000340: 4257 123e d204 e8ba e368 473d f24d 443d
00000350: 93e7 fe3b 43e4 123e faae 153d 6a6d 2b3e
00000360: c694 283e 51c1 0cbc 0cf0 703d fe60 a73d
00000370: dbe4 2b3b 4e61 58bd 4949 ddbc 1f56 19bd
00000380: c63d ff3d 2e15 673c d3d2 9f3d e8bb 03bd
00000390: 0fef 3fbd 8407 c13d 0cff 093e 2ab5 19bd
000003a0: 2a9a d93c 3a30 09bd 9c4d 483b 8677 1d3e
000003b0: 3913 403e 3170 d43c 226f 903c 1126 ed3d
000003c0: 1d3f 0e3e 1768 8c3d 70e2 d3bc ff27 4ebd
000003d0: b2e2 be3d 08b3 35bd 6ba7 b43d 9add a03d
000003e0: 4f1f 343e 08d4 6e3d e948 e7bc cf1b 8e3c
000003f0: 8f1d 163d 5e9b a73d 3b4b 323c a38d 1e3e
0.059602298 0.18376085 0.13187684 0.01520241 0.06360731 0.010068824 0.10916557 0.153776
-0.06398231 0.011245357 0.082925335 0.033667237 0.008345932 -0.04586828 -0.049271964 0.17678809
0.098447636 0.1398436 0.052011713 0.10663373 0.01698362 0.15915444 0.17480594 0.106324635
0.030819327 -0.009879528 0.007735729 0.10143706 0.10248458 -0.01691612 0.17849207 0.044067923
-0.008952069 0.057600215 0.146564 0.082399026 -0.06452101 -0.045113385 0.086544536 0.12818433
-0.04153654 -0.014184416 0.049853403 0.07212323 0.04625998 0.16523924 -0.024656242 0.069468945
0.08546704 0.16565718 0.059320703 -0.0101926215 0.04208004 -0.042602878 0.03417069 -0.008252454
0.057952747 -0.0029186264 -0.0044714706 0.07951802 0.17345297 -0.018644024 0.017910896 0.16744536
0.07812217 0.11038089 0.07504067 0.11992183 0.013741583 -0.043150887 0.02324757 -0.08877672
-0.026647478 0.019755334 -0.09253551 -0.07705028 -0.09618561 0.1216971 -0.025699541 0.019999906
0.05205664 0.057915464 -0.032067925 -0.05056788 -0.043987915 0.040334165 0.007899269 3.860891e-05
0.005351156 -0.106745645 0.025216132 -0.019754604 -0.11742896 -0.017912358 -0.008401215 0.0023581088
0.053546235 -0.10383724 0.09328364 0.12390609 -0.093690574 0.032079384 -0.041702658 -0.06701988
0.11368099 -0.08675431 0.09351276 0.016142651 -0.0014117211 0.011922613 -0.029533729 0.11833453
0.07628606 -0.030177817 -0.03556806 0.118402556 -0.03328003 0.06947185 0.08913483 0.048585758
-0.052062854 0.041804805 0.061913297 -0.12151013 0.0054168254 -0.08399442 -0.09296331 -0.05981472
-0.08356186 -0.24942221 -0.13363634 0.29897326 -0.06921396 -0.035327908 -0.038088 -0.21045707
-0.17717846 -0.14491196 -0.017589666 -0.007897622 0.14536773 -0.11756196 0.1832543 0.2375099
0.16276298 -0.027863238 -0.07150221 0.051058453 -0.16562192 -0.22640128 -0.20997839 -0.0445554
-0.09806607 -0.19095902 -0.1915368 -0.07112576 -0.2061017 -0.20437129 -0.07979783 -0.17752402
-0.21726842 -0.08165472 -0.15650271 -0.023855697 0.3634895 -0.14687271 0.15449394 -0.10278758
0.29934683 -0.19248496 -0.22001661 0.09316142 0.23850532 -0.13526565 -0.043047152 -0.15587093
-0.11391034 -0.09988565 -0.12748455 -0.08929784 -0.0056856377 -0.11396212 -0.019900437 0.28597817
-0.19884901 -0.15359922 0.23654313 -0.03695989 -0.059756577 0.03376707 -0.33239314 0.2584826
-0.037369337 0.030117441 0.025558518 0.16110468 0.009792971 0.10018477 0.14293912 0.033169642
0.18264422 -0.054664157 0.11060103 -0.00973236 0.07145913 0.041290257 -0.031637114 0.1896409
0.14291099 -0.0017701632 0.048684012 0.047925897 0.0077790706 0.14344887 0.036543824 0.16740957
0.16463003 -0.008591012 0.058822677 0.08172797 0.0026228938 -0.052827172 -0.027012484 -0.037435647
0.12462954 0.014104171 0.078038834 -0.032161623 -0.046858843 0.094252616 0.13476199 -0.037526287
0.026562769 -0.033493258 0.0030563837 0.15377626 0.18757333 0.025932403 0.017631117 0.11579526
0.13891263 0.06855791 -0.02586481 -0.050331112 0.093205824 -0.04436019 0.08820995 0.07854767
0.17590068 0.058307678 -0.028233008 0.017347245 0.036649283 0.08183931 0.010882194 0.15483718
