results/saved_models/df_NZTemp_seed_9999_model_CNN.pkl (torch, 31831 bytes, 18 tensors)

weight_mu f4 [64, 3, 1]
000000 1e 02 97 bd ab 8f cb 3a b9 2c 16 3e 64 e7 26 be
       -0.07373451 0.0015530487 0.14665498 -0.16299206
000010 dd c9 10 be d8 4b 1f 3d 88 9f 55 3d 7d e5 98 be
       -0.14139505 0.03889069 0.052154094 -0.29862586
000020 28 2b 67 be b2 79 62 3e be b3 a1 bd 0b ec ad be
       -0.22575057 0.22116736 -0.07895611 -0.3396915
000030 32 97 d8 3d 54 d2 8f bd 4c 76 33 bd 77 eb 2e be
       0.10575713 -0.07022539 -0.04381399 -0.1708201
000040 f2 bf c1 bd 77 81 a5 bd fa b9 4a be c7 c3 19 3d
       -0.09460439 -0.08081334 -0.19797507 0.037540223
000050 8d b4 6f bd 46 89 7b 3e f6 09 70 bb 33 07 16 be
       -0.058521796 0.24564084 -0.003662703 -0.14651184
000060 e2 c1 91 3d 30 9f f0 bc c9 04 0d 3f 87 ad 4f be
       0.07117058 -0.029372782 0.55085427 -0.20281039
000070 ab e1 40 3c 93 26 cd 3d 3e 03 eb bd 48 38 45 3e
       0.011772553 0.10017123 -0.11475228 0.19259751
000080 8c 48 1c be 59 02 a0 3b 76 45 c4 3d 94 c1 ca be
       -0.1526205 0.0048830924 0.09583561 -0.39600813
000090 b8 0c da be 2a 16 60 be 29 6e 8e be 8d ef 85 be
       -0.4258783 -0.21883455 -0.2781842 -0.26159325
0000a0 52 98 08 be aa cb 78 3b 88 b4 5b bd 7a 61 28 bc
       -0.13339356 0.003796319 -0.053638965 -0.0102771465
0000b0 a7 98 ff 3c 71 af 60 3d 79 ff 77 3e d6 ab 84 3e
       0.03120072 0.054854814 0.24218549 0.2591235
0000c0 15 80 f1 3d 8c 5f cc ba 81 b5 97 be 75 1b 87 be
       0.11792008 -0.001559244 -0.29630664 -0.26388136
0000d0 3f dd 3c 3c 7b 6c 85 bd 1a 78 5a 3d ac 16 01 3e
       0.011527359 -0.06514832 0.053337194 0.12606305
0000e0 df 1c a5 be bb 00 84 bc 00 83 f3 bc 07 0a bb 3d
       -0.3224859 -0.01611363 -0.029725552 0.09132772
0000f0 66 46 57 be f4 8a ab bd 43 be 66 3c ec 03 95 bc
       -0.21022949 -0.083761126 0.014083448 -0.018190347
000100 65 99 85 bc 88 47 c7 bd eb 30 67 3d 20 64 ff 3d
       -0.016308496 -0.097304404 0.056443136 0.12470269
000110 d7 50 06 3f 84 c7 e8 b9 71 33 fc 3b 59 0f 1f be
       0.524671 -0.0004439914 0.007696562 -0.15533198
000120 49 8d 0a 3f 50 95 50 bd f1 51 ea be 5c 4a 2d 3e
       0.54121834 -0.050923645 -0.4576564 0.16922897
000130 9d 43 86 3e be bc c8 3e 87 6f 2f bd 67 f5 bd 3d
       0.2622346 0.392065 -0.04283097 0.092753224
000140 ed 85 bc be 55 23 f3 3d 04 b7 95 3c da d4 6e be
       -0.36820927 0.118719734 0.018275745 -0.23323384
000150 c2 41 10 3e 8f f7 14 be 3d 0c a8 bd c3 62 5a be
       0.14087585 -0.14547561 -0.08205459 -0.21326737
000160 fd 44 eb bc 87 b9 ff 3c ef 04 05 be 05 00 1d be
       -0.02871942 0.031216396 -0.12990163 -0.15332039
000170 48 61 f7 bd 58 21 d5 bd 02 22 e3 bc 86 73 39 bd
       -0.12079102 -0.104067504 -0.027726177 -0.045276187
000180 5a 0b d3 bd 36 36 0a be 50 50 ad bc 90 fb 10 3e
       -0.103048995 -0.13497242 -0.02115646 0.14158463
000190 7c 86 07 3c c6 1f a7 be 58 bd dd bb 97 b2 73 bd
       0.00827181 -0.3264143 -0.0067669563 -0.05949649
0001a0 b3 05 f3 bd a9 53 bb bc da 17 93 3d 29 ba bc bd
       -0.118663214 -0.02286704 0.07182284 -0.09215195
0001b0 8c b5 90 3b d6 53 8d bd e2 c8 02 3f 49 c9 a5 3d
       0.0044161733 -0.06900756 0.5108777 0.08095033
0001c0 1b b3 bf be 92 b0 73 bd ac 08 b9 3b d2 da 46 be
       -0.37441334 -0.059494562 0.0056467857 -0.19419411
0001d0 0a 9c 7b be 53 f4 59 be 01 6b 7a be 57 b8 96 be
       -0.24571243 -0.21284609 -0.24454881 -0.29437515
0001e0 10 80 73 be 22 d0 51 3e fa b2 3e bb 04 e9 1b 3e
       -0.2377932 0.20489553 -0.0029098378 0.15225607
0001f0 6e 83 40 3d 2d 7d 86 be dd e2 bb bd 19 ca 89 3d
       0.04700034 -0.26267377 -0.0917413 0.06728
000200 9b 61 26 bd c5 be f5 bc ce 32 35 3d 13 6f 2f be
       -0.040620428 -0.029998193 0.044237904 -0.17132215
000210 80 e6 97 3c b2 06 42 bd d1 22 9f be a8 71 eb 3e
       0.018542528 -0.047369666 -0.3108125 0.4598515
000220 f7 c6 fe 3d cd 24 e6 be 41 c1 80 bd 14 9e 85 bd
       0.12440293 -0.44949952 -0.0628686 -0.06524292
000230 89 42 77 3d 58 57 0c bf c5 44 c6 be 46 fd 4b be
       0.060366187 -0.54820776 -0.38724342 -0.19920835
000240 38 22 18 bd 24 e5 6b be 5e 8a 81 3d 83 fc fa bc
       -0.03714201 -0.23036629 0.063252196 -0.030637985
000250 52 5b 3d bd 3e e7 40 be 90 83 7f bd a8 10 c2 bd
       -0.046229668 -0.18838212 -0.062381327 -0.09475833
000260 2b ec 35 bd af 70 05 be 53 38 b0 3d 9f 94 ec bd
       -0.04441468 -0.13031267 0.08604493 -0.11551785
000270 59 0d 08 bc b1 10 69 be e2 d8 8e be 03 d7 89 3d
       -0.008303964 -0.22760274 -0.27899843 0.06730463
000280 19 09 97 be c8 87 c8 3b e2 ef f6 bd 94 72 b5 be
       -0.29499128 0.006119702 -0.12057473 -0.3543898
000290 ce 4c 48 be e1 81 83 be 43 5e e5 bc 48 8c 46 3d
       -0.19560549 -0.25685027 -0.027999049 0.048473626
0002a0 4d 4f 2f be 20 dd 9f bd 12 f9 56 3d 18 77 f3 3d
       -0.17120095 -0.07805848 0.052483626 0.1188795
0002b0 0f 7c 89 3d e6 9c ad be 72 f2 10 3c 70 13 64 3d
       0.067131154 -0.33908767 0.008846866 0.0556826
0002c0 3b a4 a8 bd 17 a6 16 be 3e f4 41 be 9a 45 b5 bd
       -0.082344495 -0.14711796 -0.18940827 -0.08851166
0002d0 93 a3 f2 bd 43 87 ff 3d 97 91 36 be c8 38 50 be
       -0.118476056 0.12476971 -0.17828976 -0.2033416
0002e0 df 91 0a bd bd c8 a9 bd 5d a1 15 3e de fc 5c 3e
       -0.03383052 -0.08290241 0.14612336 0.21580836
0002f0 6a 05 df 3e 7e 52 0b bd ee 6e c3 bd 9e 0b 29 be
       0.43558818 -0.034014218 -0.095426425 -0.16508338

weight_rho f4 [64, 3, 1]
000000 2c c7 df c0 49 1a df c0 90 45 e5 c0 6d 2a e4 c0
       -6.993063 -6.9719586 -7.1647415 -7.130179
000010 5b 03 e2 c0 26 14 dd c0 c2 dc e1 c0 cb a5 da c0
       -7.0629096 -6.9087095 -7.058198 -6.8327384
000020 61 b7 e1 c0 d1 ee df c0 69 d0 e0 c0 f9 fb e1 c0
       -7.053635 -6.9979024 -7.0254407 -7.0620084
000030 2e 7c dc c0 8b 39 e1 c0 c5 78 e0 c0 88 1e df c0
       -6.8901587 -7.0382743 -7.0147424 -6.972477
000040 d0 30 dc c0 fb 38 e2 c0 fb 3e e6 c0 bc e4 e7 c0
       -6.8809586 -7.0694556 -7.195188 -7.2466717
000050 75 d3 e2 c0 d8 53 da c0 6a 26 e7 c0 4d 97 e4 c0
       -7.0883126 -6.822735 -7.223439 -7.1434693
000060 f5 80 e6 c0 b1 28 e1 c0 1f 0a e0 c0 0b 46 dd c0
       -7.203242 -7.036217 -7.0012355 -6.9148
000070 23 77 e0 c0 c4 77 de c0 bd 88 df c0 46 92 dc c0
       -7.014543 -6.95212 -6.9854417 -6.8928556
000080 74 d8 e2 c0 78 e5 d5 c0 ed af db c0 38 ad d5 c0
       -7.0889225 -6.6842613 -6.8652253 -6.677395
000090 fe 54 e1 c0 60 ce e0 c0 70 fa d6 c0 8a 32 e1 c0
       -7.041625 -7.0251923 -6.718071 -7.0374193
0000a0 83 26 da c0 4a 1d e3 c0 9e be df c0 82 bc dd c0
       -6.817201 -7.0973253 -6.9920187 -6.929261
0000b0 21 08 dd c0 4d ff e5 c0 88 fa ee c0 37 01 df c0
       -6.9072423 -7.1874146 -7.4680824 -6.9688983
0000c0 ad b1 e0 c0 d2 17 df c0 a6 43 db c0 e5 48 e6 c0
       -7.021689 -6.9716578 -6.852008 -7.1963983
0000d0 12 53 df c0 b3 58 df c0 78 d7 d6 c0 63 21 e1 c0
       -6.9788904 -6.9795775 -6.7138023 -7.0353255
0000e0 c2 3f e7 c0 9b 9a e0 c0 63 ef dc c0 7f e9 df c0
       -7.226533 -7.0188727 -6.904222 -6.997253
0000f0 f2 fa e0 c0 6f e5 db c0 e0 7b de c0 ad 02 db c0
       -7.030633 -6.871757 -6.9526215 -6.8440766
000100 5f 0c da c0 8c ed e2 c0 12 d6 e6 c0 6f 13 e0 c0
       -6.81401 -7.0914974 -7.2136316 -7.0023723
000110 da 33 db c0 e1 23 dd c0 18 1f e4 c0 fc 0a e0 c0
       -6.8500795 -6.9106297 -7.1287956 -7.001341
000120 d7 5c e2 c0 7f 0b e0 c0 a4 a0 e6 c0 e2 6e db c0
       -7.073833 -7.0014033 -7.2071095 -6.8572855
000130 55 3c db c0 31 ba e1 c0 a6 37 d9 c0 fc 8d d9 c0
       -6.8511147 -7.0539784 -6.788043 -6.798582
000140 20 12 ee c0 23 57 d9 c0 e7 6c db c0 16 6f dc c0
       -7.4397125 -6.791887 -6.8570437 -6.8885603
000150 73 f7 dd c0 ec 54 e1 c0 be 4a e0 c0 b0 91 e5 c0
       -6.936456 -7.0416164 -7.009124 -7.174034
000160 69 8b dc c0 4c 39 e1 c0 99 eb e2 c0 62 4f de c0
       -6.892018 -7.0382442 -7.0912595 -6.9471903
000170 a6 0a e0 c0 04 98 dd c0 10 65 e2 c0 a7 68 e3 c0
       -7.0013 -6.9248066 -7.0748367 -7.106525
000180 d3 38 e1 c0 a2 bd dd c0 53 5e e6 c0 8b 26 eb c0
       -7.0381866 -6.9293985 -7.199014 -7.348455
000190 7b 5e e7 c0 11 43 e2 c0 91 9c e0 c0 ea 35 de c0
       -7.2302833 -7.070687 -7.019112 -6.9440813
0001a0 7d a5 dc c0 28 73 e2 c0 ab ec e1 c0 77 3d e1 c0
       -6.895201 -7.076557 -7.06014 -7.038753
0001b0 53 7e e5 c0 6f 8a e8 c0 40 dc e5 c0 12 89 df c0
       -7.1716704 -7.2668986 -7.183136 -6.985482
0001c0 1e 37 e5 c0 1a af d9 c0 16 bc da c0 20 31 e0 c0
       -7.162978 -6.8026247 -6.8354597 -7.0059967
0001d0 46 70 de c0 a5 0b e0 c0 d5 53 e7 c0 fe a0 e4 c0
       -6.9512053 -7.0014215 -7.2289834 -7.1446524
0001e0 9d 66 d9 c0 c0 17 dd c0 57 2a e0 c0 fd 5c d3 c0
       -6.793776 -6.909149 -7.0051684 -6.605101
0001f0 68 3a de c0 4b 81 e3 c0 c4 79 e1 c0 4d fb e1 c0
       -6.9446297 -7.109533 -7.046114 -7.0619264
000200 d9 78 e0 c0 f4 34 de c0 f6 f9 e2 c0 80 6e df c0
       -7.014752 -6.943964 -7.093013 -6.982239
000210 37 d3 ec c0 b5 5a e2 c0 80 05 e6 c0 b5 16 e3 c0
       -7.400783 -7.0735726 -7.1881714 -7.096522
000220 6c a0 e6 c0 b4 43 db c0 21 c2 df c0 0e 32 e2 c0
       -7.2070827 -6.8520145 -6.9924474 -7.06861
000230 71 1d df c0 0a 63 dd c0 0d 4f e3 c0 d1 e7 df c0
       -6.972344 -6.9183397 -7.1033998 -6.997048
000240 49 8f e2 c0 c9 17 e0 c0 3d 85 e0 c0 6f 35 e6 c0
       -7.079991 -7.0029035 -7.0162644 -7.1940227
000250 1c 58 e2 c0 0f 06 db c0 c6 7e e3 c0 ea 07 dc c0
       -7.0732555 -6.8444896 -7.1092253 -6.875966
000260 ab 8e df c0 83 c0 e1 c0 c9 8d df c0 1d 0e e6 c0
       -6.9861655 -7.05475 -6.9860578 -7.189223
000270 3b 5d dd c0 07 81 e3 c0 e1 7e d9 c0 e2 ac dc c0
       -6.9176307 -7.1095004 -6.796738 -6.896104
000280 0c 25 de c0 8a af e3 c0 8e f1 e3 c0 08 7a df c0
       -6.9420223 -7.115178 -7.1232367 -6.9836464
000290 ea 09 df c0 e3 00 e8 c0 f0 1b e4 c0 39 07 dc c0
       -6.96996 -7.2501082 -7.1284103 -6.8758817
0002a0 33 08 de c0 55 69 df c0 78 9c e2 c0 7c d1 e2 c0
       -6.938501 -6.981608 -7.0816 -7.088072
0002b0 80 01 e1 c0 77 d4 e6 c0 0e e5 dc c0 40 ac e1 c0
       -7.031433 -7.2134356 -6.902961 -7.0522766
0002c0 2e 79 de c0 40 e0 df c0 3a e0 dd c0 04 d2 d8 c0
       -6.9522924 -6.9961243 -6.9336214 -6.7756367
0002d0 38 a5 e0 c0 a2 7b de c0 a2 d4 e3 c0 62 fa de c0
       -7.0201683 -6.952592 -7.119706 -6.9680643
0002e0 55 e0 e1 c0 73 9b df c0 c4 38 e4 c0 dc 0d e3 c0
       -7.0586343 -6.9877257 -7.1319294 -7.095442
0002f0 e0 58 e2 c0 40 a4 da c0 62 aa da c0 68 4d e0 c0
       -7.073349 -6.83255 -6.8332987 -7.009449

bias_mu f4 [64]
000000 af 20 f5 bd 35 49 62 bd b3 2b 95 3e 40 e5 29 3e
       -0.119691245 -0.055245597 0.29134902 0.16591358
000010 45 a4 2f be 36 2a 86 bc e3 2e 9b bd 6d b1 06 3e
       -0.17152508 -0.01637755 -0.07577302 0.1315362
000020 12 d7 90 3c d4 c8 56 be ae 48 69 be 27 39 8a 3e
       0.017680679 -0.20975047 -0.22781631 0.2699673
000030 e2 a7 c0 3d 7f 4b 41 bd ff 38 e0 bd 24 fe 88 3d
       0.09407021 -0.04719114 -0.10948371 0.066890985
000040 94 56 84 3e 8f 9a 0a bd 4a 1a 73 3e 35 ad f0 bd
       0.25847304 -0.033838805 0.23740497 -0.117517866
000050 a7 d8 50 bd f2 60 dc bd fb 57 2b 3e 5b 00 1c bb
       -0.050987866 -0.10760678 0.1673278 -0.0023803923
000060 c1 26 63 3d 12 c1 16 3e 70 e0 84 3e 98 06 62 be
       0.05545688 0.14722088 0.25952482 -0.22072828
000070 87 de 30 be 3f fe 39 bd 9b c6 21 bd c5 1b 0d be
       -0.17272387 -0.045408484 -0.039496046 -0.13780124
000080 b2 c9 cc bd 81 a8 76 3e 3d a4 79 bd f2 d6 37 bd
       -0.09999408 0.24087717 -0.060947645 -0.044882722
000090 35 39 8c 3d 9c f5 43 bd 22 8f 8e 3e 4f 22 1c 3e
       0.06846849 -0.047841653 0.27843577 0.15247463
0000a0 95 ba b8 bd 33 51 81 3e 1a 2e 4a be 7d 09 12 be
       -0.09019963 0.25257263 -0.19744149 -0.14261432
0000b0 eb eb 93 3e fd ed 6c 3c c7 a3 26 bd 27 dd 8b 3e
       0.2889093 0.014461038 -0.040683534 0.27317163
0000c0 c3 a6 66 bd 0f 00 ab bd 39 71 8b be 60 7b 45 bd
       -0.05631138 -0.083496206 -0.2723482 -0.048213363
0000d0 38 ae af 3e ce b9 82 bd 68 51 98 3d 94 60 80 bd
       0.34312606 -0.06383096 0.07437402 -0.06268421
0000e0 5f 62 0b bd 79 1b 2e 3e c7 42 28 be 57 8a 65 3c
       -0.03402936 0.17002667 -0.16431724 0.014010034
0000f0 54 77 d2 bd b7 d1 fa bc 95 a3 b7 bc aa 2d 19 bd
       -0.10276666 -0.030617578 -0.02241687 -0.037397064

bias_rho f4 [64]
000000 ba 03 e0 c0 5d 66 e0 c0 88 da e9 c0 54 1b e6 c0
       -7.000455 -7.0124955 -7.307926 -7.190836
000010 05 46 e5 c0 b1 ec df c0 df 95 dc c0 b2 0f db c0
       -7.1647973 -6.997643 -6.893295 -6.845666
000020 ad 1f e3 c0 0e 5d e1 c0 91 7b df c0 0d 3f f1 c0
       -7.0976167 -7.042609 -6.983834 -7.5389466
000030 44 7d df c0 6f 7d e2 c0 4e 7c e3 c0 6a 86 e0 c0
       -6.984041 -7.0778117 -7.108924 -7.016408
000040 93 d9 e4 c0 4f dd e3 c0 24 64 e9 c0 02 7c de c0
       -7.1515594 -7.120765 -7.293474 -6.9526377
000050 3a 06 e6 c0 d3 e0 df c0 21 bf e9 c0 f1 75 dd c0
       -7.18826 -6.9961944 -7.304581 -6.920647
000060 75 8b e1 c0 ef f1 e8 c0 04 b6 e7 c0 e8 03 e1 c0
       -7.0482736 -7.279533 -7.2409687 -7.031727
000070 a3 40 e4 c0 3b 0c e1 c0 65 8e e6 c0 57 0f df c0
       -7.13289 -7.032743 -7.204882 -6.9706225
000080 76 57 df c0 62 df e2 c0 07 ec e0 c0 e4 32 df c0
       -6.9794264 -7.0897684 -7.028812 -6.974962
000090 73 a4 e2 c0 a6 ff e2 c0 56 a1 e5 c0 e6 80 e4 c0
       -7.0825744 -7.093707 -7.1759443 -7.1407347
0000a0 29 4d da c0 5b 8b da c0 28 17 e1 c0 61 9c dd c0
       -6.821919 -6.829511 -7.0340767 -6.925339
0000b0 a1 c6 e3 c0 a7 2b e4 c0 5a 08 e2 c0 6e 60 e6 c0
       -7.1179967 -7.1303287 -7.0635195 -7.199271
0000c0 e7 0d dd c0 92 09 e1 c0 7b 87 e3 c0 ac 36 e3 c0
       -6.907947 -7.0324183 -7.110288 -7.100424
0000d0 a5 65 e3 c0 bf 75 d8 c0 de 2d df c0 d8 58 dd c0
       -7.106158 -6.7643733 -6.974349 -6.917095
0000e0 15 b4 e0 c0 f9 34 e0 c0 da 03 dd c0 89 cb dd c0
       -7.0219827 -7.0064664 -6.90672 -6.9310956
0000f0 7c bb db c0 05 01 e0 c0 ad 33 e9 c0 db d0 da c0
       -6.8666363 -7.0001245 -7.287558 -6.837995

mu f4 [64, 3, 1]
000000 1e 02 97 bd ab 8f cb 3a b9 2c 16 3e 64 e7 26 be
       -0.07373451 0.0015530487 0.14665498 -0.16299206
000010 dd c9 10 be d8 4b 1f 3d 88 9f 55 3d 7d e5 98 be
       -0.14139505 0.03889069 0.052154094 -0.29862586
000020 28 2b 67 be b2 79 62 3e be b3 a1 bd 0b ec ad be
       -0.22575057 0.22116736 -0.07895611 -0.3396915
000030 32 97 d8 3d 54 d2 8f bd 4c 76 33 bd 77 eb 2e be
       0.10575713 -0.07022539 -0.04381399 -0.1708201
000040 f2 bf c1 bd 77 81 a5 bd fa b9 4a be c7 c3 19 3d
       -0.09460439 -0.08081334 -0.19797507 0.037540223
000050 8d b4 6f bd 46 89 7b 3e f6 09 70 bb 33 07 16 be
       -0.058521796 0.24564084 -0.003662703 -0.14651184
000060 e2 c1 91 3d 30 9f f0 bc c9 04 0d 3f 87 ad 4f be
       0.07117058 -0.029372782 0.55085427 -0.20281039
000070 ab e1 40 3c 93 26 cd 3d 3e 03 eb bd 48 38 45 3e
       0.011772553 0.10017123 -0.11475228 0.19259751
000080 8c 48 1c be 59 02 a0 3b 76 45 c4 3d 94 c1 ca be
       -0.1526205 0.0048830924 0.09583561 -0.39600813
000090 b8 0c da be 2a 16 60 be 29 6e 8e be 8d ef 85 be
       -0.4258783 -0.21883455 -0.2781842 -0.26159325
0000a0 52 98 08 be aa cb 78 3b 88 b4 5b bd 7a 61 28 bc
       -0.13339356 0.003796319 -0.053638965 -0.0102771465
0000b0 a7 98 ff 3c 71 af 60 3d 79 ff 77 3e d6 ab 84 3e
       0.03120072 0.054854814 0.24218549 0.2591235
0000c0 15 80 f1 3d 8c 5f cc ba 81 b5 97 be 75 1b 87 be
       0.11792008 -0.001559244 -0.29630664 -0.26388136
0000d0 3f dd 3c 3c 7b 6c 85 bd 1a 78 5a 3d ac 16 01 3e
       0.011527359 -0.06514832 0.053337194 0.12606305
0000e0 df 1c a5 be bb 00 84 bc 00 83 f3 bc 07 0a bb 3d
       -0.3224859 -0.01611363 -0.029725552 0.09132772
0000f0 66 46 57 be f4 8a ab bd 43 be 66 3c ec 03 95 bc
       -0.21022949 -0.083761126 0.014083448 -0.018190347
000100 65 99 85 bc 88 47 c7 bd eb 30 67 3d 20 64 ff 3d
       -0.016308496 -0.097304404 0.056443136 0.12470269
000110 d7 50 06 3f 84 c7 e8 b9 71 33 fc 3b 59 0f 1f be
       0.524671 -0.0004439914 0.007696562 -0.15533198
000120 49 8d 0a 3f 50 95 50 bd f1 51 ea be 5c 4a 2d 3e
       0.54121834 -0.050923645 -0.4576564 0.16922897
000130 9d 43 86 3e be bc c8 3e 87 6f 2f bd 67 f5 bd 3d
       0.2622346 0.392065 -0.04283097 0.092753224
000140 ed 85 bc be 55 23 f3 3d 04 b7 95 3c da d4 6e be
       -0.36820927 0.118719734 0.018275745 -0.23323384
000150 c2 41 10 3e 8f f7 14 be 3d 0c a8 bd c3 62 5a be
       0.14087585 -0.14547561 -0.08205459 -0.21326737
000160 fd 44 eb bc 87 b9 ff 3c ef 04 05 be 05 00 1d be
       -0.02871942 0.031216396 -0.12990163 -0.15332039
000170 48 61 f7 bd 58 21 d5 bd 02 22 e3 bc 86 73 39 bd
       -0.12079102 -0.104067504 -0.027726177 -0.045276187
000180 5a 0b d3 bd 36 36 0a be 50 50 ad bc 90 fb 10 3e
       -0.103048995 -0.13497242 -0.02115646 0.14158463
000190 7c 86 07 3c c6 1f a7 be 58 bd dd bb 97 b2 73 bd
       0.00827181 -0.3264143 -0.0067669563 -0.05949649
0001a0 b3 05 f3 bd a9 53 bb bc da 17 93 3d 29 ba bc bd
       -0.118663214 -0.02286704 0.07182284 -0.09215195
0001b0 8c b5 90 3b d6 53 8d bd e2 c8 02 3f 49 c9 a5 3d
       0.0044161733 -0.06900756 0.5108777 0.08095033
0001c0 1b b3 bf be 92 b0 73 bd ac 08 b9 3b d2 da 46 be
       -0.37441334 -0.059494562 0.0056467857 -0.19419411
0001d0 0a 9c 7b be 53 f4 59 be 01 6b 7a be 57 b8 96 be
       -0.24571243 -0.21284609 -0.24454881 -0.29437515
0001e0 10 80 73 be 22 d0 51 3e fa b2 3e bb 04 e9 1b 3e
       -0.2377932 0.20489553 -0.0029098378 0.15225607
0001f0 6e 83 40 3d 2d 7d 86 be dd e2 bb bd 19 ca 89 3d
       0.04700034 -0.26267377 -0.0917413 0.06728
000200 9b 61 26 bd c5 be f5 bc ce 32 35 3d 13 6f 2f be
       -0.040620428 -0.029998193 0.044237904 -0.17132215
000210 80 e6 97 3c b2 06 42 bd d1 22 9f be a8 71 eb 3e
       0.018542528 -0.047369666 -0.3108125 0.4598515
000220 f7 c6 fe 3d cd 24 e6 be 41 c1 80 bd 14 9e 85 bd
       0.12440293 -0.44949952 -0.0628686 -0.06524292
000230 89 42 77 3d 58 57 0c bf c5 44 c6 be 46 fd 4b be
       0.060366187 -0.54820776 -0.38724342 -0.19920835
000240 38 22 18 bd 24 e5 6b be 5e 8a 81 3d 83 fc fa bc
       -0.03714201 -0.23036629 0.063252196 -0.030637985
000250 52 5b 3d bd 3e e7 40 be 90 83 7f bd a8 10 c2 bd
       -0.046229668 -0.18838212 -0.062381327 -0.09475833
000260 2b ec 35 bd af 70 05 be 53 38 b0 3d 9f 94 ec bd
       -0.04441468 -0.13031267 0.08604493 -0.11551785
000270 59 0d 08 bc b1 10 69 be e2 d8 8e be 03 d7 89 3d
       -0.008303964 -0.22760274 -0.27899843 0.06730463
000280 19 09 97 be c8 87 c8 3b e2 ef f6 bd 94 72 b5 be
       -0.29499128 0.006119702 -0.12057473 -0.3543898
000290 ce 4c 48 be e1 81 83 be 43 5e e5 bc 48 8c 46 3d
       -0.19560549 -0.25685027 -0.027999049 0.048473626
0002a0 4d 4f 2f be 20 dd 9f bd 12 f9 56 3d 18 77 f3 3d
       -0.17120095 -0.07805848 0.052483626 0.1188795
0002b0 0f 7c 89 3d e6 9c ad be 72 f2 10 3c 70 13 64 3d
       0.067131154 -0.33908767 0.008846866 0.0556826
0002c0 3b a4 a8 bd 17 a6 16 be 3e f4 41 be 9a 45 b5 bd
       -0.082344495 -0.14711796 -0.18940827 -0.08851166
0002d0 93 a3 f2 bd 43 87 ff 3d 97 91 36 be c8 38 50 be
       -0.118476056 0.12476971 -0.17828976 -0.2033416
0002e0 df 91 0a bd bd c8 a9 bd 5d a1 15 3e de fc 5c 3e
       -0.03383052 -0.08290241 0.14612336 0.21580836
0002f0 6a 05 df 3e 7e 52 0b bd ee 6e c3 bd 9e 0b 29 be
       0.43558818 -0.034014218 -0.095426425 -0.16508338

rho f4 [64, 3, 1]
000000 2c c7 df c0 49 1a df c0 90 45 e5 c0 6d 2a e4 c0
       -6.993063 -6.9719586 -7.1647415 -7.130179
000010 5b 03 e2 c0 26 14 dd c0 c2 dc e1 c0 cb a5 da c0
       -7.0629096 -6.9087095 -7.058198 -6.8327384
000020 61 b7 e1 c0 d1 ee df c0 69 d0 e0 c0 f9 fb e1 c0
       -7.053635 -6.9979024 -7.0254407 -7.0620084
000030 2e 7c dc c0 8b 39 e1 c0 c5 78 e0 c0 88 1e df c0
       -6.8901587 -7.0382743 -7.0147424 -6.972477
000040 d0 30 dc c0 fb 38 e2 c0 fb 3e e6 c0 bc e4 e7 c0
       -6.8809586 -7.0694556 -7.195188 -7.2466717
000050 75 d3 e2 c0 d8 53 da c0 6a 26 e7 c0 4d 97 e4 c0
       -7.0883126 -6.822735 -7.223439 -7.1434693
000060 f5 80 e6 c0 b1 28 e1 c0 1f 0a e0 c0 0b 46 dd c0
       -7.203242 -7.036217 -7.0012355 -6.9148
000070 23 77 e0 c0 c4 77 de c0 bd 88 df c0 46 92 dc c0
       -7.014543 -6.95212 -6.9854417 -6.8928556
000080 74 d8 e2 c0 78 e5 d5 c0 ed af db c0 38 ad d5 c0
       -7.0889225 -6.6842613 -6.8652253 -6.677395
000090 fe 54 e1 c0 60 ce e0 c0 70 fa d6 c0 8a 32 e1 c0
       -7.041625 -7.0251923 -6.718071 -7.0374193
0000a0 83 26 da c0 4a 1d e3 c0 9e be df c0 82 bc dd c0
       -6.817201 -7.0973253 -6.9920187 -6.929261
0000b0 21 08 dd c0 4d ff e5 c0 88 fa ee c0 37 01 df c0
       -6.9072423 -7.1874146 -7.4680824 -6.9688983
0000c0 ad b1 e0 c0 d2 17 df c0 a6 43 db c0 e5 48 e6 c0
       -7.021689 -6.9716578 -6.852008 -7.1963983
0000d0 12 53 df c0 b3 58 df c0 78 d7 d6 c0 63 21 e1 c0
       -6.9788904 -6.9795775 -6.7138023 -7.0353255
0000e0 c2 3f e7 c0 9b 9a e0 c0 63 ef dc c0 7f e9 df c0
       -7.226533 -7.0188727 -6.904222 -6.997253
0000f0 f2 fa e0 c0 6f e5 db c0 e0 7b de c0 ad 02 db c0
       -7.030633 -6.871757 -6.9526215 -6.8440766
000100 5f 0c da c0 8c ed e2 c0 12 d6 e6 c0 6f 13 e0 c0
       -6.81401 -7.0914974 -7.2136316 -7.0023723
000110 da 33 db c0 e1 23 dd c0 18 1f e4 c0 fc 0a e0 c0
       -6.8500795 -6.9106297 -7.1287956 -7.001341
000120 d7 5c e2 c0 7f 0b e0 c0 a4 a0 e6 c0 e2 6e db c0
       -7.073833 -7.0014033 -7.2071095 -6.8572855
000130 55 3c db c0 31 ba e1 c0 a6 37 d9 c0 fc 8d d9 c0
       -6.8511147 -7.0539784 -6.788043 -6.798582
000140 20 12 ee c0 23 57 d9 c0 e7 6c db c0 16 6f dc c0
       -7.4397125 -6.791887 -6.8570437 -6.8885603
000150 73 f7 dd c0 ec 54 e1 c0 be 4a e0 c0 b0 91 e5 c0
       -6.936456 -7.0416164 -7.009124 -7.174034
000160 69 8b dc c0 4c 39 e1 c0 99 eb e2 c0 62 4f de c0
       -6.892018 -7.0382442 -7.0912595 -6.9471903
000170 a6 0a e0 c0 04 98 dd c0 10 65 e2 c0 a7 68 e3 c0
       -7.0013 -6.9248066 -7.0748367 -7.106525
000180 d3 38 e1 c0 a2 bd dd c0 53 5e e6 c0 8b 26 eb c0
       -7.0381866 -6.9293985 -7.199014 -7.348455
000190 7b 5e e7 c0 11 43 e2 c0 91 9c e0 c0 ea 35 de c0
       -7.2302833 -7.070687 -7.019112 -6.9440813
0001a0 7d a5 dc c0 28 73 e2 c0 ab ec e1 c0 77 3d e1 c0
       -6.895201 -7.076557 -7.06014 -7.038753
0001b0 53 7e e5 c0 6f 8a e8 c0 40 dc e5 c0 12 89 df c0
       -7.1716704 -7.2668986 -7.183136 -6.985482
0001c0 1e 37 e5 c0 1a af d9 c0 16 bc da c0 20 31 e0 c0
       -7.162978 -6.8026247 -6.8354597 -7.0059967
0001d0 46 70 de c0 a5 0b e0 c0 d5 53 e7 c0 fe a0 e4 c0
       -6.9512053 -7.0014215 -7.2289834 -7.1446524
0001e0 9d 66 d9 c0 c0 17 dd c0 57 2a e0 c0 fd 5c d3 c0
       -6.793776 -6.909149 -7.0051684 -6.605101
0001f0 68 3a de c0 4b 81 e3 c0 c4 79 e1 c0 4d fb e1 c0
       -6.9446297 -7.109533 -7.046114 -7.0619264
000200 d9 78 e0 c0 f4 34 de c0 f6 f9 e2 c0 80 6e df c0
       -7.014752 -6.943964 -7.093013 -6.982239
000210 37 d3 ec c0 b5 5a e2 c0 80 05 e6 c0 b5 16 e3 c0
       -7.400783 -7.0735726 -7.1881714 -7.096522
000220 6c a0 e6 c0 b4 43 db c0 21 c2 df c0 0e 32 e2 c0
       -7.2070827 -6.8520145 -6.9924474 -7.06861
000230 71 1d df c0 0a 63 dd c0 0d 4f e3 c0 d1 e7 df c0
       -6.972344 -6.9183397 -7.1033998 -6.997048
000240 49 8f e2 c0 c9 17 e0 c0 3d 85 e0 c0 6f 35 e6 c0
       -7.079991 -7.0029035 -7.0162644 -7.1940227
000250 1c 58 e2 c0 0f 06 db c0 c6 7e e3 c0 ea 07 dc c0
       -7.0732555 -6.8444896 -7.1092253 -6.875966
000260 ab 8e df c0 83 c0 e1 c0 c9 8d df c0 1d 0e e6 c0
       -6.9861655 -7.05475 -6.9860578 -7.189223
000270 3b 5d dd c0 07 81 e3 c0 e1 7e d9 c0 e2 ac dc c0
       -6.9176307 -7.1095004 -6.796738 -6.896104
000280 0c 25 de c0 8a af e3 c0 8e f1 e3 c0 08 7a df c0
       -6.9420223 -7.115178 -7.1232367 -6.9836464
000290 ea 09 df c0 e3 00 e8 c0 f0 1b e4 c0 39 07 dc c0
       -6.96996 -7.2501082 -7.1284103 -6.8758817
0002a0 33 08 de c0 55 69 df c0 78 9c e2 c0 7c d1 e2 c0
       -6.938501 -6.981608 -7.0816 -7.088072
0002b0 80 01 e1 c0 77 d4 e6 c0 0e e5 dc c0 40 ac e1 c0
       -7.031433 -7.2134356 -6.902961 -7.0522766
0002c0 2e 79 de c0 40 e0 df c0 3a e0 dd c0 04 d2 d8 c0
       -6.9522924 -6.9961243 -6.9336214 -6.7756367
0002d0 38 a5 e0 c0 a2 7b de c0 a2 d4 e3 c0 62 fa de c0
       -7.0201683 -6.952592 -7.119706 -6.9680643
0002e0 55 e0 e1 c0 73 9b df c0 c4 38 e4 c0 dc 0d e3 c0
       -7.0586343 -6.9877257 -7.1319294 -7.095442
0002f0 e0 58 e2 c0 40 a4 da c0 62 aa da c0 68 4d e0 c0
       -7.073349 -6.83255 -6.8332987 -7.009449

eps_w f4 [64, 3, 1]
000000 3e 8e ae 3e 62 d1 14 3f 99 48 e1 bf 2c c5 bd be
       0.34092897 0.5813199 -1.760028 -0.37064493
000010 a3 02 8c bf 16 78 05 3e 6b 90 84 bf 08 8a 36 c0
       -1.0938305 0.1303409 -1.0356573 -2.8521748
000020 79 e2 ed bf d6 1e 02 c0 c3 db 8c 3f b6 63 0a 3f
       -1.8584739 -2.033132 1.1004566 0.54058397
000030 8c b7 84 3f c9 d0 00 40 b4 f5 42 3f c0 df f2 bf
       1.0368514 2.0127432 0.76156163 -1.8974533
000040 03 dd 07 40 d6 ba 1e bb 5a d2 72 be 72 b5 fd 3e
       2.1228645 -0.002422025 -0.23713055 0.49552494
000050 5c 26 99 3f ff 97 6d bf d0 a3 39 3f 5a 06 46 bf
       1.1964831 -0.9281005 0.72515583 -0.7735344
000060 de f7 6d 3f 25 86 2c bf 24 89 4f 3f a1 81 85 3f
       0.9295634 -0.6739219 0.81068635 1.0430185
000070 a0 8e 62 3f cd b7 95 3e d7 bc 29 40 d3 e6 bb 3d
       0.8849888 0.2924179 2.6521509 0.091748856
000080 01 d2 13 3e 3b 61 2d 40 65 55 a5 bf 01 21 da bf
       0.14435579 2.7090595 -1.2916685 -1.7041322
000090 58 54 5c bf 8d 3f ad 3e 0e 56 58 3f 6e 75 ad 3e
       -0.860662 0.33837548 0.8450631 0.33878654
0000a0 8b 66 bf 3f 8f 11 f9 be 25 b5 b7 bf 97 97 a5 bf
       1.4953169 -0.4864621 -1.4352156 -1.2936887
0000b0 b7 e6 86 3f 8c a1 8b bf c2 82 e9 3f 38 a9 8d bc
       1.0539159 -1.0908675 1.8243029 -0.017292604
0000c0 c9 09 c2 be c8 cd 72 bf 8f da 13 bf d2 65 ff be
       -0.3789809 -0.9484525 -0.5775537 -0.4988237
0000d0 3a c4 a6 bf 3a b0 b8 3f 1f 88 9c be 2f e4 94 3c
       -1.3028634 1.442878 -0.30572602 0.018175213
0000e0 0c 31 4b be 5a d1 02 3e a4 f1 a5 3e af 50 b0 bb
       -0.19842929 0.12775174 0.3241092 -0.005380712
0000f0 60 15 19 c0 57 db 01 3e f8 4a 91 3e 62 a0 4c 3f
       -2.3919296 0.12681328 0.2837751 0.79932225
000100 6b 42 65 bf ad da 7e bf 24 66 ba 3e 5b 86 df bf
       -0.8955447 -0.9955242 0.36406052 -1.7462877
000110 7e 89 92 3f 8d 7d d6 3f e7 50 a3 bf 1d 99 80 be
       1.1448209 1.6757065 -1.2759064 -0.25116816
000120 5d e9 a8 bf 66 b5 a8 bf 97 90 0a 3f 5e 6d 0c bf
       -1.3196217 -1.3180358 0.54126877 -0.5485438
000130 85 3a d4 3f 92 e0 7d be af 29 0e bf 0b a2 35 bf
       1.6580359 -0.24792698 -0.55532354 -0.7095038
000140 bc 6b af 3e f3 be f5 be 8a 8a bb 3f 6d b6 0d c0
       0.34261882 -0.47997245 1.4651654 -2.2142594
000150 e2 45 e1 3f ee d5 4c bf 88 64 d8 3f 77 c5 c2 be
       1.7599452 -0.8001393 1.690568 -0.3804128
000160 55 5d 07 3d a0 88 0f bf 2d f4 4c 3e 3d 3d 82 be
       0.033047993 -0.5606785 0.2001502 -0.25437346
000170 89 84 6e 3e cb b6 6c 3f 60 3c 64 3d 68 bb c9 bf
       0.23292746 0.9246642 0.05572164 -1.5760317
000180 21 6d 0b 3e dc e0 bf bf 3e 95 00 3f 22 f7 0a c0
       0.13615848 -1.4990497 0.50227726 -2.1713338
000190 7e 08 ad bf 32 cc 1d bf ff a5 b2 3f 5a 71 4c 3f
       -1.3518217 -0.616397 1.3956908 0.7986046
0001a0 9d 58 18 bf d3 d9 46 bf d7 b4 d7 3f 1c 42 ee 3e
       -0.59510213 -0.77676123 1.6852063 0.46534812
0001b0 9a 7d 08 3f b6 32 8a 3d 17 b8 a8 bf dd 77 0f bf
       0.5331665 0.067479536 -1.318118 -0.5604227
0001c0 d8 07 94 3f a1 e5 04 bf cd 4a 53 3f 4c 60 00 40
       1.1564894 -0.51912886 0.8253601 2.0058775
0001d0 f7 47 ad bb 60 13 63 be f4 7a fe bf 6a ea 75 3e
       -0.00528812 -0.2217536 -1.9881272 0.24015203
0001e0 d9 9b 2b 3f dd d4 1c 3f 70 e0 87 be de 0c 4d bf
       0.6703468 0.61262304 -0.2653842 -0.8009776
0001f0 20 15 6f 3f 26 7f fc bc 8a 9d 3f 3f 11 59 e2 be
       0.9339161 -0.030822348 0.7484976 -0.44208577
000200 ba 11 dc be 54 a7 7b 3f 91 34 44 bf bf f3 a0 3f
       -0.42982274 0.983022 -0.7664271 1.2574385
000210 15 54 21 3f 57 6b 81 3e 89 d3 8c bf 86 72 63 be
       0.63018924 0.25277206 -1.1002055 -0.22211656
000220 56 c5 fb be 03 6e 99 3f aa f9 c2 3e 7e 23 90 bf
       -0.49173993 1.1986698 0.38081104 -1.1260831
000230 68 43 e5 3e ba 5d 2b 3f 02 a6 16 bf e6 5e 0c 3f
       0.4477799 0.6693989 -0.5884706 0.54832304
000240 8f 31 ac bd 7b cd 56 bf 2c d7 2b bf 9f 12 00 bf
       -0.0840789 -0.8390729 -0.671252 -0.50028414
000250 46 75 86 bd ba fc 8e bf ef 4d 4d 3f 73 a1 18 be
       -0.06565337 -1.1170876 0.8019704 -0.14905338
000260 8e 68 e9 bf fc bb 73 bf 20 37 d9 3e 38 99 00 40
       -1.8235033 -0.95208716 0.4242487 2.0093517
000270 ad fd ff 3e c7 6b 5d 3d b8 5b 65 bf 98 3a 6b bf
       0.49998227 0.054057863 -0.89593077 -0.9188628
000280 f6 df 5d be e0 c8 b4 3f 83 6a 1a bf 2e e5 34 3e
       -0.21667466 1.4123802 -0.60318774 0.1766555
000290 f2 0e db 3e 56 8e c4 3f bf 6f c9 bf 86 a5 eb 3e
       0.4278484 1.5355937 -1.5737227 0.46024722
0002a0 73 44 7f bf 86 6e 71 3f a8 ca aa be 30 c8 13 40
       -0.9971382 0.9430927 -0.3335774 2.3090935
0002b0 3a f6 92 bd b0 f4 4e bf 9e 35 05 bf 75 31 f6 3e
       -0.0717587 -0.80842113 -0.5203494 0.48084608
0002c0 0f 56 f0 bf df b5 90 3f 03 f0 cc 3e 22 f7 81 3f
       -1.8776263 1.1305503 0.40026864 1.0153544
0002d0 99 f8 9e bf f9 36 c6 bf 46 f5 c8 3d cf 26 09 40
       -1.2419616 -1.5485526 0.09812407 2.1429937
0002e0 b7 51 dd be 5a 6d 9c bf 7d b2 24 40 4c 76 72 3f
       -0.43226406 -1.2220871 2.573394 0.94711757
0002f0 52 5b cb bf 78 14 e8 be f1 fb 08 bf 2f 83 88 3f
       -1.5887244 -0.45328116 -0.5350943 1.0665034

sigma f4 [64, 3, 1]
000000 14 99 70 3a 28 ba 75 3a 85 a8 4a 3a 42 c8 51 3a
       0.0009178084 0.0009373748 0.00077308 0.0008002558
000010 97 5f 60 3a b2 e1 82 3a c0 6e 61 3a ec 34 8d 3a
       0.0008559166 0.0009985475 0.0008599572 0.0010773218
000020 8f 76 62 3a dd 6f 6f 3a a6 ef 68 3a 5c 93 60 3a
       0.00086388824 0.00091337954 0.0008885808 0.000856688
000030 bc 54 85 3a 94 f7 65 3a be 70 6b 3a 94 99 75 3a
       0.0010172348 0.0008772549 0.00089813385 0.0009368893
000040 0c 90 86 3a fa e8 5e 3a 53 95 44 3a dc b8 3a 3a
       0.0010266318 0.0008503344 0.00074990577 0.0007122883
000050 6e bf 5a 3a 29 a0 8e 3a fb 1b 3f 3a 83 03 4f 3a
       0.0008344565 0.0010881472 0.0007290241 0.00078969466
000060 ca 01 43 3a c1 70 66 3a fd a3 6e 3a 58 16 82 3a
       0.0007438926 0.00087906054 0.00091034157 0.0009924872
000070 c0 7c 6b 3a 00 a6 7a 3a 13 70 72 3a da f8 84 3a
       0.0008983128 0.0009561479 0.0009248268 0.0010144964
000080 4d 9d 5a 3a 87 cb a3 3a 07 b2 88 3a 42 ec a4 3a
       0.00083394797 0.0012496569 0.0010429033 0.0012582617
000090 bc 32 65 3a 74 fe 68 3a 61 5a 9e 3a ea 29 66 3a
       0.0008743217 0.0008888014 0.0012081378 0.00087800494
0000a0 a7 6a 8f 3a 33 c9 58 3a 67 d9 70 3a 75 38 80 3a
       0.0010941819 0.0008269727 0.0009187669 0.000978245
0000b0 dd 12 83 3a e5 1d 46 3a b7 a5 15 3a e1 7a 76 3a
       0.0010000129 0.0007557555 0.00057085924 0.00094024657
0000c0 b1 cf 69 3a 14 cd 75 3a 63 83 8a 3a 7b 58 44 3a
       0.0008919193 0.00093765673 0.0010567721 0.0007489991
0000d0 d1 07 74 3a ed dc 73 3a b0 07 9f 3a 5b a5 66 3a
       0.0009309026 0.0009302635 0.0012133028 0.00087984436
0000e0 ea 84 3e 3a 6b 78 6a 3a 50 78 83 3a a9 97 6f 3a
       0.00072677305 0.0008944335 0.0010030363 0.00091397256
0000f0 f6 ba 67 3a 52 ce 87 3a d6 85 7a 3a 97 9d 8b 3a
       0.000883981 0.0010361171 0.0009556686 0.0010651824
000100 ef df 8f 3a 71 0d 5a 3a fd fd 40 3a 9c 5e 6e 3a
       0.0010976772 0.0008318043 0.0007362066 0.00090930774
000110 ca c7 8a 3a 73 a1 82 3a 92 12 52 3a 8e 9d 6e 3a
       0.0010588106 0.0009966329 0.00080136315 0.0009102457
000120 d6 ef 5d 3a be 99 6e 3a 28 41 42 3a d5 c8 89 3a
       0.00084662193 0.0009101889 0.0007410222 0.0010512123
000130 0d a3 8a 3a ac 62 62 3a 55 a8 93 3a 44 1c 92 3a
       0.0010577157 0.0008635919 0.0011265377 0.001114734
000140 cd f3 19 3a 65 17 93 3a 5c d1 89 3a 4f 8b 85 3a
       0.0005872816 0.0011222182 0.0010514664 0.0010188612
000150 7f 9a 7e 3a 3c 33 65 3a 30 c4 6c 3a d4 c8 48 3a
       0.0009712353 0.0008743291 0.000903192 0.000765932
000160 5e 15 85 3a 59 f9 65 3a b8 1a 5a 3a f0 e2 7b 3a
       0.0010153463 0.00087728124 0.00083200214 0.00096087065
000170 0f a0 6e 3a ef ca 80 3a dd b6 5d 3a 32 cd 56 3a
       0.000910283 0.0009826104 0.000845773 0.00081940286
000180 be fc 65 3a f4 33 80 3a 36 d5 43 3a 6f a8 28 3a
       0.0008773318 0.0009781108 0.00074704306 0.000643379
000190 68 ce 3d 3a cb a2 5e 3a 0e 6a 6a 3a a1 ab 7c 3a
       0.0007240535 0.0008492886 0.0008942195 0.0009638612
0001a0 24 a9 84 3a 56 55 5d 3a d2 fe 60 3a 6a db 65 3a
       0.0010121209 0.0008443197 0.0008582893 0.0008768352
0001b0 6c 42 49 3a 0a fc 36 3a 49 f7 46 3a 8f 6d 72 3a
       0.0007677439 0.0006980306 0.0007589949 0.0009247893
0001c0 0c 04 4b 3a 71 85 91 3a bc d2 8c 3a f1 81 6d 3a
       0.00077444385 0.0011102391 0.0010743956 0.00090601953
0001d0 af e0 7a 3a a2 98 6e 3a 96 0d 3e 3a e0 c4 4e 3a
       0.00095702236 0.00091017236 0.0007249949 0.0007887613
0001e0 5d d0 92 3a fa d2 82 3a 4c b4 6d 3a 6a 47 b1 3a
       0.0011201013 0.0009981089 0.0009067699 0.0013525311
0001f0 30 88 7c 3a 1d 28 56 3a 0d 2c 64 3a 13 98 60 3a
       0.00096333306 0.00081694295 0.0008704074 0.00085675827
000200 2b 70 6b 3a 36 b3 7c 3a f3 b8 59 3a 16 37 73 3a
       0.0008981253 0.00096397416 0.00083054526 0.0009277923
000210 dc 0f 20 3a a0 fe 5d 3a 8c f7 45 3a ca f5 58 3a
       0.0006105879 0.0008468423 0.0007551841 0.00082763715
000220 7c 42 42 3a 26 83 8a 3a fd be 70 3a 3a 19 5f 3a
       0.00074104196 0.001056765 0.0009183733 0.0008510534
000230 f0 a1 75 3a bc a0 81 3a 3f 79 57 3a 3c a4 6f 3a
       0.0009370139 0.0009889822 0.0008219666 0.00091415993
000240 32 93 5c 3a 38 3e 6e 3a 1d 15 6b 3a fc cf 44 3a
       0.0008414268 0.0009088251 0.00089676847 0.0007507799
000250 a4 10 5e 3a d7 8e 8b 3a f8 38 56 3a 5e 3c 87 3a
       0.00084711076 0.0010647428 0.0008171941 0.0010317673
000260 2f 43 72 3a fe 35 62 3a de 49 72 3a 4f c2 45 3a
       0.00092415785 0.0008629261 0.00092425745 0.0007543908
000270 43 b8 81 3a e3 29 56 3a 43 61 92 3a 84 8a 84 3a
       0.0009896833 0.0008169694 0.0011167902 0.0010112082
000280 e2 30 7d 3a 9d f3 54 3a 3d 3e 53 3a 8b df 72 3a
       0.0009658468 0.00081234594 0.00080582855 0.0009264878
000290 f0 37 76 3a ee 14 3a 3a 49 27 52 3a 4a 3f 87 3a
       0.00093924906 0.00070984557 0.0008016718 0.0010318544
0002a0 6d 15 7e 3a 5c 5e 73 3a 6e 38 5c 3a e9 cc 5a 3a
       0.0009692524 0.0009283775 0.00084007427 0.0008346574
0002b0 88 8b 67 3a ab 07 41 3a c5 a2 83 3a 57 c5 62 3a
       0.00088327425 0.00073635083 0.0010043016 0.0008650622
0002c0 ee 9a 7a 3a e6 dc 6f 3a 6e 53 7f 3a f2 7f 95 3a
       0.00095598295 0.0009150043 0.000973991 0.0011405929
0002d0 bd 2a 6a 3a bb 87 7a 3a 6b fd 53 3a 7f af 76 3a
       0.000893276 0.00095569686 0.00080867735 0.0009410306
0002e0 95 55 61 3a 8b e2 71 3a 60 6a 51 3a c9 31 59 3a
       0.00085958216 0.0009227178 0.00079885684 0.00082853116
0002f0 54 0b 5e 3a ba 3b 8d 3a af 20 8d 3a 7d b0 6c 3a
       0.0008470316 0.0010775246 0.0010767187 0.00090289844

w f4 [64, 3, 1]
000000 10 5e 96 bd fc 7d 09 3b 0a c8 14 3e 25 35 27 be
       -0.0734216 0.0020979634 0.14529434 -0.16328867
000010 4a bf 11 be 51 d4 1f 3d a6 f9 51 3d 3c 78 9a be
       -0.14233127 0.03902084 0.051263474 -0.30169857
000020 08 d0 68 be e3 92 60 3e 12 b3 9f bd 58 af ad be
       -0.22735608 0.21931033 -0.07797827 -0.3392284
000030 2c c0 da 3d 99 34 8c bd 16 a9 30 bd 7b bd 30 be
       0.10681185 -0.0684597 -0.043130003 -0.17259781
000040 50 49 bd bd 8b 82 a5 bd 98 e8 4a be e1 35 1b 3d
       -0.09242499 -0.0808154 -0.1981529 0.03789318
000050 a4 9d 6b bd 88 80 7a 3e 96 64 4d bb 55 a7 16 be
       -0.057523385 0.24463093 -0.0031340471 -0.1471227
000060 6d 2c 93 3d 94 79 f5 bc 27 35 0d 3f 29 9e 4e be
       0.07186208 -0.0299652 0.5515923 -0.20177521
000070 20 e8 4d 3c 2a b9 cd 3d 47 fd e5 bd ae 50 45 3e
       0.01256755 0.10045083 -0.112299494 0.19269058
000080 fd 28 1c be 8c 78 07 3c 33 83 c1 3d a1 da cb be
       -0.15250011 0.008268487 0.094488524 -0.39815238
000090 5a 6f da be 53 c7 5f be 58 e8 8d be 90 c8 85 be
       -0.4266308 -0.2185338 -0.27716327 -0.2612958
0000a0 6a eb 06 be 58 6e 5e 3b 37 1b 61 bd 8e 1d 3d bc
       -0.13175741 0.0033940282 -0.054957595 -0.011542691
0000b0 74 1d 04 3d f7 4e 5d 3d 7a 10 79 3e b4 a9 84 3e
       0.03225465 0.054030385 0.24322692 0.25910723
0000c0 dd ce f0 3d 22 78 20 bb 81 05 98 be 6e 4c 87 be
       0.11758206 -0.0024485667 -0.296917 -0.264255
0000d0 3b fe 28 3c c0 ac 82 bd 25 f3 58 3d dd 1a 01 3e
       0.0103145195 -0.06380606 0.052966256 0.12607904
0000e0 c6 2f a5 be 19 11 83 bc 3b d9 f0 bc 73 07 bb 3d
       -0.3226301 -0.015999364 -0.029400459 0.0913228
0000f0 ae 70 59 be 11 46 ab bd bc 2f 6b 3c 5b 0a 8e bc
       -0.2123439 -0.083629735 0.0143546425 -0.017338922
000100 ef a6 8d bc af f9 c8 bd f6 49 68 3d 9a 23 fc 3d
       -0.017291514 -0.09813248 0.05671116 0.12311478
000110 47 a0 06 3f 2d b4 a0 3a 64 b2 da 3b 48 4b 1f be
       0.52588314 0.0012260728 0.006674098 -0.15556061
000120 11 44 0a 3f 40 7f 55 bd 5f 1d ea be 33 b3 2c 3e
       0.5401011 -0.05212331 -0.45725533 0.16865234
000130 7a 29 87 3e ae a0 c8 3e 82 ff 31 bd bd 56 bc 3d
       0.26398832 0.3918509 -0.043456562 0.091962315
000140 8d 6b bc be ef 08 f2 3d d4 55 a2 3c 41 24 71 be
       -0.36800805 0.1181811 0.019816317 -0.23548986
000150 d9 01 12 3e f3 ae 15 be b3 eb a4 bd 25 af 5a be
       0.14258517 -0.14617519 -0.080527686 -0.21355875
000160 9e fe ea bc ff b1 fb 3c 48 d9 04 be 18 40 1d be
       -0.028685864 0.030724524 -0.12973511 -0.15356481
000170 1e f2 f6 bd fc 44 d3 bd 2c bf e2 bc a9 bd 3e bd
       -0.12057899 -0.10315892 -0.027679048 -0.046567593
000180 b9 cc d2 bd 93 b6 0b be 6a 3d aa bc 5a 8d 0f 3e
       -0.10292954 -0.13643865 -0.020781238 0.14018765
000190 46 fa ee 3b 64 64 a7 be e8 d7 b4 bb 74 8b 70 bd
       0.0072930185 -0.3269378 -0.005518902 -0.058726743
0001a0 7c 41 f4 bd 0c b3 c0 bc 2e 0e 96 3d 3c e4 bb bd
       -0.11926553 -0.023522876 0.07326923 -0.091743916
0001b0 4d 1f 9e 3b 24 3b 8d bd 51 87 02 3f 90 b9 a4 3d
       0.0048255087 -0.06896046 0.50987726 0.08043206
0001c0 b6 3d bf be ed 0c 76 bd 62 17 d6 3b 69 fe 44 be
       -0.3735177 -0.06007092 0.006533549 -0.19237675
0001d0 5e 9d 7b be 3c 29 5a be db e4 7b be 83 9f 96 be
       -0.2457175 -0.21304792 -0.2459902 -0.29418573
0001e0 3b bb 72 be 6d 70 52 3e 49 78 4e bb 06 cd 1a 3e
       -0.23704235 0.205507 -0.00315048 0.15117273
0001f0 ce 32 44 3d 7a 80 86 be 4a 8d ba bd 85 03 89 3d
       0.047900014 -0.26269895 -0.0910898 0.066901244
000200 64 f6 27 bd 7e fb ed bc 55 97 32 3d 3f 3d 2e be
       -0.04100646 -0.029050585 0.043601353 -0.17015551
000210 74 0d 9b 3c 3d 26 41 bd b8 8f 9f be 90 59 eb 3e
       0.018927313 -0.047155607 -0.31164336 0.45966768
000220 ea 07 fe 3d c5 7e e5 be e5 09 80 bd 88 94 87 bd
       0.12403853 -0.4482328 -0.06251887 -0.06620127
000230 7e fa 78 3d f5 2b 0c bf 2b 84 c6 be df 79 4b be
       0.060785763 -0.54754573 -0.3877271 -0.19870709
000240 67 6c 18 bd 0b ad 6c be c5 4e 80 3d 35 10 fe bc
       -0.037212756 -0.23112886 0.06265024 -0.031013587
000250 a3 95 3d bd 0a 1f 42 be 5d d4 7c bd 49 61 c2 bd
       -0.046285283 -0.18957153 -0.061725963 -0.09491212
000260 3c d3 3c bd 0e 48 06 be e8 05 b1 3d e3 79 e9 bd
       -0.046099886 -0.13113424 0.08643705 -0.11400201
000270 cf e3 ff bb 1d 05 69 be 07 5c 8f be dd ef 87 3d
       -0.0078091393 -0.22755857 -0.279999 0.06637547
000280 87 24 97 be 61 20 ee 3b b9 ee f7 bd 20 5d b5 be
       -0.29520056 0.0072670435 -0.121060796 -0.3542261
000290 76 e3 47 be 02 f3 82 be 0c b4 ef bc 42 7e 48 3d
       -0.19520363 -0.25576025 -0.029260658 0.048948534
0002a0 a8 4c 30 be 16 12 9e bd 3a d3 55 3d 8e 69 f7 3d
       -0.17216742 -0.07718293 0.052203394 0.1208068
0002b0 d4 5a 89 3d ec ea ad be 8e 62 08 3c 9b c7 65 3d
       0.06706777 -0.33968294 0.0083242785 0.05609856
0002c0 51 51 ac bd ea 96 15 be 0b 8e 41 be 6c e6 b2 bd
       -0.084139474 -0.1460835 -0.18901841 -0.08735356
0002d0 3a e9 f4 bd 58 7f fc 3d ca 7c 36 be 23 28 4e be
       -0.11958547 0.123289764 -0.17821041 -0.20132498
0002e0 7d 17 0c bd f2 17 ac bd 46 bc 17 3e 93 ca 5d 3e
       -0.034202088 -0.08403005 0.14817914 0.21659307
0002f0 08 55 de 3e a4 52 0d bd ff 9c c4 bd 30 0f 28 be
       0.4342425 -0.03450264 -0.09600257 -0.16412044

mu f4 [64]
000000 af 20 f5 bd 35 49 62 bd b3 2b 95 3e 40 e5 29 3e
       -0.119691245 -0.055245597 0.29134902 0.16591358
000010 45 a4 2f be 36 2a 86 bc e3 2e 9b bd 6d b1 06 3e
       -0.17152508 -0.01637755 -0.07577302 0.1315362
000020 12 d7 90 3c d4 c8 56 be ae 48 69 be 27 39 8a 3e
       0.017680679 -0.20975047 -0.22781631 0.2699673
000030 e2 a7 c0 3d 7f 4b 41 bd ff 38 e0 bd 24 fe 88 3d
       0.09407021 -0.04719114 -0.10948371 0.066890985
000040 94 56 84 3e 8f 9a 0a bd 4a 1a 73 3e 35 ad f0 bd
       0.25847304 -0.033838805 0.23740497 -0.117517866
000050 a7 d8 50 bd f2 60 dc bd fb 57 2b 3e 5b 00 1c bb
       -0.050987866 -0.10760678 0.1673278 -0.0023803923
000060 c1 26 63 3d 12 c1 16 3e 70 e0 84 3e 98 06 62 be
       0.05545688 0.14722088 0.25952482 -0.22072828
000070 87 de 30 be 3f fe 39 bd 9b c6 21 bd c5 1b 0d be
       -0.17272387 -0.045408484 -0.039496046 -0.13780124
000080 b2 c9 cc bd 81 a8 76 3e 3d a4 79 bd f2 d6 37 bd
       -0.09999408 0.24087717 -0.060947645 -0.044882722
000090 35 39 8c 3d 9c f5 43 bd 22 8f 8e 3e 4f 22 1c 3e
       0.06846849 -0.047841653 0.27843577 0.15247463
0000a0 95 ba b8 bd 33 51 81 3e 1a 2e 4a be 7d 09 12 be
       -0.09019963 0.25257263 -0.19744149 -0.14261432
0000b0 eb eb 93 3e fd ed 6c 3c c7 a3 26 bd 27 dd 8b 3e
       0.2889093 0.014461038 -0.040683534 0.27317163
0000c0 c3 a6 66 bd 0f 00 ab bd 39 71 8b be 60 7b 45 bd
       -0.05631138 -0.083496206 -0.2723482 -0.048213363
0000d0 38 ae af 3e ce b9 82 bd 68 51 98 3d 94 60 80 bd
       0.34312606 -0.06383096 0.07437402 -0.06268421
0000e0 5f 62 0b bd 79 1b 2e 3e c7 42 28 be 57 8a 65 3c
       -0.03402936 0.17002667 -0.16431724 0.014010034
0000f0 54 77 d2 bd b7 d1 fa bc 95 a3 b7 bc aa 2d 19 bd
       -0.10276666 -0.030617578 -0.02241687 -0.037397064

rho f4 [64]
000000 ba 03 e0 c0 5d 66 e0 c0 88 da e9 c0 54 1b e6 c0
       -7.000455 -7.0124955 -7.307926 -7.190836
000010 05 46 e5 c0 b1 ec df c0 df 95 dc c0 b2 0f db c0
       -7.1647973 -6.997643 -6.893295 -6.845666
000020 ad 1f e3 c0 0e 5d e1 c0 91 7b df c0 0d 3f f1 c0
       -7.0976167 -7.042609 -6.983834 -7.5389466
000030 44 7d df c0 6f 7d e2 c0 4e 7c e3 c0 6a 86 e0 c0
       -6.984041 -7.0778117 -7.108924 -7.016408
000040 93 d9 e4 c0 4f dd e3 c0 24 64 e9 c0 02 7c de c0
       -7.1515594 -7.120765 -7.293474 -6.9526377
000050 3a 06 e6 c0 d3 e0 df c0 21 bf e9 c0 f1 75 dd c0
       -7.18826 -6.9961944 -7.304581 -6.920647
000060 75 8b e1 c0 ef f1 e8 c0 04 b6 e7 c0 e8 03 e1 c0
       -7.0482736 -7.279533 -7.2409687 -7.031727
000070 a3 40 e4 c0 3b 0c e1 c0 65 8e e6 c0 57 0f df c0
       -7.13289 -7.032743 -7.204882 -6.9706225
000080 76 57 df c0 62 df e2 c0 07 ec e0 c0 e4 32 df c0
       -6.9794264 -7.0897684 -7.028812 -6.974962
000090 73 a4 e2 c0 a6 ff e2 c0 56 a1 e5 c0 e6 80 e4 c0
       -7.0825744 -7.093707 -7.1759443 -7.1407347
0000a0 29 4d da c0 5b 8b da c0 28 17 e1 c0 61 9c dd c0
       -6.821919 -6.829511 -7.0340767 -6.925339
0000b0 a1 c6 e3 c0 a7 2b e4 c0 5a 08 e2 c0 6e 60 e6 c0
       -7.1179967 -7.1303287 -7.0635195 -7.199271
0000c0 e7 0d dd c0 92 09 e1 c0 7b 87 e3 c0 ac 36 e3 c0
       -6.907947 -7.0324183 -7.110288 -7.100424
0000d0 a5 65 e3 c0 bf 75 d8 c0 de 2d df c0 d8 58 dd c0
       -7.106158 -6.7643733 -6.974349 -6.917095
0000e0 15 b4 e0 c0 f9 34 e0 c0 da 03 dd c0 89 cb dd c0
       -7.0219827 -7.0064664 -6.90672 -6.9310956
0000f0 7c bb db c0 05 01 e0 c0 ad 33 e9 c0 db d0 da c0
       -6.8666363 -7.0001245 -7.287558 -6.837995

eps_w f4 [64]
000000 da 41 6f bf 73 4b 6c 3f c0 8d b9 bd d4 16 51 3f
       -0.93459857 0.92302626 -0.0906024 0.8167546
000010 da 08 19 3f 2f 42 8a 3e 7a 70 5c 3f 3a 26 96 3f
       0.5977913 0.2700362 0.86109126 1.1730416
000020 7d eb 14 bf fb 33 eb 3f 59 64 16 3d 8e f0 04 c0
       -0.58171827 1.8375238 0.036716793 -2.0771823
000030 24 89 7e bf 31 68 3e bf 16 57 b2 3f db 5d 1c 3f
       -0.9942801 -0.74377733 1.3932827 0.6108071
000040 56 83 58 bf 68 bf b2 3e b7 ae 69 be 49 2c 44 bf
       -0.845754 0.34911656 -0.22820555 -0.76630074
000050 89 0a 6a 3e 88 5d a2 3f e9 15 97 bf 37 10 0d 3f
       0.22855581 1.2684793 -1.1803561 0.55102867
000060 aa 8d 91 3e 8a bd 90 3f dd ac aa 3e 08 0e 2d bf
       0.28428394 1.1307843 0.3333501 -0.67599535
000070 7f 5f 26 40 8c a6 08 c0 0c 48 bd be cc b1 10 bf
       2.5995786 -2.1351652 -0.3696903 -0.56521297
000080 c1 fb b5 be 83 74 6f be db 6c b9 3f 9f 61 09 3f
       -0.35543635 -0.2338429 1.4486345 0.5366458
000090 4f 60 57 3f bd eb 22 bf a4 71 c3 3e 95 05 4f 3f
       0.8413133 -0.6364096 0.38172638 0.8086789
0000a0 35 d6 36 3e f6 c2 0c bf b9 84 49 3f c0 8b 92 bd
       0.17855151 -0.54984987 0.78718144 -0.071555614
0000b0 01 e6 f7 3e b9 3b ca 3f d8 44 8f bf 0e 76 28 c0
       0.48417667 1.5799476 -1.1192884 -2.6322055
0000c0 0f 8b 42 bf 18 21 ed bd 09 46 9e be 53 57 09 c0
       -0.75993437 -0.11578578 -0.30912808 -2.1459548
0000d0 f7 b3 36 3f c9 c3 28 3e 96 1c 26 3f c9 c6 ae 3d
       0.71368355 0.16480936 0.6488737 0.08534009
0000e0 31 d3 67 3f 3d 3d 99 bd 2e 3c 00 3f 7e bd 71 be
       0.9055663 -0.074823834 0.50091827 -0.23607442
0000f0 e2 45 b7 bf 1a 45 7a bc 32 b9 b0 bf b9 bc 2e 3f
       -1.4318202 -0.015275264 -1.3806517 0.6825672

sigma f4 [64]
000000 ac d3 6e 3a 42 f8 6b 3a aa a1 2f 3a bd 70 45 3a
       0.0009110521 0.0009001532 0.000669981 0.0007531753
000010 9f a5 4a 3a c1 7f 6f 3a ea e9 84 3a dd 64 8b 3a
       0.0007730368 0.0009136163 0.0010140513 0.0010634918
000020 0a b9 58 3a 0b f9 64 3a e6 d3 72 3a 95 69 0b 3a
       0.0008267319 0.000873462 0.0009263143 0.0005318162
000030 03 c7 72 3a 53 0e 5d 3a 7e 49 56 3a 7b 0c 6b 3a
       0.00092612224 0.00084326154 0.00081744033 0.00089663983
000040 ad 58 4d 3a 00 c4 53 3a f2 2f 32 3a cc 84 7a 3a
       0.0007833343 0.00080782175 0.00067973055 0.00095565314
000050 0e f3 45 3a 99 d8 6f 3a 43 38 30 3a 4a 54 81 3a
       0.00075511716 0.0009149402 0.0006722251 0.0009867039
000060 18 ae 63 3a 20 b0 34 3a 25 ca 3b 3a 22 7a 67 3a
       0.0008685305 0.00068927 0.0007163606 0.000883015
000070 e8 36 51 3a fa 3d 67 3a 01 b0 42 3a 39 0e 76 3a
       0.0007980899 0.0008821186 0.00074267393 0.00093862746
000080 5c e6 73 3a 00 6e 5a 3a 0a 27 68 3a 95 fd 74 3a
       0.00093040406 0.00083324313 0.0008855915 0.0009345648
000090 8f 01 5c 3a 48 92 59 3a c7 66 48 3a 93 94 4f 3a
       0.0008392566 0.00082996907 0.00076447095 0.00079185626
0000a0 f1 bd 8e 3a b5 a9 8d 3a 1c ef 66 3a 62 b9 80 3a
       0.0010890347 0.0010808023 0.0008809434 0.0009820873
0000b0 3c 5a 54 3a 39 c0 51 3a 96 3c 60 3a 55 c8 43 3a
       0.0008100604 0.00080013607 0.000855395 0.00074685115
0000c0 3d fb 82 3a 32 51 67 3a bc fe 55 3a 94 1d 58 3a
       0.0009993088 0.000882405 0.00081632636 0.00082441536
0000d0 62 e1 56 3a 35 31 97 3a 0a 24 75 3a 0a ca 81 3a
       0.0008197037 0.001153505 0.00093513785 0.0009902131
0000e0 1f be 69 3a 66 65 6d 3a 62 24 83 3a a7 f8 7f 3a
       0.0008916575 0.0009055942 0.001000535 0.000976453
0000f0 b6 80 88 3a de e7 6e 3a 86 3e 33 3a 80 77 8c 3a
       0.0010414335 0.00091135304 0.0006837625 0.0010716766

w f4 [64]
000000 19 df f6 bd fb e1 5e bd be 23 95 3e 83 86 2a 3e
       -0.12054271 -0.05441473 0.29128832 0.16652875
000010 21 2b 2f be d3 24 84 bc 15 65 99 bd 75 f8 07 3e
       -0.17106296 -0.01613084 -0.07489983 0.13278373
000020 7f e6 8c 3c 16 24 55 be c4 3f 69 be 5c a8 89 3e
       0.017199753 -0.20814547 -0.22778231 0.2688626
000030 1b c5 be 3d 29 dd 43 bd df e3 dd bd 48 1d 8a 3d
       0.09314939 -0.047818337 -0.108344786 0.06743866
000040 be ff 83 3e d6 72 09 bd a0 f1 72 3e 27 2d f2 bd
       0.25781053 -0.03355678 0.23724985 -0.118250184
000050 af 23 50 bd 77 00 da bd fa 87 2a 3e 18 bd f0 ba
       -0.05081528 -0.1064462 0.16653433 -0.0018366901
000060 a8 29 64 3d 64 8d 17 3e bd ff 84 3e 12 a3 62 be
       0.05570379 0.1480003 0.25976363 -0.22132519
000070 a8 be 2e be 35 b5 41 bd 80 e6 22 bd d8 a6 0d be
       -0.17064917 -0.047291953 -0.039770603 -0.13833177
000080 14 77 cd bd 6d 75 76 3e 06 63 74 bd 0d c9 35 bd
       -0.10032478 0.24068232 -0.05966475 -0.04438119
000090 65 ab 8d 3d 78 1f 46 bd 62 b5 8e 3e 2d ca 1c 3e
       0.069174565 -0.048369855 0.2787276 0.15311499
0000a0 a3 54 b8 bd 4e 03 81 3e 51 78 49 be e9 1b 12 be
       -0.09000518 0.25197834 -0.19674803 -0.1426846
0000b0 53 1f 94 3e 28 d2 80 3c b8 8f 2a bd 7b db 8a 3e
       0.28930148 0.01572521 -0.041640967 0.27120575
0000c0 0f c3 69 bd a0 35 ab bd 4c 92 8b be 79 ba 4c bd
       -0.057070788 -0.083598375 -0.27260053 -0.04998252
0000d0 e6 fa af 3e 22 56 82 bd 89 8f 99 3d 46 34 80 bd
       0.34371108 -0.06364085 0.0749808 -0.0625997
0000e0 b1 13 08 bd b6 09 2e 3e 65 bf 27 be 7d c3 61 3c
       -0.033221904 0.16995892 -0.16381605 0.013779518
0000f0 1e 85 d5 bd e9 ee fa bc 5f 5f bf bc a4 2e 16 bd
       -0.10425781 -0.0306315 -0.023360906 -0.036665574

weight f4 [1, 9]
000000 b8 7d c9 3d 5d 8c 9f be 3b 76 21 3f 98 54 27 3e
       0.09838432 -0.31161776 0.6307103 0.16340864
000010 00 26 27 be bb a5 67 bd ea c6 d9 3e aa 7b 9f bc
       -0.1632309 -0.056554537 0.42534572 -0.019468147
000020 fa c0 39 be
       -0.18140021
