results/saved_models/df_Oil_seed_2210_model_CNN.pkl (torch, 83799 bytes, 18 tensors)

weight_mu f4 [256, 7, 1]
-0.0035191367 -0.17160486 0.032211863 -0.044902354 -0.03275274 -0.19135371 -0.007940834 0.21116836
0.08698096 0.045762375 -0.07758034 -0.108509585 -0.16589643 -0.03443946 0.23072323 0.014878416
0.016636075 0.039593797 0.09305154 0.2201688 0.29246458 0.059410412 0.18283841 0.22886749
0.017203245 0.02816723 0.10073245 0.12915134 -0.008815276 -0.010275328 -0.13909754 0.1701266
-0.012395462 0.019424137 -0.16547304 0.21577993 0.08999017 0.054897767 0.34677517 0.18927956
0.22474648 0.21923465 -0.051841382 -0.04392419 0.08182371 -0.16204637 -0.1399036 -0.09379119
-0.0042377943 0.07607826 0.094212376 -0.2233234 0.044036333 0.086165085 -0.10591823 -0.09738121
-0.12683475 -0.030167904 0.027444024 -0.0109172035 -0.21244048 -0.0077237487 -0.11271075 -0.0347608
-0.20868547 0.10201384 -0.033693135 -0.23973142 -0.030325152 0.11214439 0.2181739 0.2688815
0.25286195 0.19588268 0.2824136 0.24393025 0.28533757 0.26244327 0.048813425 0.14007217
0.3697794 0.20596194 0.35199207 0.4517482 -0.19483532 -0.08187253 -0.0004926567 0.0026046962
0.0332708 0.04444623 -0.10481077 -0.061053682 0.071635425 0.106239356 0.1988904 0.25219858
0.07761213 0.09461456 -0.11491224 0.028904196 -0.07735415 0.045730602 0.039612923 -0.07878974
0.010324106 -0.0038836624 0.33900958 -0.05230157 -0.029020268 0.33352354 0.20972331 0.18374208
-0.16784354 0.1574761 -0.122526914 -0.121718526 -0.08091531 -0.20814204 -0.14287165 0.090741456
-0.26666048 -0.1050341 -0.041813288 -0.13054582 0.07033176 -0.07595565 -0.9806607 0.079657175
0.840776 -0.4479618 -0.74875844 -0.5161993 0.7329096 -0.031819273 -0.24638966 -0.08547353
-0.07911616 -0.099242024 -0.19092596 -0.20101964 -0.18739451 0.19218741 -0.15592588 -0.044211928
0.04338518 0.024259627 -0.0699877 -0.1312364 -0.17147842 -0.27392942 -0.020288749 -0.0901188
-0.24720706 0.070638 -0.011350782 -0.15855199 0.12677132 0.038977202 -0.15162292 -0.07106694
-0.05782715 0.007884983 0.13488929 0.20895708 0.07037402 0.01979119 0.04614126 -0.25203547
0.08936487 0.052322384 -0.0147083495 -0.07023317 -0.048651427 -0.057288587 0.1551197 -0.09150253
0.15230583 -0.09917714 -0.039414044 -0.12480697 0.02821621 -0.0022354096 -0.10998912 -0.0057311803
-0.21206439 -0.062762454 -0.009645952 -0.037058704 -0.032084424 -0.06444166 -0.24613218 0.055652525
-0.13093531 -0.12116385 0.061534442 -0.24609011 0.07722049 0.3329833 0.2561545 0.30892485
0.12723044 0.18361606 0.20828775 0.004855016 0.24906684 -0.22285642 -0.17627896 -0.24938194
0.12046151 -0.26617718 0.0035877677 0.038329795 -0.013156177 0.018321963 0.017425999 0.084537864
-0.09574379 0.18660621 -0.19015418 0.1268393 0.0834193 0.16569105 0.18567753 0.15229315
-0.15295795 0.047874663 -0.16945201 -0.02226109 -0.15929753 -0.08038547 -0.0374237 0.08967535
0.038374115 0.3700768 0.28209463 0.32904223 0.0106501905 0.27783808 0.026687581 -0.18669304
-0.008625284 -0.17772877 0.02359765 -0.035440408 -0.043298803 0.077549614 0.06661672 0.21389335
0.12625536 0.074463956 0.28351384 0.27350262 -0.14091048 0.07979731 -0.12780945 -0.04255978
00000000: 51a1 66bb 2fb9 2fbe 96f0 033d 88eb 37bd
00000010: bd27 06bd 3af2 43be 461a 02bc 853c 583e
00000020: 1323 b23d 5471 3b3d 71e2 9ebd 463a debd
00000030: c1e0 29be 6410 0dbd b642 6c3e 9ac4 733c
00000040: 6148 883c 1b2d 223d ce91 be3d ee73 613e
00000050: ebbd 953e 5558 733d fe39 3b3e 3d5c 6a3e
00000060: d2ed 8c3c f6be e63c d14c ce3d 4040 043e
00000070: f36d 10bc d959 28bc 966f 0ebe ab35 2e3e
00000080: 5616 4bbc 5e1f 9f3c c471 29be 6af5 5c3e
00000090: c44c b83d 7bdc 603d 848c b13e 80d2 413e
000000a0: f123 663e 0c7f 603e a157 54bd dae9 33bd
000000b0: 3093 a73d 7cef 25be e442 0fbe 9815 c0bd
000000c0: 32dd 8abb ebce 9b3d 6bf2 c03d e4ae 64be
000000d0: 715f 343d 5277 b03d a8eb d8bd cd6f c7bd
000000e0: f8e0 01be ae22 f7bc 4ad2 e03c 12de 32bc
000000f0: ff89 59be 8017 fdbb e5d4 e6bd 5761 0ebd
00000100: a5b1 55be a2ec d03d d001 0abd 277c 75be
00000110: 746c f8bc f5ab e53d fb68 5f3e d6aa 893e
00000120: 1f77 813e 7895 483e 8498 903e dac8 793e
00000130: c417 923e f75e 863e 96f0 473d 146f 0f3e
00000140: ba53 bd3e b0e7 523e 4e38 b43e 8a4b e73e
00000150: e982 47be c9ac a7bd a225 01ba 8db3 2a3b
00000160: f646 083d 400d 363d 07a7 d6bd 6d13 7abd
00000170: 98b5 923d 0594 d93d eda9 4b3e 2c20 813e
00000180: 1cf3 9e3d 47c5 c13d 1c57 ebbd 7ec8 ec3c
00000190: da6b 9ebd 0350 3b3d 2941 223d 845c a1bd
000001a0: 7026 293c 0b85 7ebb aa92 ad3e 2c3a 56bd
000001b0: eabb edbc 99c3 aa3e b5c1 563e e226 3c3e
000001c0: 2ddf 2bbe 6a41 213e 64ef fabd 9047 f9bd
000001d0: edb6 a5bd 3023 55be f24c 12be a8d6 b93d
000001e0: b987 88be 1e1c d7bd 6944 2bbd cead 05be
000001f0: 190a 903d a38e 9bbd 940c 7bbf 4d23 a33d
00000200: 193d 573f 405b e5be a2ae 3fbf a325 04bf
00000210: f79f 3b3f ed54 02bd 924d 7cbe bf0c afbd
00000220: a707 a2bd 673f cbbd 1882 43be 18d8 4dbe
00000230: 59e4 3fbe c7cc 443e 09ab 1fbe 9117 35bd
00000240: a9b4 313d 20bc c63c b655 8fbd d662 06be
00000250: 0a98 2fbe 7a40 8cbe 9734 a6bc 3590 b8bd
00000260: d923 7dbe a8aa 903d a1f8 39bc 745b 22be
00000270: 57d0 013e 8fa6 1f3d 0a43 1bbe 8b8b 91bd
00000280: 29dc 6cbd 0430 013c 6b20 0a3e d8f8 553e
00000290: 4120 903d 2221 a23c 9efe 3c3d cb0a 81be
000002a0: ee04 b73d ff4f 563d 4afb 70bc 69d6 8fbd
000002b0: b846 47bd 70a7 6abd b3d7 1e3e ae65 bbbd
000002c0: 0ff6 1b3e 621d cbbd 9f70 21bd cc9a ffbd
000002d0: ae25 e73c f37f 12bb fa41 e1bd a0cc bbbb
000002e0: 6827 59be 9a89 80bd 0e0a 1ebc deca 17bd
000002f0: f56a 03bd fdf9 83bd 130a 7cbe e7f3 633d
00000300: e813 06be c124 f8bd 8a0b 7c3d 0cff 7bbe
00000310: c725 9e3d c97c aa3e af26 833e 662b 9e3e
00000320: b248 023e d905 3c3e 6249 553e d316 9f3b
00000330: 610b 7f3e 7934 64be 7982 34be fb5d 7fbe
00000340: 86b4 f63d 6048 88be c120 6b3b b4ff 1c3d
00000350: 018d 57bc f117 963c f8c0 8e3c 3022 ad3d
00000360: 5215 c4bd b315 3f3e c7b7 42be 29e2 013e
00000370: bdd7 aa3d eaaa 293e 4022 3e3e bcf2 1b3e
00000380: 02a1 1cbe 3918 443d d484 2dbe e45c b6bc
00000390: e41e 23be 23a1 a4bd 9849 19bd b6a7 b73d
000003a0: 2d2e 1d3d b57a bd3e b56e 903e 3978 a83e
000003b0: 237e 2e3c cb40 8e3e ea9f da3c 762c 3fbe
000003c0: 1051 0dbc 88fe 35be dc4f c13c f629 11bd
000003d0: 165a 31bd 55d2 9e3d 596e 883d dc06 5b3e
000003e0: 1649 013e 8f80 983d ba28 913e 8908 8c3e
000003f0: d64a 10be c66c a33d 7be0 02be 2a53 2ebd

weight_rho f4 [256, 7, 1]
-6.9976735 -6.8333626 -6.977119 -7.0958195 -6.972657 -6.8759537 -7.073615 -6.975916
-6.976948 -7.1752605 -7.094913 -7.020579 -6.914723 -7.028018 -7.091102 -7.041104
-6.8649335 -7.2596993 -6.9478893 -6.9417996 -6.876698 -6.935524 -7.2624974 -7.0236917
-6.971392 -6.926168 -6.8279486 -6.870923 -7.0436916 -6.9167013 -7.0178714 -6.997342
-7.0187454 -6.993324 -6.8751273 -6.9614224 -6.761279 -7.0203753 -6.484661 -7.2591553
-7.009219 -6.9212737 -7.00046 -7.1534944 -7.0450983 -6.9427643 -6.9945173 -7.07976
-6.9613667 -7.1021385 -6.903611 -6.8690896 -6.8706856 -6.9811096 -6.884613 -7.035333
-6.9175787 -6.74693 -6.810791 -7.022601 -7.0282607 -6.892274 -6.9138756 -6.976522
-7.0601826 -6.903277 -6.9800863 -7.0821657 -6.9874687 -6.8916583 -7.0315566 -7.2065434
-7.038227 -7.1948776 -7.263283 -6.977283 -7.1821074 -7.324528 -7.365485 -7.024133
-6.9529405 -6.8592606 -6.8135242 -7.122883 -7.0620446 -7.122921 -7.0706778 -6.9690156
-6.9773808 -7.1070046 -6.9988017 -6.976511 -7.1215963 -7.2907243 -6.9308968 -6.8716197
-6.4960203 -6.9690433 -6.893477 -6.986342 -6.9582763 -7.002319 -6.9909563 -7.1687455
-7.1642694 -7.12684 -6.863801 -7.015322 -7.1440444 -6.9439983 -6.9403033 -6.6600003
-7.1450777 -6.966967 -6.968412 -7.1479816 -6.9928885 -6.970644 -6.673463 -6.9678698
-6.690053 -6.4889646 -7.0881257 -7.1126313 -6.822832 -6.767021 -7.0078344 -7.1189203
-7.0693173 -6.913014 -7.3099346 -7.1037445 -6.881224 -7.0794306 -7.001345 -6.8207164
-6.923301 -7.0993876 -6.927648 -6.9264393 -7.1236567 -7.0351505 -7.032665 -6.9889183
-6.9094386 -7.165326 -7.0485477 -6.9403076 -7.065106 -6.939427 -6.9455776 -7.0968127
-7.0111136 -6.9546447 -7.1643043 -6.914735 -7.069433 -7.0123873 -6.9333806 -6.986687
-7.1481376 -7.2460184 -7.012658 -7.088158 -7.160762 -7.0506797 -6.931087 -6.9995313
-7.0690923 -7.115183 -6.9968896 -7.044313 -7.060994 -6.9220304 -6.896276 -6.951219
-6.924444 -6.9043193 -6.8930597 -7.1953607 -7.147202 -6.895348 -7.0372386 -6.9028563
-6.911912 -6.762765 -6.7187176 -7.0038137 -6.957031 -6.784903 -6.774643 -7.01493
-7.1806006 -7.1150184 -6.8929462 -7.169514 -6.9886494 -7.108959 -7.4538603 -6.936798
-7.371729 -7.189958 -6.9024186 -7.03001 -6.994493 -7.068059 -7.015548 -7.138146
-6.892758 -6.9866467 -7.294549 -7.0071363 -6.9596205 -7.181915 -6.7184186 -6.9652534
-7.056775 -6.7113237 -6.7557173 -7.140309 -6.8795495 -6.9205537 -6.9763436 -6.7847614
-7.1253114 -6.9421225 -6.889878 -6.967043 -7.0559607 -7.0400553 -7.132343 -7.3221936
-6.9714775 -7.029369 -7.4978156 -6.5629215 -7.11499 -7.1831603 -6.781343 -7.0123835
-7.002103 -6.9388165 -6.920609 -6.7956963 -6.9255643 -6.6982937 -6.7903557 -7.142984
-6.854475 -7.0660067 -7.2928495 -7.089779 -6.780665 -7.0068197 -6.805675 -7.018436
00000000: f1ec dfc0 e8aa dac0 8f44 dfc0 f410 e3c0
00000010: 0220 dfc0 d007 dcc0 0e5b e2c0 b43a dfc0
00000020: 2843 dfc0 bc9b e5c0 8709 e3c0 95a8 e0c0
00000030: 6945 ddc0 86e5 e0c0 4fea e2c0 b950 e1c0
00000040: 89ad dbc0 754f e8c0 1c55 dec0 3923 dec0
00000050: e90d dcc0 d0ef ddc0 6166 e8c0 15c2 e0c0
00000060: a515 dfc0 2ba3 ddc0 8e7e dac0 9ade dbc0
00000070: ec65 e1c0 9e55 ddc0 6792 e0c0 3aea dfc0
00000080: 9099 e0c0 4fc9 dfc0 0b01 dcc0 f9c3 dec0
00000090: 665c d8c0 eaa6 e0c0 5882 cfc0 004b e8c0
000000a0: 864b e0c0 137b ddc0 c503 e0c0 6de9 e4c0
000000b0: 7271 e1c0 202b dec0 16d3 dfc0 658d e2c0
000000c0: 84c3 dec0 b844 e3c0 62ea dcc0 95cf dbc0
000000d0: a8dc dbc0 4065 dfc0 c04e dcc0 7321 e1c0
000000e0: ce5c ddc0 dae6 d7c0 00f2 d9c0 26b9 e0c0
000000f0: 83e7 e0c0 828d dcc0 783e ddc0 ab3f dfc0
00000100: 04ed e1c0 a5e7 dcc0 de5c dfc0 1aa1 e2c0
00000110: 5899 dfc0 7788 dcc0 8302 e1c0 019c e6c0
00000120: 2839 e1c0 703c e6c0 d06c e8c0 e745 dfc0
00000130: d3d3 e5c0 8962 eac0 0eb2 ebc0 b3c5 e0c0
00000140: 7d7e dec0 107f dbc0 6408 dac0 a8ee e3c0
00000150: 45fc e1c0 f8ee e3c0 fe42 e2c0 2d02 dfc0
00000160: b446 dfc0 956c e3c0 2ff6 dfc0 943f dfc0
00000170: 1ee4 e3c0 9d4d e9c0 e8c9 ddc0 4fe4 dbc0
00000180: 66df cfc0 6702 dfc0 5d97 dcc0 1d90 dfc0
00000190: 33aa dec0 ff12 e0c0 eab5 dfc0 5d66 e5c0
000001a0: b241 e5c0 130f e4c0 42a4 dbc0 857d e0c0
000001b0: 039c e4c0 3c35 dec0 f716 dec0 b91e d5c0
000001c0: 7aa4 e4c0 65f1 dec0 3bfd dec0 44bc e4c0
000001d0: bec5 dfc0 840f dfc0 028d d5c0 caf8 dec0
000001e0: ea14 d6c0 99a5 cfc0 edd1 e2c0 ad9a e3c0
000001f0: a454 dac0 708b d8c0 2e40 e0c0 32ce e3c0
00000200: d937 e2c0 6937 ddc0 fcea e9c0 e051 e3c0
00000210: fd32 dcc0 b28a e2c0 050b e0c0 4f43 dac0
00000220: af8b ddc0 2f2e e3c0 4baf ddc0 64a5 ddc0
00000230: fff4 e3c0 f41f e1c0 970b e1c0 38a5 dfc0
00000240: 1f1a ddc0 5a4a e5c0 b48d e1c0 0017 dec0
00000250: 5915 e2c0 c90f dec0 2c42 dec0 1719 e3c0
00000260: 0b5b e0c0 738c dec0 fb41 e5c0 8245 ddc0
00000270: cc38 e2c0 7a65 e0c0 41de ddc0 f192 dfc0
00000280: 8bbd e4c0 62df e7c0 b267 e0c0 31d2 e2c0
00000290: f624 e5c0 2b9f e1c0 77cb ddc0 29fc dfc0
000002a0: 0136 e2c0 94af e3c0 85e6 dfc0 036b e1c0
000002b0: aaf3 e1c0 4681 ddc0 4bae dcc0 6370 dec0
000002c0: 0c95 ddc0 2ff0 dcc0 f293 dcc0 6540 e6c0
000002d0: e1b5 e4c0 b1a6 dcc0 0f31 e1c0 33e4 dcc0
000002e0: 622e ddc0 9268 d8c0 bcff d6c0 3e1f e0c0
000002f0: ff9f dec0 ed1d d9c0 e0c9 d8c0 4e7a e0c0
00000300: 7bc7 e5c0 3bae e3c0 0493 dcc0 a96c e5c0
00000310: 04a3 dfc0 987c e3c0 0686 eec0 40fa ddc0
00000320: 34e5 ebc0 2314 e6c0 9de0 dcc0 d8f5 e0c0
00000330: e3d2 dfc0 8a2d e2c0 5f7f e0c0 b16b e4c0
00000340: 7991 dcc0 9c92 dfc0 f26c e9c0 763a e0c0
00000350: 36b5 dec0 3fd2 e5c0 49fd d6c0 5be3 dec0
00000360: 1ad1 e1c0 2ac3 d6c0 d62e d8c0 697d e4c0
00000370: 4525 dcc0 2d75 ddc0 353e dfc0 c41c d9c0
00000380: 8d02 e4c0 de25 dec0 e179 dcc0 04f2 dec0
00000390: 6eca e1c0 2248 e1c0 273c e4c0 694f eac0
000003a0: 5816 dfc0 97f0 e0c0 1bee efc0 7403 d2c0
000003b0: 00ae e3c0 73dc e5c0 c300 d9c0 7265 e0c0
000003c0: 3a11 e0c0 c90a dec0 a175 ddc0 5876 d9c0
000003d0: 399e ddc0 6c58 d6c0 984a d9c0 5393 e4c0
000003e0: dc57 dbc0 ba1c e2c0 065f e9c0 78df e2c0
000003f0: 35fb d8c0 de37 e0c0 17c8 d9c0 0797 e0c0

bias_mu f4 [256]
-0.071705855 -0.122785114 -0.20642917 -0.026286118 0.03375071 0.07341703 0.06881991 -0.12779689
-0.009667929 -0.06938099 -0.21333277 -0.18242449 -0.080489784 0.01959702 -0.18420805 -0.15596767
0.085298724 -0.27278283 -0.19002765 0.15496616 -0.1409652 0.13983884 -0.08632156 0.13096328
-0.27516717 -0.10516293 -0.09302615 0.2505586 -0.2062661 0.095373586 -0.20772745 0.06623626
-0.026511451 -0.17100345 -0.02133929 0.06725668 -0.0791771 -0.12676686 0.19478156 0.060754146
-0.33648735 0.16205727 0.13784905 -0.23715687 -0.13091312 -0.06522819 -0.014932803 -0.1342219
0.04738456 -0.20675588 0.30125692 -0.20499133 0.09453933 -0.04785783 -0.1784255 -0.1057626
-0.237129 -0.07359299 -0.026570559 -0.086545385 0.050545007 -0.108326115 -0.13324983 -0.17357118
0.088888854 -0.07479456 0.07563232 -0.10502412 0.048839767 -0.03324326 -0.030939328 -0.09200779
-0.15604636 -0.00861517 0.11534679 0.08403413 -0.05360661 -0.08448731 -0.16126922 -0.009134587
-0.0789608 0.059121523 -0.0018404603 -0.122895144 0.026438123 0.1587798 -0.11139027 -0.1585482
-0.039401293 0.18895975 -0.0014735796 0.1774743 -0.18423514 -0.047088865 -0.08423867 -0.20108034
0.018992022 -0.19496055 0.22024687 -0.052422088 -0.19732487 0.033829816 -0.20626587 -0.020720677
-0.09067748 0.17008686 -0.20249932 -0.046045106 0.102291286 -0.29775444 -0.0054127127 -0.040233154
-0.12414395 0.05134884 -0.04162705 0.016602252 -0.13925311 0.06139114 -0.09099171 0.025893323
-0.2301321 0.15563782 -0.06329623 -0.03280353 0.14280975 -0.072459385 -0.031229343 0.14385678
-0.13666241 -0.05257805 0.03824772 -0.04412915 0.031453382 -0.13035934 -0.20171143 -0.069443725
-0.20192997 -0.0017068089 -0.10447188 0.10255485 -0.09086334 -0.13175829 -0.16856374 -0.31776175
-0.13065371 -0.046851348 -0.21043907 -0.17433235 -0.096867524 -0.16849792 -0.06343593 -0.0035296443
0.15349874 0.41104257 -0.003047749 -0.01685973 -0.111898296 -0.03838017 0.08801735 0.17090349
-0.048525237 -0.057641827 -0.1248756 0.16042654 -0.0016985794 -0.10809114 -0.042211413 -0.2512821
-0.05099652 0.113696076 -0.045869723 0.19162957 -0.0022152406 -0.020238256 0.02955011 -0.02017378
0.114757985 0.18437082 0.0041890834 0.28603122 -0.06828307 0.03416676 0.16622289 -0.07335213
-0.20472041 0.21277326 -0.27514407 0.15074244 -0.23348919 -0.16863191 -0.0847334 -0.034863967
-0.10001172 -0.12430674 -0.06165899 -0.14465517 -0.15620878 -0.04126636 -0.1708434 -0.06205118
-0.08240438 -0.11474196 -0.19983765 0.042411003 0.03412948 -0.036859058 -0.0067361314 -0.06438583
-0.077486284 -0.022670645 -0.13086127 -0.14704192 -0.054929078 -0.14468716 -0.18124297 -0.019799735
0.07524004 0.047357485 -0.0004895717 -0.21118866 0.10761685 0.29997462 -0.10883858 0.0741144
-0.15493266 -0.22053958 0.11788984 -0.12626329 -0.22798227 -0.07583037 0.10339078 -0.16319788
-0.072336644 0.12150228 -0.1102332 -0.18917646 -0.026310131 -0.13652004 0.18053652 0.19359024
-0.26516196 0.15322353 -0.066087715 -0.039100006 -0.13023658 -0.08133232 -0.14272955 -0.13394928
0.17924154 -0.047273125 -0.052424457 -0.10209539 -0.11327709 0.047209248 -0.09883882 0.101521514
00000000: 85da 92bd c376 fbbd 2b62 53be fc55 d7bc
00000010: 2f3e 0a3d ab5b 963d 74f1 8c3d 30dd 02be
00000020: 3c66 1ebc 9f17 8ebd e873 5abe 7ccd 3abe
00000030: d4d7 a4bd ee89 a03c 09a1 3cbe fdb5 1fbe
00000040: 19b1 ae3d 31aa 8bbe 9c96 42be 73af 1e3e
00000050: 2e59 10be ea31 0f3e 5cc9 b0bd 3d1b 063e
00000060: b6e2 8cbe aa5f d7bd 7e84 bebd 3849 803e
00000070: 6c37 53be 3a53 c33d 81b6 54be e0a6 873d
00000080: 8b2e d9bc 871b 2fbe bccf aebc dfbd 893d
00000090: 9a27 a2bd 2ccf 01be d174 473e 57d9 783d
000000a0: 1248 acbe 57f2 253e 4d28 0d3e 40d9 72be
000000b0: 170e 06be 5b96 85bd b7a8 74bc 7771 09be
000000c0: 5016 423d d0b7 53be 593e 9a3e 3fe9 51be
000000d0: d69d c13d 9206 44bd 2db5 36be 109a d8bd
000000e0: f2d1 72be ecb7 96bd 80aa d9bc b53e b1bd
000000f0: 4808 4f3d 15da ddbd a572 08be a5bc 31be
00000100: 5c0b b63d e42d 99bd 1ee5 9a3d e316 d7bd
00000110: 350c 483d 162a 08bd 7974 fdbc 956e bcbd
00000120: 9eca 1fbe a426 0dbc f03a ec3d 161a ac3d
00000130: 9b92 5bbd af07 adbd c223 25be 3ca9 15bc
00000140: 33b6 a1bd 6929 723d 9a3b f1ba 73b0 fbbd
00000150: c394 d83c 2c97 223e 9520 e4bd 765a 22be
00000160: 4063 21bd aa7e 413e 2025 c1ba d3bb 353e
00000170: 23a8 3cbe 41e0 40bd 5385 acbd 01e8 4dbe
00000180: 2895 9b3c bda3 47be 6588 613e 8bb8 56bd
00000190: 880f 4abe 2291 0a3d 5c37 53be 69be a9bc
000001a0: 1db5 b9bd 402b 2e3e fb5b 4fbe cb99 3cbd
000001b0: 187e d13d 4573 98be 205d b1bb 85cb 24bd
000001c0: 2f3f febd 2953 523d 2081 2abd 7201 883c
000001d0: 5e98 0ebe 4775 7b3d dd59 babd 3c1e d43c
000001e0: c0a7 6bbe 855f 1f3e 74a1 81bd ff5c 06bd
000001f0: b83c 123e 9665 94bd aed4 ffbc 314f 133e
00000200: 3bf1 0bbe 155c 57bd a4a9 1c3d c5c0 34bd
00000210: 43d5 003d eb7c 05be 718d 4ebe 8338 8ebd
00000220: bbc6 4ebe 01b7 dfba 5af5 d5bd 4708 d23d
00000230: 8f16 babd a5eb 06be f99b 2cbe abb1 a2be
00000240: 16ca 05be 33e7 3fbd 577d 57be 2e84 32be
00000250: 7b62 c6bd b88a 2cbe b2ea 81bd 9b51 67bb
00000260: c62e 1d3e 2c74 d23e bebc 47bb 6b1d 8abc
00000270: ef2a e5bd 8634 1dbd 7142 b43d 5301 2f3e
00000280: 66c2 46bd d619 6cbd c7be ffbd db46 243e
00000290: dea2 deba e35e ddbd e0e5 2cbd 0ca8 80be
000002a0: bae1 50bd 7dd9 e83d e4e1 3bbd 8b3a 443e
000002b0: 922d 11bb b3ca a5bc 1313 f23c 7c43 a5bc
000002c0: 3c06 eb3d b4cb 3c3e 9444 893b af72 923e
000002d0: ffd7 8bbd 72f2 0b3d 5536 2a3e a439 96bd
000002e0: 3aa2 51be 3ce1 593e afdf 8cbe 3a5c 1a3e
000002f0: ca17 6fbe d8ad 2cbe b488 adbd 85cd 0ebd
00000300: f2d2 ccbd 8894 febd 238e 7cbd 7c20 14be
00000310: 32f5 1fbe ea06 29bd 92f1 2ebe 6129 7ebd
00000320: a1c3 a8bd d5fd eabd 3ea2 4cbe 29b7 2d3d
00000330: 5bcb 0b3d 86f9 16bd c4ba dcbb b8dc 83bd
00000340: 21b1 9ebd cab7 b9bc 7f00 06be 2892 16be
00000350: 50fd 60bd df28 14be c297 39be 0e33 a2bc
00000360: 7317 9a3d ecf9 413d 9a56 00ba d741 58be
00000370: 3966 dc3d 4696 993e c3e6 debd 4ac9 973d
00000380: aba6 1ebe 21d5 61be 3a70 f13d 2a4b 01be
00000390: 2f74 69be f44c 9bbd 8cbe d33d 581d 27be
000003a0: 3c25 94bd 30d6 f83d f2c1 e1bd 79b7 41be
000003b0: 5888 d7bc e9cb 0bbe 91de 383e 853c 463e
000003c0: 4fc3 87be a1e6 1c3e ff58 87bd 5427 20bd
000003d0: bd5c 05be 8f91 a6bd b227 12be 002a 09be
000003e0: 188b 373e 77a1 41bd 07bb 56bd 6317 d1bd
000003f0: d2fd e7bd 7c5e 413d 026c cabd 83ea cf3d

bias_rho f4 [256]
-6.927528 -7.026764 -6.9130282 -6.8850408 -7.039591 -6.866384 -6.95117 -7.074301
-7.0652094 -7.0312676 -6.632644 -7.097751 -6.7912493 -7.1649246 -6.874534 -6.778963
-6.7577276 -6.7605457 -7.057465 -6.964803 -6.928893 -6.964895 -6.8570843 -7.2334695
-7.0057397 -7.1559863 -7.0396433 -6.907746 -7.0193143 -6.792172 -7.1215177 -7.035729
-7.1655574 -7.0619063 -6.9539843 -7.1066833 -6.9327154 -6.99159 -7.018995 -6.9415646
-6.7962813 -6.716038 -7.305688 -7.2640715 -6.838428 -6.834593 -6.9999104 -6.8598886
-7.018201 -7.5082464 -6.8885326 -6.9349217 -6.9089994 -6.8918924 -7.000033 -7.2568755
-6.865972 -7.161574 -7.1858907 -6.9899206 -7.053698 -6.9581423 -6.887408 -7.197046
-7.2434874 -7.0699825 -6.8451133 -7.0275493 -7.106259 -7.1849737 -7.1095695 -7.1202173
-7.3040185 -7.033011 -7.158492 -6.939448 -6.6883054 -7.033465 -6.8534923 -6.8358617
-6.9943476 -7.1049714 -6.9171896 -7.0588417 -7.1179543 -7.0524726 -6.9739537 -7.023324
-6.4863367 -6.8398194 -6.684994 -6.8355007 -6.9115543 -6.9024563 -6.982832 -6.79665
-6.8924894 -7.00427 -7.076413 -7.475652 -7.074583 -7.057433 -7.2769237 -7.3730297
-7.0546885 -7.0729675 -7.0684667 -6.5685496 -6.878662 -6.963329 -7.241476 -7.2838836
-7.0217314 -6.790007 -6.9312263 -7.1347218 -6.9289646 -7.100824 -6.9916587 -7.0959034
-6.6757483 -7.140239 -7.0303683 -7.111039 -7.0067215 -6.999501 -6.869118 -6.735743
-7.0677505 -7.252401 -7.022052 -7.0896406 -7.235286 -6.9636726 -7.0220366 -7.0589347
-7.1160975 -6.788346 -6.951849 -6.9232707 -7.01083 -7.159204 -6.9349737 -7.03927
-6.9023705 -7.2665567 -7.3699546 -7.2095313 -6.9535284 -6.9436526 -7.068021 -7.040544
-7.1727767 -6.616783 -6.8645225 -6.956121 -7.1887107 -7.1704707 -6.9074717 -7.3992553
-7.1141653 -7.017295 -6.9419456 -7.098131 -7.0473127 -7.06841 -6.7846117 -6.915532
-6.9256377 -6.917649 -7.161633 -7.080461 -7.253183 -6.9967523 -7.0762105 -7.4291315
-6.8774295 -6.9300165 -7.1051707 -7.269265 -6.93578 -7.073284 -6.8360405 -6.7967744
-7.0647974 -7.3342643 -7.2502084 -6.9513264 -6.8821683 -7.0793977 -7.0229554 -6.6945367
-7.1079493 -6.9881253 -7.0943136 -6.8964543 -7.085982 -6.4542336 -6.9311213 -7.238445
-7.334073 -6.9273 -6.8753657 -7.1270657 -7.0626583 -6.629209 -7.182788 -6.9568067
-6.8245583 -6.9633904 -7.169897 -6.8892756 -7.1030364 -6.9332075 -7.2336125 -7.002903
-6.8424044 -6.965498 -6.8958 -6.9766097 -6.897059 -7.1775045 -6.9207726 -6.8793883
-6.8487663 -7.1755896 -6.985509 -6.955199 -7.207163 -6.588142 -7.1265173 -6.980611
-7.0493584 -7.0031633 -7.017286 -7.021509 -7.015368 -6.931495 -6.9445934 -6.933786
-7.165399 -6.9999137 -6.8568773 -6.91081 -7.1213465 -6.9140253 -6.9842534 -7.0553803
-7.0352683 -6.930372 -7.0368724 -6.6221843 -6.9984202 -6.925136 -7.2533784 -6.829084
00000000: 4fae ddc0 40db e0c0 8737 ddc0 4152 dcc0
00000010: 5444 e1c0 6bb9 dbc0 fc6f dec0 ac60 e2c0
00000020: 3216 e2c0 2500 e1c0 9f3e d4c0 c720 e3c0
00000030: ea51 d9c0 1047 e5c0 2ffc dbc0 44ed d8c0
00000040: 4e3f d8c0 6456 d8c0 c1d6 e1c0 abdf dec0
00000050: 7eb9 ddc0 6be0 dec0 3c6d dbc0 9578 e7c0
00000060: 052f e0c0 d7fd e4c0 c244 e1c0 410c ddc0
00000070: 399e e0c0 7959 d9c0 79e3 e3c0 b124 e1c0
00000080: 3f4c e5c0 23fb e1c0 0a87 dec0 f369 e3c0
00000090: ced8 ddc0 1bbb dfc0 9b9b e0c0 4c21 dec0
000000a0: 237b d9c0 c9e9 d6c0 32c8 e9c0 4673 e8c0
000000b0: 67d4 dac0 fcb4 dac0 44ff dfc0 3584 dbc0
000000c0: 1a95 e0c0 8e43 f0c0 dc6e dcc0 e1ea ddc0
000000d0: 8616 ddc0 628a dcc0 4500 e0c0 5338 e8c0
000000e0: 0bb6 dbc0 9d2b e5c0 d1f2 e5c0 6ead dfc0
000000f0: e5b7 e1c0 1aa9 dec0 a565 dcc0 334e e6c0
00000100: a6ca e7c0 4c3d e2c0 2b0b dbc0 afe1 e0c0
00000110: 7966 e3c0 4eeb e5c0 9881 e3c0 d2d8 e3c0
00000120: 85ba e9c0 6d0e e1c0 5e12 e5c0 f50f dec0
00000130: 9906 d6c0 2512 e1c0 cf4f dbc0 61bf dac0
00000140: b2d1 dfc0 ed5b e3c0 9e59 ddc0 08e2 e1c0
00000150: 48c6 e3c0 dbad e1c0 a12a dfc0 12bf e0c0
00000160: 1290 cfc0 cddf dac0 79eb d5c0 6cbc dac0
00000170: 742b ddc0 ece0 dcc0 5c73 dfc0 287e d9c0
00000180: 468f dcc0 fb22 e0c0 fa71 e2c0 8b38 efc0
00000190: fc62 e2c0 7ed6 e1c0 8fdc e8c0 dcef ebc0
000001a0: 02c0 e1c0 c055 e2c0 e130 e2c0 8f31 d2c0
000001b0: 001e dcc0 97d3 dec0 2cba e7c0 9315 e9c0
000001c0: 06b2 e0c0 bd47 d9c0 9bcc ddc0 a44f e4c0
000001d0: 14ba ddc0 f339 e3c0 abbb dfc0 a411 e3c0
000001e0: bb9f d5c0 d67c e4c0 c7f8 e0c0 a28d e3c0
000001f0: 1037 e0c0 eafb dfc0 d1cf dbc0 358b d7c0
00000200: 032b e2c0 ab13 e8c0 a6b4 e0c0 56de e2c0
00000210: 7787 e7c0 68d6 dec0 86b4 e0c0 cbe2 e1c0
00000220: 12b7 e3c0 213a d9c0 8c75 dec0 6f8b ddc0
00000230: b858 e0c0 3318 e5c0 4eeb ddc0 b341 e1c0
00000240: 38e0 dcc0 a287 e8c0 abd6 ebc0 7bb4 e6c0
00000250: 4e83 dec0 6732 dec0 3a2d e2c0 234c e1c0
00000260: 6387 e5c0 b0bc d3c0 2baa dbc0 8b98 dec0
00000270: eb09 e6c0 7f74 e5c0 020a ddc0 b3c6 ecc0
00000280: 3ea7 e3c0 ae8d e0c0 6b24 dec0 e423 e3c0
00000290: 9683 e1c0 6a30 e2c0 8a1b d9c0 0a4c ddc0
000002a0: d39e ddc0 615d ddc0 192c e5c0 2393 e2c0
000002b0: 131a e8c0 65e5 dfc0 5170 e2c0 72bb edc0
000002c0: e713 dcc0 b2c2 ddc0 8f5d e3c0 d29d e8c0
000002d0: e9f1 ddc0 5858 e2c0 d8c0 dac0 2d7f d9c0
000002e0: d212 e2c0 4bb2 eac0 b501 e8c0 4471 dec0
000002f0: b93a dcc0 6d8a e2c0 0dbc e0c0 a539 d6c0
00000300: 5274 e3c0 b99e dfc0 9e04 e3c0 c1af dcc0
00000310: 5dc0 e2c0 1589 cec0 bfcb ddc0 57a1 e7c0
00000320: bab0 eac0 71ac ddc0 ff02 dcc0 ec10 e4c0
00000330: 4c01 e2c0 7b22 d4c0 66d9 e5c0 299e dec0
00000340: c862 dac0 18d4 dec0 cc6f e5c0 f274 dcc0
00000350: 134c e3c0 d6dc ddc0 c179 e7c0 c817 e0c0
00000360: faf4 dac0 5ce5 dec0 65aa dcc0 6340 dfc0
00000370: b5b4 dcc0 1eae e5c0 f876 ddc0 f323 dcc0
00000380: 1829 dbc0 6e9e e5c0 4a89 dfc0 fd90 dec0
00000390: 14a1 e6c0 0fd2 d2c0 6e0c e4c0 2a61 dfc0
000003a0: 5894 e1c0 ea19 e0c0 9b8d e0c0 34b0 e0c0
000003b0: e57d e0c0 cfce ddc0 1c3a dec0 93e1 ddc0
000003c0: f34a e5c0 4bff dfc0 8a6b dbc0 5b25 ddc0
000003d0: 12e2 e3c0 b23f ddc0 017f dfc0 adc5 e1c0
000003e0: eb20 e1c0 9cc5 ddc0 0f2e e1c0 efe8 d3c0
000003f0: 0ff3 dfc0 b79a ddc0 ad1b e8c0 db87 dac0

mu f4 [256, 7, 1]
-0.0035191367 -0.17160486 0.032211863 -0.044902354 -0.03275274 -0.19135371 -0.007940834 0.21116836
0.08698096 0.045762375 -0.07758034 -0.108509585 -0.16589643 -0.03443946 0.23072323 0.014878416
0.016636075 0.039593797 0.09305154 0.2201688 0.29246458 0.059410412 0.18283841 0.22886749
0.017203245 0.02816723 0.10073245 0.12915134 -0.008815276 -0.010275328 -0.13909754 0.1701266
-0.012395462 0.019424137 -0.16547304 0.21577993 0.08999017 0.054897767 0.34677517 0.18927956
0.22474648 0.21923465 -0.051841382 -0.04392419 0.08182371 -0.16204637 -0.1399036 -0.09379119
-0.0042377943 0.07607826 0.094212376 -0.2233234 0.044036333 0.086165085 -0.10591823 -0.09738121
-0.12683475 -0.030167904 0.027444024 -0.0109172035 -0.21244048 -0.0077237487 -0.11271075 -0.0347608
-0.20868547 0.10201384 -0.033693135 -0.23973142 -0.030325152 0.11214439 0.2181739 0.2688815
0.25286195 0.19588268 0.2824136 0.24393025 0.28533757 0.26244327 0.048813425 0.14007217
0.3697794 0.20596194 0.35199207 0.4517482 -0.19483532 -0.08187253 -0.0004926567 0.0026046962
0.0332708 0.04444623 -0.10481077 -0.061053682 0.071635425 0.106239356 0.1988904 0.25219858
0.07761213 0.09461456 -0.11491224 0.028904196 -0.07735415 0.045730602 0.039612923 -0.07878974
0.010324106 -0.0038836624 0.33900958 -0.05230157 -0.029020268 0.33352354 0.20972331 0.18374208
-0.16784354 0.1574761 -0.122526914 -0.121718526 -0.08091531 -0.20814204 -0.14287165 0.090741456
-0.26666048 -0.1050341 -0.041813288 -0.13054582 0.07033176 -0.07595565 -0.9806607 0.079657175
0.840776 -0.4479618 -0.74875844 -0.5161993 0.7329096 -0.031819273 -0.24638966 -0.08547353
-0.07911616 -0.099242024 -0.19092596 -0.20101964 -0.18739451 0.19218741 -0.15592588 -0.044211928
0.04338518 0.024259627 -0.0699877 -0.1312364 -0.17147842 -0.27392942 -0.020288749 -0.0901188
-0.24720706 0.070638 -0.011350782 -0.15855199 0.12677132 0.038977202 -0.15162292 -0.07106694
-0.05782715 0.007884983 0.13488929 0.20895708 0.07037402 0.01979119 0.04614126 -0.25203547
0.08936487 0.052322384 -0.0147083495 -0.07023317 -0.048651427 -0.057288587 0.1551197 -0.09150253
0.15230583 -0.09917714 -0.039414044 -0.12480697 0.02821621 -0.0022354096 -0.10998912 -0.0057311803
-0.21206439 -0.062762454 -0.009645952 -0.037058704 -0.032084424 -0.06444166 -0.24613218 0.055652525
-0.13093531 -0.12116385 0.061534442 -0.24609011 0.07722049 0.3329833 0.2561545 0.30892485
0.12723044 0.18361606 0.20828775 0.004855016 0.24906684 -0.22285642 -0.17627896 -0.24938194
0.12046151 -0.26617718 0.0035877677 0.038329795 -0.013156177 0.018321963 0.017425999 0.084537864
-0.09574379 0.18660621 -0.19015418 0.1268393 0.0834193 0.16569105 0.18567753 0.15229315
-0.15295795 0.047874663 -0.16945201 -0.02226109 -0.15929753 -0.08038547 -0.0374237 0.08967535
0.038374115 0.3700768 0.28209463 0.32904223 0.0106501905 0.27783808 0.026687581 -0.18669304
-0.008625284 -0.17772877 0.02359765 -0.035440408 -0.043298803 0.077549614 0.06661672 0.21389335
0.12625536 0.074463956 0.28351384 0.27350262 -0.14091048 0.07979731 -0.12780945 -0.04255978
00000000: 51a1 66bb 2fb9 2fbe 96f0 033d 88eb 37bd
00000010: bd27 06bd 3af2 43be 461a 02bc 853c 583e
00000020: 1323 b23d 5471 3b3d 71e2 9ebd 463a debd
00000030: c1e0 29be 6410 0dbd b642 6c3e 9ac4 733c
00000040: 6148 883c 1b2d 223d ce91 be3d ee73 613e
00000050: ebbd 953e 5558 733d fe39 3b3e 3d5c 6a3e
00000060: d2ed 8c3c f6be e63c d14c ce3d 4040 043e
00000070: f36d 10bc d959 28bc 966f 0ebe ab35 2e3e
00000080: 5616 4bbc 5e1f 9f3c c471 29be 6af5 5c3e
00000090: c44c b83d 7bdc 603d 848c b13e 80d2 413e
000000a0: f123 663e 0c7f 603e a157 54bd dae9 33bd
000000b0: 3093 a73d 7cef 25be e442 0fbe 9815 c0bd
000000c0: 32dd 8abb ebce 9b3d 6bf2 c03d e4ae 64be
000000d0: 715f 343d 5277 b03d a8eb d8bd cd6f c7bd
000000e0: f8e0 01be ae22 f7bc 4ad2 e03c 12de 32bc
000000f0: ff89 59be 8017 fdbb e5d4 e6bd 5761 0ebd
00000100: a5b1 55be a2ec d03d d001 0abd 277c 75be
00000110: 746c f8bc f5ab e53d fb68 5f3e d6aa 893e
00000120: 1f77 813e 7895 483e 8498 903e dac8 793e
00000130: c417 923e f75e 863e 96f0 473d 146f 0f3e
00000140: ba53 bd3e b0e7 523e 4e38 b43e 8a4b e73e
00000150: e982 47be c9ac a7bd a225 01ba 8db3 2a3b
00000160: f646 083d 400d 363d 07a7 d6bd 6d13 7abd
00000170: 98b5 923d 0594 d93d eda9 4b3e 2c20 813e
00000180: 1cf3 9e3d 47c5 c13d 1c57 ebbd 7ec8 ec3c
00000190: da6b 9ebd 0350 3b3d 2941 223d 845c a1bd
000001a0: 7026 293c 0b85 7ebb aa92 ad3e 2c3a 56bd
000001b0: eabb edbc 99c3 aa3e b5c1 563e e226 3c3e
000001c0: 2ddf 2bbe 6a41 213e 64ef fabd 9047 f9bd
000001d0: edb6 a5bd 3023 55be f24c 12be a8d6 b93d
000001e0: b987 88be 1e1c d7bd 6944 2bbd cead 05be
000001f0: 190a 903d a38e 9bbd 940c 7bbf 4d23 a33d
00000200: 193d 573f 405b e5be a2ae 3fbf a325 04bf
00000210: f79f 3b3f ed54 02bd 924d 7cbe bf0c afbd
00000220: a707 a2bd 673f cbbd 1882 43be 18d8 4dbe
00000230: 59e4 3fbe c7cc 443e 09ab 1fbe 9117 35bd
00000240: a9b4 313d 20bc c63c b655 8fbd d662 06be
00000250: 0a98 2fbe 7a40 8cbe 9734 a6bc 3590 b8bd
00000260: d923 7dbe a8aa 903d a1f8 39bc 745b 22be
00000270: 57d0 013e 8fa6 1f3d 0a43 1bbe 8b8b 91bd
00000280: 29dc 6cbd 0430 013c 6b20 0a3e d8f8 553e
00000290: 4120 903d 2221 a23c 9efe 3c3d cb0a 81be
000002a0: ee04 b73d ff4f 563d 4afb 70bc 69d6 8fbd
000002b0: b846 47bd 70a7 6abd b3d7 1e3e ae65 bbbd
000002c0: 0ff6 1b3e 621d cbbd 9f70 21bd cc9a ffbd
000002d0: ae25 e73c f37f 12bb fa41 e1bd a0cc bbbb
000002e0: 6827 59be 9a89 80bd 0e0a 1ebc deca 17bd
000002f0: f56a 03bd fdf9 83bd 130a 7cbe e7f3 633d
00000300: e813 06be c124 f8bd 8a0b 7c3d 0cff 7bbe
00000310: c725 9e3d c97c aa3e af26 833e 662b 9e3e
00000320: b248 023e d905 3c3e 6249 553e d316 9f3b
00000330: 610b 7f3e 7934 64be 7982 34be fb5d 7fbe
00000340: 86b4 f63d 6048 88be c120 6b3b b4ff 1c3d
00000350: 018d 57bc f117 963c f8c0 8e3c 3022 ad3d
00000360: 5215 c4bd b315 3f3e c7b7 42be 29e2 013e
00000370: bdd7 aa3d eaaa 293e 4022 3e3e bcf2 1b3e
00000380: 02a1 1cbe 3918 443d d484 2dbe e45c b6bc
00000390: e41e 23be 23a1 a4bd 9849 19bd b6a7 b73d
000003a0: 2d2e 1d3d b57a bd3e b56e 903e 3978 a83e
000003b0: 237e 2e3c cb40 8e3e ea9f da3c 762c 3fbe
000003c0: 1051 0dbc 88fe 35be dc4f c13c f629 11bd
000003d0: 165a 31bd 55d2 9e3d 596e 883d dc06 5b3e
000003e0: 1649 013e 8f80 983d ba28 913e 8908 8c3e
000003f0: d64a 10be c66c a33d 7be0 02be 2a53 2ebd

rho f4 [256, 7, 1]
-6.9976735 -6.8333626 -6.977119 -7.0958195 -6.972657 -6.8759537 -7.073615 -6.975916
-6.976948 -7.1752605 -7.094913 -7.020579 -6.914723 -7.028018 -7.091102 -7.041104
-6.8649335 -7.2596993 -6.9478893 -6.9417996 -6.876698 -6.935524 -7.2624974 -7.0236917
-6.971392 -6.926168 -6.8279486 -6.870923 -7.0436916 -6.9167013 -7.0178714 -6.997342
-7.0187454 -6.993324 -6.8751273 -6.9614224 -6.761279 -7.0203753 -6.484661 -7.2591553
-7.009219 -6.9212737 -7.00046 -7.1534944 -7.0450983 -6.9427643 -6.9945173 -7.07976
-6.9613667 -7.1021385 -6.903611 -6.8690896 -6.8706856 -6.9811096 -6.884613 -7.035333
-6.9175787 -6.74693 -6.810791 -7.022601 -7.0282607 -6.892274 -6.9138756 -6.976522
-7.0601826 -6.903277 -6.9800863 -7.0821657 -6.9874687 -6.8916583 -7.0315566 -7.2065434
-7.038227 -7.1948776 -7.263283 -6.977283 -7.1821074 -7.324528 -7.365485 -7.024133
-6.9529405 -6.8592606 -6.8135242 -7.122883 -7.0620446 -7.122921 -7.0706778 -6.9690156
-6.9773808 -7.1070046 -6.9988017 -6.976511 -7.1215963 -7.2907243 -6.9308968 -6.8716197
-6.4960203 -6.9690433 -6.893477 -6.986342 -6.9582763 -7.002319 -6.9909563 -7.1687455
-7.1642694 -7.12684 -6.863801 -7.015322 -7.1440444 -6.9439983 -6.9403033 -6.6600003
-7.1450777 -6.966967 -6.968412 -7.1479816 -6.9928885 -6.970644 -6.673463 -6.9678698
-6.690053 -6.4889646 -7.0881257 -7.1126313 -6.822832 -6.767021 -7.0078344 -7.1189203
-7.0693173 -6.913014 -7.3099346 -7.1037445 -6.881224 -7.0794306 -7.001345 -6.8207164
-6.923301 -7.0993876 -6.927648 -6.9264393 -7.1236567 -7.0351505 -7.032665 -6.9889183
-6.9094386 -7.165326 -7.0485477 -6.9403076 -7.065106 -6.939427 -6.9455776 -7.0968127
-7.0111136 -6.9546447 -7.1643043 -6.914735 -7.069433 -7.0123873 -6.9333806 -6.986687
-7.1481376 -7.2460184 -7.012658 -7.088158 -7.160762 -7.0506797 -6.931087 -6.9995313
-7.0690923 -7.115183 -6.9968896 -7.044313 -7.060994 -6.9220304 -6.896276 -6.951219
-6.924444 -6.9043193 -6.8930597 -7.1953607 -7.147202 -6.895348 -7.0372386 -6.9028563
-6.911912 -6.762765 -6.7187176 -7.0038137 -6.957031 -6.784903 -6.774643 -7.01493
-7.1806006 -7.1150184 -6.8929462 -7.169514 -6.9886494 -7.108959 -7.4538603 -6.936798
-7.371729 -7.189958 -6.9024186 -7.03001 -6.994493 -7.068059 -7.015548 -7.138146
-6.892758 -6.9866467 -7.294549 -7.0071363 -6.9596205 -7.181915 -6.7184186 -6.9652534
-7.056775 -6.7113237 -6.7557173 -7.140309 -6.8795495 -6.9205537 -6.9763436 -6.7847614
-7.1253114 -6.9421225 -6.889878 -6.967043 -7.0559607 -7.0400553 -7.132343 -7.3221936
-6.9714775 -7.029369 -7.4978156 -6.5629215 -7.11499 -7.1831603 -6.781343 -7.0123835
-7.002103 -6.9388165 -6.920609 -6.7956963 -6.9255643 -6.6982937 -6.7903557 -7.142984
-6.854475 -7.0660067 -7.2928495 -7.089779 -6.780665 -7.0068197 -6.805675 -7.018436
00000000: f1ec dfc0 e8aa dac0 8f44 dfc0 f410 e3c0
00000010: 0220 dfc0 d007 dcc0 0e5b e2c0 b43a dfc0
00000020: 2843 dfc0 bc9b e5c0 8709 e3c0 95a8 e0c0
00000030: 6945 ddc0 86e5 e0c0 4fea e2c0 b950 e1c0
00000040: 89ad dbc0 754f e8c0 1c55 dec0 3923 dec0
00000050: e90d dcc0 d0ef ddc0 6166 e8c0 15c2 e0c0
00000060: a515 dfc0 2ba3 ddc0 8e7e dac0 9ade dbc0
00000070: ec65 e1c0 9e55 ddc0 6792 e0c0 3aea dfc0
00000080: 9099 e0c0 4fc9 dfc0 0b01 dcc0 f9c3 dec0
00000090: 665c d8c0 eaa6 e0c0 5882 cfc0 004b e8c0
000000a0: 864b e0c0 137b ddc0 c503 e0c0 6de9 e4c0
000000b0: 7271 e1c0 202b dec0 16d3 dfc0 658d e2c0
000000c0: 84c3 dec0 b844 e3c0 62ea dcc0 95cf dbc0
000000d0: a8dc dbc0 4065 dfc0 c04e dcc0 7321 e1c0
000000e0: ce5c ddc0 dae6 d7c0 00f2 d9c0 26b9 e0c0
000000f0: 83e7 e0c0 828d dcc0 783e ddc0 ab3f dfc0
00000100: 04ed e1c0 a5e7 dcc0 de5c dfc0 1aa1 e2c0
00000110: 5899 dfc0 7788 dcc0 8302 e1c0 019c e6c0
00000120: 2839 e1c0 703c e6c0 d06c e8c0 e745 dfc0
00000130: d3d3 e5c0 8962 eac0 0eb2 ebc0 b3c5 e0c0
00000140: 7d7e dec0 107f dbc0 6408 dac0 a8ee e3c0
00000150: 45fc e1c0 f8ee e3c0 fe42 e2c0 2d02 dfc0
00000160: b446 dfc0 956c e3c0 2ff6 dfc0 943f dfc0
00000170: 1ee4 e3c0 9d4d e9c0 e8c9 ddc0 4fe4 dbc0
00000180: 66df cfc0 6702 dfc0 5d97 dcc0 1d90 dfc0
00000190: 33aa dec0 ff12 e0c0 eab5 dfc0 5d66 e5c0
000001a0: b241 e5c0 130f e4c0 42a4 dbc0 857d e0c0
000001b0: 039c e4c0 3c35 dec0 f716 dec0 b91e d5c0
000001c0: 7aa4 e4c0 65f1 dec0 3bfd dec0 44bc e4c0
000001d0: bec5 dfc0 840f dfc0 028d d5c0 caf8 dec0
000001e0: ea14 d6c0 99a5 cfc0 edd1 e2c0 ad9a e3c0
000001f0: a454 dac0 708b d8c0 2e40 e0c0 32ce e3c0
00000200: d937 e2c0 6937 ddc0 fcea e9c0 e051 e3c0
00000210: fd32 dcc0 b28a e2c0 050b e0c0 4f43 dac0
00000220: af8b ddc0 2f2e e3c0 4baf ddc0 64a5 ddc0
00000230: fff4 e3c0 f41f e1c0 970b e1c0 38a5 dfc0
00000240: 1f1a ddc0 5a4a e5c0 b48d e1c0 0017 dec0
00000250: 5915 e2c0 c90f dec0 2c42 dec0 1719 e3c0
00000260: 0b5b e0c0 738c dec0 fb41 e5c0 8245 ddc0
00000270: cc38 e2c0 7a65 e0c0 41de ddc0 f192 dfc0
00000280: 8bbd e4c0 62df e7c0 b267 e0c0 31d2 e2c0
00000290: f624 e5c0 2b9f e1c0 77cb ddc0 29fc dfc0
000002a0: 0136 e2c0 94af e3c0 85e6 dfc0 036b e1c0
000002b0: aaf3 e1c0 4681 ddc0 4bae dcc0 6370 dec0
000002c0: 0c95 ddc0 2ff0 dcc0 f293 dcc0 6540 e6c0
000002d0: e1b5 e4c0 b1a6 dcc0 0f31 e1c0 33e4 dcc0
000002e0: 622e ddc0 9268 d8c0 bcff d6c0 3e1f e0c0
000002f0: ff9f dec0 ed1d d9c0 e0c9 d8c0 4e7a e0c0
00000300: 7bc7 e5c0 3bae e3c0 0493 dcc0 a96c e5c0
00000310: 04a3 dfc0 987c e3c0 0686 eec0 40fa ddc0
00000320: 34e5 ebc0 2314 e6c0 9de0 dcc0 d8f5 e0c0
00000330: e3d2 dfc0 8a2d e2c0 5f7f e0c0 b16b e4c0
00000340: 7991 dcc0 9c92 dfc0 f26c e9c0 763a e0c0
00000350: 36b5 dec0 3fd2 e5c0 49fd d6c0 5be3 dec0
00000360: 1ad1 e1c0 2ac3 d6c0 d62e d8c0 697d e4c0
00000370: 4525 dcc0 2d75 ddc0 353e dfc0 c41c d9c0
00000380: 8d02 e4c0 de25 dec0 e179 dcc0 04f2 dec0
00000390: 6eca e1c0 2248 e1c0 273c e4c0 694f eac0
000003a0: 5816 dfc0 97f0 e0c0 1bee efc0 7403 d2c0
000003b0: 00ae e3c0 73dc e5c0 c300 d9c0 7265 e0c0
000003c0: 3a11 e0c0 c90a dec0 a175 ddc0 5876 d9c0
000003d0: 399e ddc0 6c58 d6c0 984a d9c0 5393 e4c0
000003e0: dc57 dbc0 ba1c e2c0 065f e9c0 78df e2c0
000003f0: 35fb d8c0 de37 e0c0 17c8 d9c0 0797 e0c0

eps_w f4 [256, 7, 1]
0.9965027 0.45173305 -0.42294624 0.81237805 1.2009454 -1.0858665 0.7804443 0.3163816
0.40212744 0.0906417 1.6714588 -0.7044544 -0.6327463 -0.85360366 0.30694902 0.45647803
-0.72542965 -3.0590155 0.22765091 -1.2951262 -0.31409428 1.3316693 -1.0388211 -1.2233388
0.9215894 0.70646083 -0.73361164 -1.4576173 -0.7668387 0.9108455 0.638241 -0.16697489
-0.5183588 -0.9305579 -0.33479643 -1.1044971 -0.08721774 1.220093 0.5327601 -0.057897743
1.192635 0.41601753 -1.1148856 -0.98473394 0.11995649 0.37687084 -0.93298924 0.37367237
-0.788592 2.4171164 -0.44152877 -0.039143022 -0.82265884 -0.110549435 -0.14539436 0.4505191
0.85437304 -0.4298647 0.23363237 0.8436845 1.9686929 0.25839695 1.8171135 0.894976
1.7953278 2.0667167 0.40090403 -0.052559737 -1.2631316 0.6269626 0.3267558 -1.0706664
0.7393581 0.59853804 -0.581445 -1.4349827 0.22168985 0.47008082 -0.35210478 1.0959328
-1.9490836 0.04294443 -1.853541 -1.2837117 1.6953245 1.1254082 -0.2850838 0.58502024
0.13611387 -0.50017625 2.1731715 0.10100681 -0.3865146 0.47591746 -0.6049162 -1.8793068
-1.4399225 1.1243486 -1.2360016 1.5112336 -1.1519145 1.0147046 0.45537123 -2.8296163
-0.23258129 -0.31319413 1.1702781 -0.6508333 -1.1889741 -1.9039987 -1.2381612 -0.42604133
0.6151206 1.8709853 0.6678304 3.3379564 2.5851364 0.06918179 -0.08052153 0.055868514
1.5170261 0.07716243 0.23471631 -1.1919788 -0.5005341 0.02925168 -0.46859908 0.90360636
-0.80043185 0.7263895 0.48528627 -0.06099739 -1.0168453 -0.41450468 -0.19748256 0.8223199
0.615053 -1.5688567 -0.259867 1.8345418 -0.21250528 0.87775785 -1.6308012 0.22708423
-0.5780842 -0.5304384 -0.73855066 -0.34614134 0.16843681 -0.56370753 0.34073663 0.531953
1.3128041 -0.2105661 -0.37868184 0.47584724 0.81542283 0.75679433 0.83593655 0.7023622
1.1783235 -0.54946613 -1.4291013 -1.3094908 2.018614 -1.13683 0.29973376 -0.04490854
0.20786771 -0.33149043 -0.58480126 -0.89807165 2.0012338 0.31928334 -0.39131707 0.15140224
0.61628634 -1.0262911 -0.4908983 0.9411224 0.19805044 0.6935682 1.1329061 2.1553912
0.04874822 -0.5102366 0.3716065 -1.0940659 -0.85906667 -0.06880049 0.36651316 -1.295055
-1.1798414 2.5324197 0.7475663 -0.8319301 -0.3195162 -0.01610859 -0.7768499 0.98949957
-0.29414824 0.3211415 -0.9281902 2.2827177 -0.32270488 -0.5327888 0.15437007 -0.022171533
-0.30102012 -0.2380551 0.29920527 1.7808137 -0.35182047 1.6539291 -0.67020065 0.48682883
0.56686634 0.23116593 -0.0042746975 -0.82566816 0.29458806 0.8870857 1.1787887 0.4731089
-0.42880356 -0.554649 1.3664013 0.3462544 -1.5985429 -0.15608335 1.631397 0.21355338
0.7146846 1.6548995 0.7019498 1.305471 1.7354108 1.3674071 -0.34321275 0.8395575
0.586386 1.4439725 -0.15241097 0.23099041 -2.1019897 0.0288803 -1.116619 0.47940812
0.46316567 -0.46206015 0.42948714 1.2642448 0.6449453 -1.2619468 0.22431506 2.004778
00000000: cd1a 7f3f 8e49 e73e 698c d8be 02f8 4f3f
00000010: 94b8 993f acfd 8abf 33cb 473f c5fc a13e
00000020: a6e3 cd3e 5ba2 b93d 5df2 d53f 2057 34bf
00000030: a9fb 21bf c585 5abf 6c28 9d3e 7db7 e93e
00000040: c2b5 39bf e9c6 43c0 521d 693e b2c6 a5bf
00000050: f7d0 a0be 2474 aa3f 17f8 84bf 5e96 9cbf
00000060: 48ed 6b3f 9eda 343f f9cd 3bbf 3493 babf
00000070: 8b4f 44bf 2c2d 693f c363 233f 77fb 2abe
00000080: 2ab3 04bf 0b39 6ebf 706a abbe 2960 8dbf
00000090: 379f b2bd 022c 9c3f f762 083f 2f26 6dbd
000000a0: 44a8 983f 4000 d53e 92b4 8ebf 8617 7cbf
000000b0: c0ab f53d 37f5 c03e 62d8 6ebf fc51 bf3e
000000c0: 2ae1 49bf 09b2 1a40 0f10 e2be 6f54 20bd
000000d0: c599 52bf be67 e2bd 42e2 14be 71aa e63e
000000e0: 31b8 5a3f 3a17 dcbe 533d 6f3e b5fb 573f
000000f0: 21fe fb3f 9b4c 843e 2d97 e83f 261d 653f
00000100: 4dcd e53f 1645 0440 4b43 cd3e e148 57bd
00000110: 4cae a1bf 9f80 203f 894c a73e 990b 89bf
00000120: 9346 3d3f ca39 193f 94d9 14bf 83ad b7bf
00000130: aa02 633e 6fae f03e 1447 b4be 8747 8c3f
00000140: 927b f9bf 80e6 2f3d d540 edbf aa50 a4bf
00000150: 6500 d93f 600d 903f 81f6 91be e3c3 153f
00000160: 6f61 0b3e 8d0b 00bf 3e15 0b40 a9dc ce3d
00000170: 3ee5 c5be 74ab f33e cadb 1abf 208d f0bf
00000180: 614f b8bf a8ea 8f3f 4d35 9ebf 1a70 c13f
00000190: ef71 93bf d7e1 813f 6b26 e93e 6f18 35c0
000001a0: ca29 6ebe fb5a a0be accb 953f 039d 26bf
000001b0: 4e30 98bf 3bb6 f3bf 117c 9ebf 1722 dabe
000001c0: 8b78 1d3f 727c ef3f eff6 2a3f 14a1 5540
000001d0: e072 2540 2faf 8d3d 79e8 a4bd 62d6 643d
000001e0: e92d c23f 5607 9e3d 7959 703e c392 98bf
000001f0: 0123 00bf 38a1 ef3c 38ec efbe bf52 673f
00000200: 1ae9 4cbf aaf4 393f 7177 f83e 66d8 79bd
00000210: fd27 82bf f539 d4be de38 4abe 8f83 523f
00000220: 1d74 1d3f 4cd0 c8bf 4a0d 85be 44d2 ea3f
00000230: fc9a 59be bdb4 603f 18be d0bf c588 683e
00000240: 53fd 13bf d0ca 07bf a811 3dbf 7039 b1be
00000250: b37a 2c3e 234f 10bf 0875 ae3e 122e 083f
00000260: f709 a83f a49e 57be 96e2 c1be 40a2 f33e
00000270: 8dbf 503f 46bd 413f f0ff 553f 02ce 333f
00000280: 4ed3 963f d0a9 0cbf cbec b6bf 659d a7bf
00000290: f930 0140 a583 91bf b476 993e 04f2 37bd
000002a0: 46db 543e 1db9 a9be 89b5 15bf 06e8 65bf
000002b0: 3714 0040 1b79 a33e b65a c8be 3009 1b3e
000002c0: f1c4 1d3f 825d 83bf 0657 fbbe 66ed 703f
000002d0: bccd 4a3e b08d 313f 1103 913f eef1 0940
000002e0: 37ac 473d de9e 02bf 3543 be3e 5a0a 8cbf
000002f0: cbeb 5bbf 45e7 8cbd 9da7 bb3e 5dc4 a5bf
00000300: 0b05 97bf 2a13 2240 8160 3f3f 5ff9 54bf
00000310: a197 a3be 29f6 83bc a3df 46bf d84f 7d3f
00000320: 999a 96be a96c a43e df9d 6dbf 0c18 1240
00000330: 9339 a5be d964 08bf 3013 1e3e 13a1 b5bc
00000340: 4f1f 9abe b7c4 73be 6f31 993e b4f1 e33f
00000350: d021 b4be f3b3 d33f 4592 2bbf a141 f93e
00000360: 271e 113f c3b6 6c3e c312 8cbb fd5e 53bf
00000370: 3fd4 963e 0c18 633f 8ce2 963f 543b f23e
00000380: 248c dbbe 7afd 0dbf 3de6 ae3f 4248 b13e
00000390: 0e9d ccbf 50d4 1fbe 9ed1 d03f bdad 5a3e
000003a0: 92f5 363f bfd3 d33f fbb2 333f ac19 a73f
000003b0: f121 de3f 3207 af3f 95b9 afbe 3eed 563f
000003c0: 651d 163f 17d4 b83f 9f11 1cbe c088 6c3e
000003d0: 0087 06c0 6196 ec3c 5fed 8ebf fb74 f53e
000003e0: 0d24 ed3e 2693 ecbe bde5 db3e c6d2 a13f
000003f0: 231b 253f 7987 a1bf d9b2 653e 484e 0040

sigma f4 [256, 7, 1]
0.00091358845 0.00107665 0.0009325523 0.0008282184 0.00093672046 0.0010317801 0.0008468064 0.0009336744
0.00093271193 0.00076499366 0.00082896923 0.0008929095 0.0009925638 0.0008862946 0.00083213305 0.00087477727
0.0010432075 0.00070307223 0.0009601995 0.00096606184 0.0010310129 0.0009721406 0.0007011085 0.0008901356
0.0009379057 0.0009812742 0.0010824916 0.0010369811 0.00087251747 0.000990603 0.0008953292 0.0009138912
0.0008945473 0.00091756915 0.0010326328 0.00094729866 0.0011570777 0.00089309126 0.001525514 0.0007034547
0.0009031059 0.0009860862 0.00091104733 0.00078182056 0.0008712915 0.0009651308 0.00091647514 0.0008416209
0.00094735145 0.00082300353 0.0010036489 0.0010388831 0.0010372273 0.00092884 0.0010228888 0.00087983767
0.0009897347 0.0011737904 0.0011012144 0.00089110644 0.0008860796 0.0010150864 0.0009934048 0.00093310897
0.0008582529 0.0010039842 0.00092979055 0.0008395995 0.0009229548 0.0010157112 0.0008831653 0.0007414416
0.0008772963 0.0007501385 0.0007005582 0.0009323995 0.00075977563 0.0006589534 0.00063251826 0.0008897428
0.0009553639 0.0010491393 0.0010982103 0.0008061136 0.00085665693 0.0008060828 0.0008492963 0.00094013626
0.0009323083 0.00081901 0.0009125588 0.0009331192 0.00080715085 0.0006816017 0.0009766471 0.0010362592
0.0015082962 0.0009401103 0.0010138666 0.0009239949 0.0009502823 0.00090935634 0.00091974303 0.00076999195
0.00077344483 0.00080293114 0.0010443891 0.00089761347 0.0007892408 0.00096394116 0.0009675078 0.001280326
0.000788426 0.0009420632 0.0009407037 0.00078614074 0.0009179685 0.0009386073 0.0012632159 0.0009412136
0.0012424447 0.0015189679 0.00083461247 0.00081441656 0.0010880413 0.0011504565 0.00090435677 0.00080931286
0.000850452 0.0009942608 0.0006686372 0.00082168344 0.0010263593 0.00084189815 0.0009102418 0.0010903445
0.0009840899 0.00082526973 0.0009798235 0.000981008 0.0008054902 0.0008799983 0.00088218757 0.00092161854
0.00099782 0.00077262835 0.0008682925 0.00096750364 0.0008540396 0.0009683557 0.0009624207 0.0008273966
0.0009013973 0.000953738 0.00077341794 0.0009925519 0.0008503535 0.00090025057 0.0009742255 0.0009236761
0.0007860182 0.00071275356 0.00090000685 0.0008345854 0.0007761615 0.0008664441 0.0009764614 0.0009118936
0.0008506434 0.00081234204 0.0009143046 0.00087197573 0.00085755694 0.0009853407 0.0010110341 0.0009570091
0.0009829663 0.0010029387 0.0010142896 0.0007497764 0.00078675366 0.0010119723 0.00087816356 0.0010044064
0.0009953564 0.0011553607 0.0012073574 0.0009079986 0.00095146603 0.0011300786 0.0011417263 0.0008979656
0.0007609209 0.0008124756 0.0010144046 0.0007694005 0.00092186633 0.00081741146 0.0005790337 0.0009709034
0.00062858255 0.0007538365 0.001004846 0.0008845314 0.00091649743 0.00085152243 0.0008974107 0.000793908
0.0010145955 0.00092371355 0.00067900063 0.00090498803 0.00094900635 0.00075992197 0.0012077182 0.0009436783
0.0008611811 0.0012163119 0.0011635273 0.00079219346 0.0010280787 0.0009867961 0.0009332753 0.0011302384
0.0008041591 0.0009657502 0.0010175204 0.0009419918 0.00086188246 0.0008756946 0.00079852674 0.0006604931
0.0009378257 0.00088509865 0.0005541403 0.0014107596 0.0008124985 0.00075897644 0.0011341067 0.000900254
0.0009095527 0.0009689466 0.0009867416 0.0011179537 0.0009818665 0.0012322546 0.0011239368 0.00079007796
0.0010541693 0.00085327105 0.0006801551 0.00083323446 0.0011348753 0.0009052744 0.0011068595 0.0008948241
00000000: e27d 6f3a 611e 8d3a 8776 743a cc1c 593a
00000010: 3f8e 753a cc3c 873a 37fc 5d3a d4c1 743a
00000020: 3d81 743a db89 483a 2f4f 593a 2412 6a3a
00000030: ea18 823a 3956 683a 8123 5a3a 4f51 653a
00000040: 3cbc 883a 614e 383a e6b5 7b3a 503f 7d3a
00000050: 0d23 873a 40d7 7e3a 98ca 373a fd57 693a
00000060: c9dd 753a 199e 803a 64e2 8d3a 50eb 873a
00000070: a8b9 643a 1fd7 813a 87b4 6a3a 3392 6f3a
00000080: 0e80 6a3a 0689 703a 6859 873a 2354 783a
00000090: 16a9 973a 571e 6a3a c1f3 c73a 0c68 383a
000000a0: 69be 6c3a 903f 813a 5ad3 6e3a 17f3 4c3a
000000b0: 6267 643a d500 7d3a 9b3f 703a 39a0 5c3a
000000c0: ae57 783a d5be 573a de8c 833a 222b 883a
000000d0: 93f3 873a 667d 733a 7412 863a e8a4 663a
000000e0: fcb9 813a dfd9 993a a056 903a 2499 693a
000000f0: cc47 683a a60c 853a 2235 823a e29b 743a
00000100: 61fc 603a 1f98 833a 30bd 733a 9218 5c3a
00000110: 73f2 713a 9d21 853a 3884 673a 4e5d 423a
00000120: 5cfa 653a f1a4 443a aaa5 373a 456c 743a
00000130: ae2b 473a 9dbd 2c3a 95cf 253a a13d 693a
00000140: 6371 7a3a 4683 893a d3f1 8f3a 5e51 533a
00000150: 4691 603a 4d4f 533a 4fa3 5e3a 7a73 763a
00000160: 2766 743a d5b2 563a c938 6f3a 929c 743a
00000170: fa96 533a 84ad 323a d702 803a 17d3 873a
00000180: 06b2 c53a bc71 763a b8e3 843a 4038 723a
00000190: 5e1c 793a df61 6e3a e91a 713a 49d9 493a
000001a0: 01c1 4a3a cc7b 523a e2e3 883a d24d 6b3a
000001b0: 0ee5 4e3a ffb0 7c3a 59a0 7d3a 9dd0 a73a
000001c0: 60ae 4e3a cbf4 763a 8f99 763a 0315 4e3a
000001d0: d3a3 703a df0c 763a 7e92 a53a c7bb 763a
000001e0: 87d9 a23a 1b18 c73a e5c9 5a3a 927e 553a
000001f0: 9c9c 8e3a eaca 963a 5b12 6d3a 1128 543a
00000200: def0 5e3a db51 823a 7c47 2f3a 3e66 573a
00000210: e786 863a d4b2 5c3a 4b9d 6e3a e4e9 8e3a
00000220: 94fc 803a ea56 583a 6c6d 803a 2b95 803a
00000230: 8827 533a b0af 663a 9b42 673a c698 713a
00000240: 49c9 823a 368a 4a3a 209e 633a 12a0 7d3a
00000250: a1e1 5f3a 40d9 7d3a f64a 7c3a a5e5 583a
00000260: c04b 6c3a 4604 7a3a 33bf 4a3a 8418 823a
00000270: 42ea 5e3a cbfe 6b3a 2b63 7f3a db22 723a
00000280: ca0c 4e3a 15d8 3a3a 70ee 6b3a 14c8 5a3a
00000290: 5177 4b3a 1422 633a 37f9 7f3a 250c 6f3a
000002a0: b6fd 5e3a 5af3 543a f1ad 6f3a 4d95 643a
000002b0: accd 603a 8c26 813a ad84 843a cbdf 7a3a
000002c0: e0d6 803a 0a75 833a e9f1 843a a48c 443a
000002d0: 253e 4e3a 28a4 843a 8f34 663a 49a6 833a
000002e0: 9e76 823a 796f 973a 3140 9e3a c106 6e3a
000002f0: ce6b 793a 251f 943a faa5 953a 7465 6b3a
00000300: 8a78 473a 51fc 543a c5f5 843a 98b1 493a
00000310: 67a9 713a 8e47 563a 4bca 173a 3984 7e3a
00000320: 76c7 243a 1c9d 453a 09b5 833a e6df 673a
00000330: 1a41 703a b438 5f3a 3640 6b3a 441e 503a
00000340: 2dfc 843a 5e25 723a f6fe 313a b83c 6d3a
00000350: bdc6 783a 8035 473a 4c4c 9e3a 2e61 773a
00000360: e3c0 613a a86c 9f3a 7f81 983a 34ab 4f3a
00000370: 99c0 863a 6257 813a 0ca7 743a 8224 943a
00000380: 34ce 523a 662a 7d3a 525e 853a 00f0 763a
00000390: f4ef 613a df8e 653a 3954 513a f124 2d3a
000003a0: 6bd8 753a f705 683a ba43 113a 3de9 b83a
000003b0: dafd 543a 0cf6 463a 4ea6 943a 06ff 6b3a
000003c0: 0c6f 6e3a e800 7e3a 8e55 813a 4d88 923a
000003d0: f9b1 803a 9a83 a13a 1051 933a 3c1d 4f3a
000003e0: 0d2c 8a3a 0dae 5f3a 704c 323a 6b6d 5a3a
000003f0: 19c0 943a f04f 6d3a 0b14 913a a192 6a3a
